HPC/Major_project/linear_regression/models/exp1/0.pth (torch, 34783 bytes, 3 tensors)

network.0.weight f4 [90, 90]
-0.38905355 -0.27374074 0.08484437 0.24825314 0.34643704 0.21123262 -0.10431513 0.318536
-0.2223655 0.26628187 -0.23801571 0.28747335 0.43639943 0.3088013 0.25172693 0.23656943
0.3328404 0.2404663 0.40061587 0.22976433 0.3992723 0.06889154 0.29886538 0.36348277
-0.1481556 0.1640585 0.07573757 0.13648014 0.07914814 0.15721679 0.14916417 -5.2279902e-05
0.10019148 0.14091118 -0.0045445785 0.30382934 0.18975611 0.21042785 -0.12709032 -0.029343624
0.005565224 -0.015177295 -0.10378461 -0.14463237 -0.11124508 0.2030856 -0.0902599 0.34157884
-0.14824063 -0.1639006 -0.014628589 0.19920498 0.11604351 -0.040074695 -0.39813066 0.2596489
0.23268734 0.16906199 0.12181496 0.28598654 0.09133195 -0.20050642 0.25774047 -0.11914158
-0.13818626 -0.01594449 0.1481722 0.011884568 0.067616224 -0.034354188 -0.14867511 -0.08955911
-0.0877385 0.073122226 -0.06916959 -0.394487 0.114045314 -0.041446924 -0.0766881 -0.018306086
0.4749149 -0.16909903 0.15780084 -0.0901411 -0.17789856 -0.069633394 -0.07380592 0.10238407
0.081966795 0.2619096 -0.34736565 -0.12366259 -0.44464946 -0.1617053 0.29624212 -0.05672154
-0.23220977 -0.50705785 -0.11724559 -0.16147782 0.27684736 0.04941415 0.06452718 0.47405034
0.1420828 0.1843767 0.104452096 0.0826013 0.026019763 0.22048207 0.17789268 0.029276064
0.2746755 0.20577423 -0.06582868 0.33368605 0.017116548 0.14476189 0.17533346 -0.17051749
0.050736416 -0.23913488 0.03738204 -0.11298082 -0.038041033 -0.03254279 0.35299546 0.31338575
-0.16239017 -0.1978369 0.030175032 0.073992305 0.2249491 0.20253506 -0.12326173 0.27117446
0.37056738 -0.117814526 -0.22930329 -0.27305612 -0.09053865 0.050003678 -0.48982042 -0.16629659
0.07287718 0.12252506 -0.25120765 -0.18322483 0.32989013 0.02975436 -0.05262612 -0.28406
0.32693464 -0.22138104 -0.01581444 0.31684092 0.08725788 -0.07753882 -0.043060888 0.1557635
-0.28335708 -0.058017537 -0.19295345 -0.36613783 0.20005472 -0.31561342 0.08663489 0.20715705
0.22689374 -0.16438565 0.20721097 -0.26836658 -0.3264562 -0.15724534 -0.22300681 0.08360808
0.26330104 0.035795704 0.052033745 0.055612866 -0.42563936 -0.26204142 -0.19643776 -0.39750278
-0.20944677 0.50660783 -0.28000855 -0.11787897 0.35163954 -0.1554666 -0.45495206 0.13903043
-0.060508493 0.08011192 -0.026023166 0.17451924 0.0432271 0.07564005 -0.040764075 -0.08308287
0.016428929 0.11442031 0.03842018 0.31553707 0.27069724 -0.2909002 0.01028105 -0.14304088
-0.21217516 0.3429168 -0.1447301 -0.064647645 -0.29026723 0.0074276915 0.37172592 0.42485437
-0.04705188 -0.36682308 -0.024179813 0.08397323 0.08936573 -0.25402108 0.17596915 -0.10001968
0.005299302 0.1506697 -0.18786417 -0.06586014 0.30331844 -0.2803259 0.14160559 -0.07013189
-0.20913598 0.11049846 0.5401639 0.15307324 0.15483278 0.17894185 0.24882556 0.054760426
-0.085711084 0.1624253 0.38563117 0.19862361 0.15384369 0.23713368 -0.26346952 0.075603485
0.2246769 -0.13249713 0.25950345 0.17066726 -0.14369966 0.23533064 0.13389513 0.027044924
00000000: 0732 c7be bf27 8cbe e3c2 ad3d 1236 7e3e
00000010: 3260 b13e 5d4d 583e 2ca3 d5bd 2717 a33e
00000020: c8b3 63be 1956 883e 64ba 73be b52f 933e
00000030: bf6f df3e 341b 9e3e 5ae2 803e 423f 723e
00000040: 0f6a aa3e cc3c 763e 861d cd3e 5747 6b3e
00000050: 6b6d cc3e 0217 8d3d e204 993e 6a1a ba3e
00000060: 1ab6 17be f4fe 273e 4d1c 9b3d 73c1 0b3e
00000070: 6c18 a23d 70fd 203e 7ebe 183e 1e47 5bb8
00000080: 3131 cd3d 054b 103e b0ea 94bb 858f 9b3e
00000090: 6d4f 423e 667a 573e f723 02be 0a62 f0bc
000000a0: 7c5c b63b 30aa 78bc 078d d4bd 821a 14be
000000b0: 76d4 e3bd acf5 4f3e 2fda b8bd 6ce3 ae3e
000000c0: 64cc 17be 8fd5 27be c0ac 6fbc 64fc 4b3e
000000d0: 38a8 ed3d 5d25 24bd c8d7 cbbe b3f0 843e
000000e0: 9745 6e3e 961e 2d3e 1f7a f93d d46c 923e
000000f0: 3f0c bb3d 8e51 4dbe 8ff6 833e 8000 f4bd
00000100: b380 0dbe 059e 82bc 74ba 173e 7eb7 423c
00000110: 607a 8a3d fab6 0cbd 4a3e 18be c46a b7bd
00000120: 3eb0 b3bd 1bc1 953d c9a8 8dbd 33fa c9be
00000130: 9790 e93d 40c4 29bd a70e 9dbd a5f6 95bc
00000140: 0c28 f33e 4c28 2dbe 8b96 213e e69b b8bd
00000150: 0a2b 36be f49b 8ebd 8f27 97bd bdae d13d
00000160: 35de a73d 0419 863e e9d9 b1be d042 fdbd
00000170: 18a9 e3be 1396 25be 0cad 973e d854 68bd
00000180: 66c8 6dbe 8bce 01bf 751e f0bd 715a 25be
00000190: f0be 8d3e 7e66 4a3d d326 843d bab6 f23e
000001a0: 277e 113e 3fcd 3c3e fbea d53d df2a a93d
000001b0: 6627 d53c 0dc6 613e 8029 363e 5bd4 ef3c
000001c0: 44a2 8c3e 7bb6 523e 30d1 86bd e6d8 aa3e
000001d0: 0138 8c3c 763c 143e 9d8a 333e 239c 2ebe
000001e0: fdd0 4f3d c6df 74be e91d 193d 7d62 e7bd
000001f0: ead0 1bbd 974b 05bd d2bb b43e 1974 a03e
00000200: 9c49 26be c295 4abe a131 f73c 4789 973d
00000210: 0f59 663e 5a65 4f3e a570 fcbd 61d7 8a3e
00000220: 02bb bd3e be48 f1bd 7bce 6abe 03ce 8bbe
00000230: 546c b9bd a8d0 4c3d bec9 fabe a749 2abe
00000240: a240 953d 6bee fa3d 4a9e 80be 4a9f 3bbe
00000250: 5ce7 a83e 6abf f33c 7d8e 57bd 5070 91be
00000260: fa63 a73e b6b1 62be 498d 81bc f938 a23e
00000270: 42b4 b23d accc 9ebd 9d60 30bd 7880 1f3e
00000280: 2e14 91be cca3 6dbd 9795 45be 6b76 bbbe
00000290: 25db 4c3e 1598 a1be a26d b13d fa20 543e
000002a0: d556 683e b654 28be 1d2f 543e 5867 89be
000002b0: 4425 a7be ec04 21be e65b 64be b73a ab3d
000002c0: 65cf 863e 849e 123d 5621 553d 51ca 633d
000002d0: 67ed d9be 4b2a 86be fb26 49be 7c85 cbbe
000002e0: 3779 56be 0db1 013f 485d 8fbe 886a f1bd
000002f0: 190a b43e a332 1fbe 7aef e8be fe5d 0e3e
00000300: c1d7 77bd b811 a43d 892e d5bc 2cb5 323e
00000310: e60e 313d 2ce9 9a3d 3bf8 26bd 5a27 aabd
00000320: f695 863c 3255 ea3d 7b5e 1d3d 138e a13e
00000330: d498 8a3e dff0 94be d971 283c 4f79 12be
00000340: 7244 59be ca92 af3e 2134 14be fc65 84bd
00000350: e89d 94be fe63 f33b dc52 be3e 8386 d93e
00000360: 79b9 40bd 3cd0 bbbe be14 c6bc 28fa ab3d
00000370: 6105 b73d 0d0f 82be 4231 343e 1ed7 ccbd
00000380: c4a5 ad3b 2849 1a3e 775f 40be aee1 86bd
00000390: 8e4c 9b3e e086 8fbe 0e01 113e 4fa1 8fbd
000003a0: be27 56be 044d e23d 2e48 0a3f 3bbf 1c3e
000003b0: 7c8c 1e3e 883c 373e 21cc 7e3e 784c 603d
000003c0: 4b89 afbd d152 263e 7371 c53e fd63 4b3e
000003d0: 3389 1d3e 2cd3 723e 7ae5 86be 00d6 9a3d
000003e0: b411 663e 54ad 07be a3dd 843e 66c3 2e3e
000003f0: 0126 13be 84fa 703e ce1b 093e 518d dd3c

network.0.bias f4 [90]
-0.9570306 1.4696262 1.3676128 1.9932468 1.2555152 0.94447654 1.9118454 0.96044123
1.6962816 -0.88329077 0.97184 3.1266928 -0.7070746 1.383642 2.0226278 -0.85857826
1.5581272 1.8446803 1.371999 2.5085568 2.5677786 -0.7698992 1.314488 1.3472799
1.0381337 1.9052925 1.2962385 1.8738636 -0.9689769 0.9625146 3.332461 1.6914876
2.3543413 1.002411 1.5020019 1.8001274 1.4841653 -0.8057108 1.2413197 1.7703644
-0.65317106 -0.83922064 1.1426934 1.2823032 0.8994464 2.2667804 1.3105093 1.555486
-0.8206634 3.0008683 0.9267791 -0.1201504 -0.9585104 -0.062386703 2.7956567 1.3611023
1.2320061 1.2133399 1.15756 1.3273611 1.5697122 1.6287456 -0.17250986 1.6197423
1.2845367 1.3735768 -0.99110734 1.5742072 1.3864393 0.9528071 0.8098404 1.8905946
0.96058077 1.0906948 -0.8542861 0.84474105 0.84871984 1.4779332 0.90168726 1.4375411
-1.0920507 1.3844236 1.0028948 3.158968 -0.98491853 -0.8755704 1.69899 1.0921612
1.6529723 -0.69081223
00000000: f5ff 74bf b61c bc3f f00d af3f b622 ff3f
00000010: b9b4 a03f 37c9 713f 5ab7 f43f 7adf 753f
00000020: c11f d93f 581f 62bf 82ca 783f bc1b 4840
00000030: d702 35bf 2e1b b13f bc72 0140 c9cb 5bbf
00000040: b670 c73f 7c1e ec3f aa9d af3f 328c 2040
00000050: 7c56 2440 1d18 45bf 2541 a83f ab73 ac3f
00000060: 91e1 843f a0e0 f33f 25eb a53f c3da ef3f
00000070: df0e 78bf 5b67 763f 0b47 5540 aa82 d83f
00000080: 87ad 1640 014f 803f 9941 c03f 936a e63f
00000090: 21f9 bd3f 1043 4ebf 90e3 9e3f 4d9b e23f
000000a0: 3836 27bf 2ad7 56bf c743 923f 8322 a43f
000000b0: 1f42 663f ee12 1140 c5be a73f 2a1a c73f
000000c0: ff16 52bf 3a0e 4040 6541 6d3f 6a11 f6bd
000000d0: f060 75bf 3389 7fbd 0aec 3240 9a38 ae3f
000000e0: 60b2 9d3f b94e 9b3f ed2a 943f f8e6 a93f
000000f0: 54ec c83f bc7a d03f 6da6 30be b753 cf3f
00000100: b36b a43f 5dd1 af3f 36b9 7dbf 9f7f c93f
00000110: d876 b13f 2beb 733f b351 4f3f 01ff f13f
00000120: 9fe8 753f e39b 8b3f 7eb2 5abf f340 583f
00000130: b445 593f ea2c bd3f fad4 663f 5901 b83f
00000140: 51c8 8bbf cb34 b13f db5e 803f 882c 4a40
00000150: 9f23 7cbf 6225 60bf 8178 d93f f0cb 8b3f
00000160: 9994 d33f 12d9 30bf

network.2.weight f4 [1, 90]
-0.62141 0.63760436 0.61479676 0.5951147 0.48331282 0.40128165 0.5252937 0.57132924
0.48553923 -0.5283314 0.35664448 1.0709337 -0.58055955 0.61983 0.5880312 -0.5184416
0.591425 0.623072 0.5760162 0.85956395 0.8444867 -0.5525785 0.4618198 0.60590947
0.39095128 0.6606618 0.42458647 0.5762829 -0.61554253 0.41467065 1.5317591 0.6910157
0.7514063 0.40522733 0.42672956 0.48229808 0.5940099 -0.5524139 0.61809593 0.55816513
-0.4638916 -0.53282565 0.31605202 0.39357123 0.5796204 0.89668006 0.58877856 0.62785286
-0.6626331 1.1608787 0.4991725 -0.08974666 -0.74511087 -0.029912777 1.0102507 0.5095207
0.34438545 0.39152044 0.3866927 0.37887117 0.5501921 0.7485439 -0.21504332 0.64523953
0.35379586 0.38319334 -0.59953266 0.6641576 0.58523285 0.4426614 0.24499755 0.6002306
0.49471655 0.35708076 -0.540263 0.46168128 0.5447708 0.45421126 0.47670558 0.58845675
-0.64422286 0.36357474 0.47141373 1.2471311 -0.63499266 -0.58580655 0.6428955 0.35596794
0.6066145 -0.48845997
00000000: ba14 1fbf 0a3a 233f 5263 1d3f 7059 183f
00000010: c774 f73e ca74 cd3e a679 063f a242 123f
00000020: 9998 f83e ba40 07bf 1b9a b63e 5b14 893f
00000030: 8d9f 14bf 2ead 1e3f 3689 163f 97b8 04bf
00000040: a167 173f a681 1f3f cc75 133f 620c 5c3f
00000050: 4830 583f c975 0dbf a573 ec3e e21c 1b3f
00000060: c42a c83e 2221 293f 6663 d93e 4787 133f
00000070: 3294 1dbf b64f d43e af10 c43f 68e6 303f
00000080: 2a5c 403f f579 cf3e 4c7c da3e c6ef f63e
00000090: 0811 183f ff6a 0dbf 893b 1e3f e9e3 0e3f
000000a0: 3383 edbe 4367 08bf 92d1 a13e 2b82 c93e
000000b0: 0162 143f d38c 653f 31ba 163f f7ba 203f
000000c0: 53a2 29bf ac97 943f 8a93 ff3e 19cd b7bd
000000d0: 96bf 3ebf a40b f5bc e54f 813f f36f 023f
000000e0: 4a53 b03e 5e75 c83e 96fc c53e 67fb c13e
000000f0: 64d9 0c3f 93a0 3f3f 5134 5cbe 6b2e 253f
00000100: bb24 b53e eb31 c43e f97a 19bf 3c06 2a3f
00000110: d2d1 153f 84a4 e23e a3e0 7a3e b6a8 193f
00000120: 7d4b fd3e 4ad3 b63e ad4e 0abf 7d61 ec3e
00000130: 1976 0b3f 618e e83e c112 f43e 1aa5 163f
00000140: caeb 24bf 7826 ba3e 245d f13e fea1 9f3f
00000150: e18e 22bf 6bf7 15bf cd94 243f 6e41 b63e
00000160: 164b 1b3f 6d17 fabe
