HPC/Major_project/logistic_regression/models/exp1/100.pth (torch, 4959 bytes, 3 tensors)

network.0.weight f4 [28, 28]
0	0xbf03cdc7	-0.51485866
1	0xbf570683	-0.8399431
2	0xbddbc654	-0.107311875
3	0xbf138530	-0.57625103
4	0xbe5f4931	-0.21805264
5	0x3d973494	0.07383075
6	0x3fa6f7b9	1.3044349
7	0x3e115052	0.14190796
8	0x3f886905	1.065705
9	0xbf83ccdb	-1.0296892
10	0xbc89680b	-0.016773244
11	0xbf4de04c	-0.80420375
12	0x3ef596fd	0.47966757
13	0xbf511b36	-0.81682146
14	0xbdee8ee7	-0.1164835
15	0xbed45977	-0.41474506
16	0x3f27eef3	0.6559898
17	0x3f02dda4	0.51119447
18	0xbf279939	-0.65468174
19	0xbeec3443	-0.46133623
20	0x3ec9b854	0.39398444
21	0xbe564ed2	-0.20928505
22	0x3e9d46c9	0.30718067
23	0xbf896aa0	-1.0735664
24	0x3e1f7849	0.15573229
25	0x3f4cd4c0	0.8001213
26	0xbf9b3107	-1.2124337
27	0xbe46ce9b	-0.19414751
28	0xbef1d346	-0.472315
29	0x3ed49a55	0.41523996
30	0x3da41745	0.08012251
31	0x3e773c1d	0.24144025
32	0x3c91f5d6	0.017817419
33	0x3f451175	0.7697976
34	0xbee4cea0	-0.44688892
35	0xbc55c880	-0.013048291
36	0x3eb7f248	0.35927033
37	0x3fb1d360	1.3892632
38	0xbcb09e72	-0.021559928
39	0xbd29251f	-0.041295167
40	0x3f565f52	0.837392
41	0x3f9e7262	1.2378657
42	0x3cf12380	0.029435873
43	0xbde8138f	-0.113318555
44	0x3f6effa3	0.9335882
45	0x3f8c978e	1.0983751
46	0x3cc8ef68	0.02452822
47	0x3b0447a2	0.0020184298
48	0x3eec353b	0.46134362
49	0xbef3ee14	-0.47642577
50	0x40228776	2.5395179
51	0x3e0256f8	0.12728488
52	0x401f418b	2.4883754
53	0xc02a8077	-2.6640909
54	0x400e6852	2.2251172
55	0xc093378a	-4.6005297
56	0xbfce1613	-1.6100487
57	0x3d85282c	0.06501803
58	0x3dd50755	0.10401789
59	0xbf9a6526	-1.2062118
60	0x3dbea9b0	0.09309709
61	0x3e1df4a4	0.15425354
62	0xbe2d8363	-0.16944651
63	0x3b84269c	0.004032923
64	0x3f3271fa	0.69705164
65	0x3e7cdeb0	0.24694324
66	0x3e85b673	0.2611576
67	0xbce33931	-0.027737232
68	0x3eb01d4a	0.34397346
69	0x3efa6088	0.48901772
70	0x3dbc75b9	0.09202141
71	0xbd333369	-0.0437502
72	0x3eabbef1	0.33544114
73	0x3efc5836	0.4928605
74	0xbabe9478	-0.0014540097
75	0x3d52b9be	0.05144667
76	0x3ed79e7b	0.42113099
77	0xc00cb87e	-2.1987605
78	0x3eb5335c	0.35390747
79	0x3f0d4e5b	0.55197686
80	0xbc74cef1	-0.014941917
81	0xc0fc3681	-7.8816533
82	0x40404437	3.0041635
83	0xc0c2a013	-6.0820403
84	0x3f3aed99	0.73018795
85	0xbca8f99c	-0.020626836
86	0xbcb8703a	-0.022514451
87	0x3f94702a	1.159673
88	0x3d0c030c	0.034182593
89	0xbde95737	-0.11393588
90	0x3df1a53c	0.11799094
91	0x3d181429	0.0371286
92	0x3e84bfd5	0.25927606
93	0xbdb73f37	-0.08947604
94	0x3db5faf2	0.08885755
95	0x3c1ad1b3	0.00944941
96	0x3d024687	0.03180554
97	0xbe323f2a	-0.17406908
98	0xbce6f583	-0.028193241
99	0x3dc982a9	0.098393746
100	0x3dc0c9a2	0.094134584
101	0x3df748ab	0.12074407
102	0xbd264211	-0.04059035
103	0x3dbc67d2	0.0919949
104	0x3e866a80	0.26253128
105	0xbf03afdb	-0.5144021
106	0x3d179cf6	0.037014924
107	0xbdf1123a	-0.117710546
108	0xbf6255f8	-0.8841243
109	0x3ed1da6e	0.4098696
110	0x40645cf7	3.5681741
111	0xc1489a5a	-12.5376835
112	0xc0a39634	-5.1120853
113	0xbe3ba055	-0.1832288
114	0x3b869d72	0.0041081244
115	0xc01a88a3	-2.4145896
116	0x3cf6b7aa	0.030116875
117	0x3f2bee70	0.671607
118	0x3d98918f	0.07449638
119	0xbd0ccb0a	-0.03437332
120	0xbef59c26	-0.47970694
121	0x3d07eaf8	0.033183068
122	0x3cd0f00e	0.025505092
123	0xbd80bb41	-0.06285716
124	0xbd836994	-0.06416622
125	0x3e3dbf55	0.18530019
126	0xbc6b636e	-0.014366968
127	0x3c92ed91	0.017935546
128	0x3e5136f8	0.20431125
129	0x3dce15bb	0.100627385
130	0xbcabf0fe	-0.020988937
131	0x3b77e40d	0.0037825138
132	0x3eca7c65	0.3954803
133	0x3e416e8e	0.1888983
134	0x3f4fa62a	0.8111292
135	0x3fbecae4	1.4905667
136	0xbef3e782	-0.47637564
137	0x4082c28d	4.086249
138	0xc0e861a1	-7.2619176
139	0x3fa6d73a	1.3034432
140	0x3e4fcd3c	0.20293134
141	0x3d4dff73	0.050292443
142	0x3c35c8ea	0.011095265
143	0x3eac3644	0.3363515
144	0x3d1f01dc	0.038820133
145	0x3d9f343f	0.07773637
146	0xbd9461c5	-0.072452106
147	0x3c979e55	0.018508116
148	0xbd9b2d64	-0.07577017
149	0x3e526f98	0.20550382
150	0x3d69dfb4	0.057098106
151	0xbbbacb9e	-0.0057005426
152	0x3de7cd97	0.1131851
153	0x3dbb4ed5	0.091458954
154	0xbbe15e08	-0.0068776645
155	0x3c7417ae	0.014898224
156	0x3ec0c14a	0.37647468
157	0x3d25ed8b	0.04050974
158	0xbc6c6555	-0.014428456
159	0x3c829f5c	0.01594513
160	0x3f018f1f	0.5060901
161	0x40966da6	4.700885
162	0xc1604ce3	-14.018771
163	0xbea94311	-0.3305898
164	0xbefb6658	-0.4910152
165	0x3f6dc7c3	0.9288294
166	0xc04c478d	-3.191867
167	0x3f6f50ed	0.9348286
168	0x3f061a3c	0.5238378
169	0x3cd49968	0.025952056
170	0x3bf195a4	0.007372575
171	0x3e2920f5	0.16516478
172	0x3d35f9f6	0.044427834
173	0x3d841572	0.06449403
174	0x3c9862b1	0.018601747
175	0xbb825c9b	-0.0039783246
176	0xbe0a2b32	-0.1349304
177	0x3e837430	0.25674582
178	0x3da6d354	0.081457764
179	0xbc0f99e4	-0.008764718
180	0xbea78d70	-0.32725096
181	0x3ecbeb37	0.39827892
182	0xbc18e7e0	-0.009332627
183	0x3d85c7c6	0.065322444
184	0xbeb1af2d	-0.3470396
185	0x3eea6f4d	0.4578804
186	0xbbd16572	-0.006390267
187	0xbcf94cca	-0.030432124
188	0xbf0fe291	-0.5620509
189	0x3d8e92d1	0.06961597
190	0x3da81963	0.08207967
191	0xbef3b6b1	-0.4760032
192	0x3f4f732f	0.8103513
193	0xc151c0b1	-13.109544
194	0xbe8e3da8	-0.27781415
195	0xbdf7ce0b	-0.120998465
196	0x404727df	3.1118085
197	0xc081bbf4	-4.0541935
198	0xbd41ba37	-0.04729673
199	0x3f7a70d8	0.97828436
200	0xbc16e5fc	-0.009210106
201	0x3fe57384	1.7925878
202	0x40c0cb59	6.0248227
203	0xbe146475	-0.14491446
204	0xbf843336	-1.0328128
205	0x3f2d53d4	0.67706037
206	0xbee36708	-0.44414544
207	0x3e3e880c	0.18606585
208	0x3f38b3f2	0.72149575
209	0x3f270f75	0.6525796
210	0xbe7e2085	-0.24817093
211	0x3d090ee2	0.03346146
212	0x3eff3d1d	0.49851313
213	0x3e17f7b9	0.14840592
214	0xbda5c58c	-0.0809432
215	0xbd649afd	-0.05581187
216	0x3e9311c7	0.287245
217	0x3e3b5f62	0.18298104
218	0xbf1c51e9	-0.61062485
219	0xbec6dc39	-0.38839892
220	0xbe805ae1	-0.25069335
221	0xbf5df45b	-0.8670098
222	0xbd69f092	-0.05711419
223	0x3f73f3a6	0.95293653
224	0x400dadf8	2.2137432
225	0xbed28412	-0.41116387
226	0x3d461a2a	0.048364796
227	0x3faa6c3b	1.3314279
228	0x3e0bca32	0.1365135
229	0xbef5b25f	-0.4798765
230	0x3dbc11ba	0.091830686
231	0xbe1b8f41	-0.15191366
232	0x3f31631c	0.69291854
233	0xbf357f79	-0.7089763
234	0xbbb09237	-0.005388524
235	0xbccd5ea6	-0.025069546
236	0xbec5fb29	-0.38668182
237	0x3e913019	0.28357008
238	0xbc49dfcd	-0.012321425
239	0x3d4c1d8d	0.04983287
240	0xbd64aabb	-0.055826884
241	0x3f2f02b4	0.683635
242	0x3df0665c	0.117382735
243	0xbd6e9f9b	-0.05825768
244	0x3eb49567	0.35270235
245	0xbf792eb9	-0.9733692
246	0xc072084a	-3.781756
247	0xbe9c4de8	-0.30528188
248	0x3fafd35d	1.3736378
249	0x406523fa	3.5803208
250	0x40285f1b	2.6308048
251	0xc018e3d7	-2.3889062
252	0x3f495354	0.78642774
253	0xbc784d4c	-0.015155148
254	0xbc0782a9	-0.008270898
255	0x3f071384	0.52764153

network.0.bias f4 [28]
0	0xc131413c	-11.078426
1	0x3f9d2111	1.2275716
2	0xc0f25418	-7.5727654
3	0x3f8933e4	1.0718961
4	0xbf3bceef	-0.7336263
5	0xc07370fa	-3.8037705
6	0xc1315e59	-11.085534
7	0xc16888c9	-14.533395
8	0xc12c65d6	-10.774862
9	0xc0546110	-3.3184242
10	0xc094f16b	-4.65447
11	0xbe548d54	-0.20757037
12	0xc08f1563	-4.4713607
13	0xc095266e	-4.660941
14	0xc079024f	-3.890766
15	0xc142f341	-12.184388
16	0xc06d4cad	-3.707805
17	0xc08a5dd0	-4.3239517
18	0xc0f7f3aa	-7.748494
19	0xc132f28c	-11.184216
20	0xbf1cb8f3	-0.6121971
21	0x3f45aaae	0.7721356
22	0xc08e8383	-4.4535537
23	0xc0e14dd4	-7.0407505
24	0x4021a742	2.5258336
25	0xc122d47c	-10.176876
26	0xc02ac0fb	-2.6680286
27	0xc0f046fc	-7.508665

network.2.weight f4 [1, 28]
0	0x3da6167a	0.08109756
1	0x3e0d61d5	0.13806851
2	0xbe0e1512	-0.13875225
3	0x3e623f53	0.22094469
4	0x3e6536f5	0.22384246
5	0x3e63daee	0.22251484
6	0x3e6e41e5	0.23267324
7	0x3e1bd7e0	0.15219069
8	0x3e2c6fa3	0.16839461
9	0xbe8e2dd2	-0.27769333
10	0xbe5596d2	-0.20858315
11	0x3e150ece	0.14556429
12	0xbc375a34	-0.01119094
13	0x3d9658c8	0.073411524
14	0x3e52c1c3	0.20581727
15	0x3de35564	0.11100271
16	0x3ec63770	0.3871417
17	0xbe03d3db	-0.12873785
18	0x3e0085c4	0.12551028
19	0xbe117dbe	-0.14208123
20	0xbec697b5	-0.38787618
21	0xbe4d76b9	-0.2006482
22	0xbdf28e9e	-0.11843608
23	0xbdc7dd0c	-0.09758958
24	0xbe32f84e	-0.17477533
25	0x3f41901f	0.75610536
26	0xbe26bccc	-0.16282958
27	0xbe0e0d21	-0.13872196
