HPC/Major_project/logistic_regression/models/exp1/16.pth (torch, 4895 bytes, 3 tensors)

network.0.weight f4 [28, 28]
000000 e7 aa 06 c0 09 10 91 40 ef b3 13 3e 12 a8 9a bf
       -2.104181 4.5332074 0.14424108 -1.2082541
000010 a2 80 0a be 64 07 77 bf 8e 3f 7b c0 3a 85 e5 bd
       -0.13525632 -0.9649565 -3.925754 -0.112070516
000020 34 05 f5 3f 9d 85 73 c0 28 9d e2 3e 4b ec 9f bd
       1.9142213 -3.80503 0.44260526 -0.07808741
000030 3c 59 72 3e 0f 0b 07 c0 6c 1f 16 be 9f 6e 3a 3e
       0.23666853 -2.11005 -0.14660424 0.18206261
000040 3f 3a 05 3f 0a e6 e3 bf a1 b0 04 bf ef 01 8e be
       0.52042 -1.7804577 -0.51832014 -0.2773585
000050 11 00 54 3f 44 85 ec be e7 0e d7 3f 9d 68 c2 3e
       0.828126 -0.46195424 1.6801423 0.3797044
000060 39 dc 11 3f 04 af 0f 40 65 f5 3e c0 bc c0 45 bf
       0.5697666 2.245057 -2.9837277 -0.77247214
000070 ca aa b2 3f 31 de 86 be 3a b7 97 3d c3 ce 08 3f
       1.3958371 -0.26341394 0.074079946 0.53440493
000080 ec 36 09 3d 59 0f 10 40 df 9e 14 3f f9 5f 4c bc
       0.033499643 2.2509367 0.5805492 -0.012474054
000090 c8 e5 d4 bf cb 00 dd 3f a1 6a ad bd a5 d9 d2 3d
       -1.6632624 1.7265867 -0.084676035 0.10295419
0000a0 13 84 34 3f 1e 4d ae 3f 44 d7 9b bc e5 6f 47 bd
       0.7051403 1.3617284 -0.019023545 -0.048690695
0000b0 35 14 87 3f de 4f eb 3e cc 84 cb bd e3 1d 02 be
       1.0553042 0.4595937 -0.09937438 -0.12706713
0000c0 80 65 c0 3e 98 24 2a 3c 83 92 7e 3f f2 14 e4 be
       0.37577438 0.010384701 0.9944231 -0.4454723
0000d0 c1 5a 65 3e 25 6b 88 c0 42 e8 5b 40 e5 57 df bf
       0.22397901 -4.263079 3.436051 -1.7448698
0000e0 c1 26 22 3f 3a d7 9a bd dc 17 b5 3b 6a f9 98 3e
       0.63340384 -0.075605825 0.005526526 0.29877788
0000f0 19 8d 05 3d 7a 71 72 3d af 20 69 3c 50 fa e6 3c
       0.032605264 0.05919025 0.014228984 0.02819553
000100 b4 5c 44 3f 49 2d 09 3e 2c dd 51 bc 05 f5 9a 3c
       0.76703954 0.13396181 -0.012809079 0.018915663
000110 69 77 16 3f ee 7d 58 3e 26 fb 7f bc 13 7b 2f 3d
       0.58775955 0.21141788 -0.015623843 0.042841982
000120 01 ae fa 3e 42 91 30 3e 89 ee 1d bd 69 59 24 3d
       0.4896088 0.17242911 -0.038557563 0.04012433
000130 83 77 a5 3e 6e c4 91 be 92 3e 46 3f de 8e 28 bf
       0.32317743 -0.28470176 0.77439225 -0.65843
000140 66 25 18 3f c9 34 50 c1 0e 13 43 be 73 8c e5 be
       0.59432065 -13.012887 -0.19050238 -0.44833717
000150 63 e9 63 3f 77 dd a1 bb 8a be 99 bc 24 4c ad 3f
       0.89027995 -0.0049397307 -0.018767614 1.3538861
000160 25 94 36 3d c2 e1 c5 bb fe c6 82 3d b6 07 91 3d
       0.044574875 -0.0060388753 0.06385611 0.07081549
000170 aa cd bd 3e ab fd ae 3d cd c7 68 3d 0e fd 70 3d
       0.37070972 0.08544477 0.05683117 0.05883508
000180 ab 70 98 3e 50 f5 67 3d 48 39 57 3d 77 21 8c 3d
       0.2977346 0.056630433 0.052544862 0.068423204
000190 e2 11 b8 3e a4 4e b8 3e 09 c4 8c 3c 6d 62 a0 3d
       0.35951144 0.35997498 0.01718332 0.07831273
0001a0 de 56 a1 3e 18 a9 9e be ef 7a 18 3f 7e 91 a7 bd
       0.31511587 -0.30988383 0.5956258 -0.08182047
0001b0 ee 51 15 bf 9b 66 ac 3d cd 9c 7e 40 93 9c 49 c1
       -0.5832814 0.08418008 3.9783204 -12.600726
0001c0 65 f7 a2 c0 47 91 1b bd 9a 29 b2 3c 04 f6 25 c0
       -5.0926995 -0.037980344 0.021748353 -2.5931406
0001d0 27 5f ae 3c 15 35 09 3f c1 cf 5b be 3a 75 a9 bc
       0.021285607 0.5359662 -0.2146597 -0.02068578
0001e0 d0 24 19 bf 09 1e 84 3f cc 2c 77 3d 09 2a af bd
       -0.59821796 1.0321666 0.060345456 -0.085529394
0001f0 22 33 d7 3d f3 7c 4a 3f 55 7a b4 3d 9a 4e 6d 3c
       0.105078 0.7909691 0.088123955 0.014484072
000200 b6 69 ea 3e 51 1c 32 3f b5 c5 e2 3c 0d 2a bf ba
       0.45783776 0.6957446 0.027682165 -0.0014584676
000210 69 bd c2 3e 58 e7 67 bf 4a 92 37 40 b4 97 bc 3f
       0.38035133 -0.9058738 2.8683038 1.4733796
000220 22 20 08 40 bc ab e2 3f 27 7c d7 c0 b8 1a 16 be
       2.1269612 1.7708659 -6.7339053 -0.1465863
000230 81 e5 21 3e 51 97 ac bd 56 4f 9f 3d 56 8b a4 3e
       0.15810205 -0.08427299 0.07778804 0.32137555
000240 17 8a 3b 3d 09 ab a5 3c ea 0a 6a bd e0 d3 82 bc
       0.04578599 0.020223157 -0.057139315 -0.01597017
000250 65 e4 b9 bd 0b 26 26 3d 0e 3b c5 3d 34 45 3e 3c
       -0.09076766 0.040563624 0.096304044 0.011613179
000260 49 21 6b 3d b6 eb 28 bd 71 16 e8 bc c8 de ef 3c
       0.05740479 -0.041240416 -0.028331013 0.029281035
000270 48 b2 a7 3e a2 4e 29 bd 3e 2e 66 3c 5a 8e a4 3c
       0.32753205 -0.041334756 0.014049111 0.02008741
000280 58 e7 cf 3e 5f 7d c3 40 02 f3 55 c1 9a 89 66 be
       0.4060619 6.109054 -13.371828 -0.22513428
000290 d7 0b 58 bf d6 d7 b9 3f 46 d0 72 c0 50 e6 28 3f
       -0.84393066 1.4518993 -3.793962 0.6597643
0002a0 d0 e7 5e 3f 91 61 d9 3d 4b 72 26 bd 35 31 0b 3f
       0.8707247 0.106143124 -0.040636342 0.5437196
0002b0 ba 03 da 3c de ae 50 be 79 59 37 bc 99 53 53 bd
       0.026613105 -0.20379207 -0.011190766 -0.051593397
0002c0 94 51 b2 bb 7a d7 79 3e a9 d2 6a 3d 74 7b 62 bd
       -0.005441854 0.24398604 0.057329807 -0.055293515
0002d0 8c de 15 be cd eb 85 3e 6f 76 6b bd 88 5e a4 3d
       -0.14635676 0.26156464 -0.057485994 0.08025843
0002e0 10 06 82 be 9f f8 c6 3e d8 b8 f6 3c 9e cd 84 bd
       -0.2539525 0.38861558 0.030117437 -0.06484531
0002f0 57 b3 f2 be e6 44 95 3e 3f da 35 be 50 54 23 bf
       -0.4740245 0.29154128 -0.17759036 -0.63800526
000300 0a 78 6f 3f 49 43 4e c1 3c db 64 bb 11 47 a4 be
       0.9354254 -12.891427 -0.0034920713 -0.3208547
000310 bf 60 69 40 cf e8 19 40 35 ae 70 3e c5 20 9b 3f
       3.64653 2.4048345 0.23503955 1.2119375
000320 fc c0 70 b9 bb 1a 88 3f 54 5d bf c0 58 f7 6e 3e
       -0.00022960076 1.0633157 -5.9801426 0.23336542
000330 84 65 82 3f e0 40 81 3e aa 25 44 3f 10 45 3b be
       1.018723 0.25244808 0.7661997 -0.18288064
000340 ed 42 b1 3f af a2 e2 3e c7 7e 31 3f 1a 16 6f 3d
       1.3848549 0.44264743 0.6933407 0.058370687
000350 33 a7 42 3f a1 86 a9 3d 67 5a e7 3e 5e 50 02 be
       0.76036376 0.082776316 0.4518616 -0.1272597
000360 95 87 21 3f ef 5a ad be c5 58 f4 be cc 45 27 be
       0.63097507 -0.3385844 -0.47723976 -0.16335219
000370 81 3e 25 bd f8 25 80 3e eb 25 1a c0 dd bb 21 40
       -0.04034281 0.25028968 -2.4085643 2.5270913
000380 30 d7 e2 3f 8f 50 e2 bd ae 78 97 3b 38 ef dc 3e
       1.772192 -0.110505216 0.0046225404 0.4315126
000390 b2 b4 f3 3d 12 8c cf be d9 bc 9c bd 70 ac 63 be
       0.11899699 -0.40536553 -0.07653207 -0.22233748
0003a0 49 c4 0c be 50 8c 38 bf 72 43 4c 3e 9f 1c b2 bb
       -0.13746752 -0.720891 0.19947603 -0.005435541
0003b0 51 1e 11 bf 95 c9 09 3f f4 7a 59 be 6e 04 4c 3e
       -0.56686884 0.53823215 -0.21238309 0.19923565
0003c0 44 6e 11 3e 3d f9 77 3f c4 6a 8a 3e 5d 34 52 be
       0.14202219 0.9686468 0.2703458 -0.20527788
0003d0 db b5 0d 3f 4d 3e 19 c0 60 21 37 c0 00 6e 44 bb
       0.55355614 -2.3944275 -2.861412 -0.0029972792
0003e0 83 90 0e 40 6e 86 5b 40 38 f1 2c 40 53 13 30 c0
       2.2275703 3.43008 2.7022228 -2.7511795
0003f0 04 0d db bf f5 6b 07 3e 33 f6 e7 bc 18 74 37 bf
       -1.7113347 0.13224776 -0.02831564 -0.7166152

network.0.bias f4 [28]
000000 9c 55 50 c1 1a 66 b7 c0 79 fb 62 c0 4f 7a 9f 3f
       -13.020901 -5.7312136 -3.5465987 1.2459201
000010 c1 78 fa be de e7 80 c0 bf c6 31 c1 bb 0e 55 c1
       -0.48920253 -4.028304 -11.111022 -13.316096
000020 b0 aa 2f c1 a4 b7 e1 c0 c5 61 93 c0 dc 85 15 be
       -10.979172 -7.053667 -4.6056848 -0.14601845
000030 c9 a4 7e c0 9d 6e c7 c0 48 7c 81 c0 44 50 04 c1
       -3.9788077 -6.2322526 -4.046421 -8.269596
000040 ef e0 8f c0 33 a8 a3 c0 33 d1 f8 c0 3d 17 e4 c0
       -4.4962077 -5.114282 -7.775537 -7.1278367
000050 aa ed 67 bf 24 fd f7 be 49 1a 2d c1 c3 cb f4 c0
       -0.9059702 -0.48435318 -10.818917 -7.6498733
000060 26 9e 16 40 7e d4 9a c0 bf 23 18 c0 68 e4 e1 c0
       2.3534026 -4.838439 -2.3771818 -7.0591316

network.2.weight f4 [1, 28]
000000 e5 bb 01 3e 8f fb da 3d 69 8d 89 be 07 3a 66 3e
       0.12669332 0.10692512 -0.268657 0.22483073
000010 70 a8 20 3e b2 90 4f 3e ec 95 65 3e 38 8f 0f 3e
       0.15689254 0.2027004 0.22420472 0.14019477
000020 a0 0f 1a 3e 53 dd 20 be ec ae 4d be fa fb 01 3e
       0.15045023 -0.15709428 -0.20086259 0.12693778
000030 3c 5b cf bb 3f 2f b1 3d 96 5d 5e 3e 62 d0 d4 bd
       -0.0063280147 0.086515896 0.21715388 -0.10391308
000040 d7 a0 be 3e 33 25 c7 bd 1e 53 f4 3d 13 0d c8 bd
       0.37232086 -0.09723892 0.11929916 -0.09768119
000050 36 dd ac be 52 39 f4 bd ed 2b 1e be e0 5d fb bd
       -0.3376252 -0.119249955 -0.15446444 -0.122737646
000060 81 1e 46 be 49 91 d9 3e f3 32 24 be 18 cd d0 bd
       -0.19347574 0.42493656 -0.1603506 -0.101953685
