HPC/Major_project/logistic_regression/models/exp1/20.pth (torch, 4895 bytes, 3 tensors)

network.0.weight f4 [28, 28]
00000000: b351 08c0 7411 9240 18b4 2f3e 787c a2bf
00000010: 56e8 ffbd acfa 5abf 7f07 82c0 d685 4cbe
00000020: b504 fd3f 7413 67c0 bb14 da3e 09bf fabd
00000030: 75fc 1e3e 576d 0ac0 65ca 8ebd 3d1f 7f3c
00000040: 2f5c ce3e 0fb2 ffbf 0f64 f2be 351f a4be
00000050: 6104 3c3f e413 bfbe 741c e63f 461f b93e
00000060: b997 a83e 472e 2640 137a 37c0 d2d7 39bf
00000070: 70ab 9e3f 745a f0be a235 a03d ded3 053f
00000080: 7038 e73c 4342 1040 9d88 0b3f a3a3 10bd
00000090: b417 afbf da7e d83f 40e2 0abd ae70 093d
000000a0: 430a 173f c170 ac3f 1ccd 9ebd 80cc 183d
000000b0: a87a 553f 6c58 e43e 153f 97bd 166f 06be
000000c0: 1e8b ab3e 49e4 653e c04f a93f de9a 15bf
000000d0: 8476 ae3e 65c7 8dc0 af0b 5840 7307 dbbf
000000e0: e006 1a3f ffdd 20bd b683 943c 1677 c53e
000000f0: 4adb c33c d171 063d a0b4 3f3d e330 593d
00000100: 2738 393f ea2c 2b3e a90a e1bc 842f 6abc
00000110: 6627 193f ce02 163e 70ff 173c 5c88 b53d
00000120: d3e5 023f 0d86 083e 4378 87bb 8e14 2c3d
00000130: 1e2f 9d3e 0016 acbe 49ac 3c3f 3d56 2abf
00000140: f23a 193f d791 50c1 c9c9 78be 93d0 03bf
00000150: 1240 6f3f 2c34 1fbd dd3a 433d 6f20 ae3f
00000160: 8f09 2c3d 0f88 2fbc 8519 7c3d 8639 5a3d
00000170: 69b6 b13e 6478 223e 6967 eb3d 9dfb 123d
00000180: 5a37 a93e c033 223d d49b 2b3d 345d 1c3d
00000190: b0bc b73e 3592 aa3e 535b 14bc be70 943c
000001a0: 1547 a53e 74ce d7be 41ab cb3e 9de4 ccbc
000001b0: 6ca1 24bf 2fa7 dd3c 16f0 8140 6da1 49c1
000001c0: f95c aac0 72fb 68bd 24dc c23c dc51 26c0
000001d0: e27a 45bc bec8 063f b484 4abe d3d1 e5bc
000001e0: 9ce2 24bf a58b 543f ef78 0d3e b1a5 98bd
000001f0: dda9 853d cde0 273f 2a53 973d 82d1 8abd
00000200: d628 e23e 0ccf 0f3f 8fe2 b73b 0993 4f3c
00000210: 75a3 f33e 5378 14bf 62aa 1e40 d088 b83f
00000220: 01eb e33f c0b9 1840 31a6 d5c0 dfa4 d6bd
00000230: 3f62 6c3e f6be babd fc56 df3c f444 b83e
00000240: a5a8 103d 5589 223d 7feb 8a3b 0dc8 17bd
00000250: bd21 bebd d906 bc3b 4aa9 a63d 6003 e63c
00000260: fede e13d b439 8cbd 40a2 eebc b1b9 73bb
00000270: 209a ad3e 8435 5bbd 6206 7cbd 0095 213c
00000280: 1ba0 e93e 9d76 b140 940b 59c1 5cf9 97be
00000290: e035 42bf 045f b83f ba43 6ec0 5da3 613f
000002a0: d877 5f3f 38f7 ef3d 2ff2 00bd c75d ee3e
000002b0: 3af4 953c 5029 08be 3434 9fbb f6ee b3bd
000002c0: fb5d bebd 4450 733e 383f 913d a23f cbbd
000002d0: 39f3 82be b5c7 aa3e 5cf3 8ebc e731 af3d
000002e0: 5930 a9be b98b d73e b909 abbc 7a45 803c
000002f0: 8aab f8be 36fb 7a3e d7ee 3fbe e849 1bbf
00000300: 5346 4e3f c077 4fc1 2f2e 433d 6232 b4be
00000310: 4177 6c40 e0df 2640 2d63 5c3e 58f0 913f
00000320: 10cc ecbc 6f74 923f a2bf bcc0 2fe7 833e
00000330: c114 5c3f 78a5 b93e 123d 473f f0b0 11be
00000340: 2aaf b33f acc7 e23e f46b 243f 4714 cc3d
00000350: 63d5 3e3f 571b fe3d 617c ed3e f4cf 5bbe
00000360: d6ef 193f 0f96 5dbe 7541 93be 526c f2bd
00000370: 9874 21be a51e 9e3e 668b 15c0 946e 2040
00000380: fae7 bf3f 993e 2abe 7b7f 2a3e 313b 043f
00000390: 7380 073e 5b21 d1be b30e 89be 0a08 b5bd
000003a0: b87d 86be f7f4 29bf bf69 0f3e ac2f 4abd
000003b0: 3ebb 24bf 1ebe d33e dc4a a2bd d541 323e
000003c0: dff5 a73e b9d7 6c3f 8328 423e 5b6f 74be
000003d0: a9e0 153f 62c5 0dc0 ecb9 3ec0 c10e 11be
000003e0: 047d 0d40 15b9 5d40 b0a4 2b40 a997 3ac0
000003f0: a553 cbbf 597b 593d 1e71 25bc 263e 41bf
-2.1299865 4.5646305 0.17158544 -1.2694235 -0.124954864 -0.85538745 -4.063415 -0.1997293
1.9767061 -3.6105623 0.4259394 -0.12243468 0.15525992 -2.1629236 -0.069721974 0.015571413
0.40304706 -1.9976214 -0.47341964 -0.3205506 0.7344418 -0.37319863 1.7977433 0.36156672
0.32928255 2.5965745 -2.8668258 -0.7259494 1.2396069 -0.4694401 0.0782273 0.5227641
0.028225154 2.2540443 0.5450533 -0.035312306 -1.3679109 1.6913712 -0.033907175 0.033554725
0.59000033 1.347191 -0.07753965 0.0373044 0.83390284 0.4459871 -0.07385079 -0.13128313
0.33504575 0.22450365 1.3227463 -0.58439434 0.34074795 -4.43059 3.375713 -1.7111648
0.6016674 -0.039274212 0.01812921 0.38567418 0.023908276 0.032823388 0.046803117 0.053025138
0.72351307 0.16716352 -0.027470903 -0.014293555 0.5982574 0.14649507 0.00927721 0.08863899
0.51131934 0.13332386 -0.0041342094 0.04201179 0.3070001 -0.33610535 0.73700386 -0.6653784
0.5985557 -13.035605 -0.24295725 -0.51490134 0.9345714 -0.038868114 0.04766356 1.3603648
0.042001303 -0.010713591 0.061547775 0.053277515 0.3470948 0.15866238 0.11494333 0.03588449
0.33050042 0.039600134 0.041896656 0.038174823 0.35886145 0.33314672 -0.0090549765 0.018120166
0.32280794 -0.421497 0.39779094 -0.025011355 -0.6430881 0.027057258 4.0605574 -12.601911
-5.323849 -0.056880422 0.023786612 -2.5987463 -0.012053223 0.5265006 -0.19777185 -0.028054154
-0.6440828 0.8302558 0.13815664 -0.07453478 0.065265395 0.65577394 0.07388909 -0.06778242
0.4417178 0.56175303 0.0056117247 0.012669333 0.47585645 -0.579961 2.4791493 1.4416752
1.7806093 2.3863373 -6.676537 -0.104806654 0.23084353 -0.09118454 0.027263157 0.35990107
0.035317082 0.03968175 0.004239499 -0.037056018 -0.09283779 0.005738121 0.08137758 0.028077781
0.110288605 -0.068469435 -0.029130101 -0.0037189538 0.3390665 -0.053517833 -0.061529525 0.0098621845
0.45629963 5.545729 -13.565327 -0.29682434 -0.75863457 1.4403996 -3.7228837 0.881399
0.8729224 0.11717075 -0.031480964 0.4655592 0.018304933 -0.1329701 -0.004858518 -0.087858126
-0.09295269 0.23761088 0.07092136 -0.09924246 -0.2557619 0.3335549 -0.017450027 0.0855444
-0.330447 0.42098787 -0.02087866 0.015658129 -0.48568374 0.24509892 -0.18743454 -0.60659647
0.80576056 -12.966736 0.047651466 -0.3519469 3.6947787 2.6074142 0.21522208 1.1401472
-0.028905898 1.1441783 -5.8983927 0.25762317 0.8596917 0.36259055 0.7782756 -0.14227653
1.4037831 0.44292963 0.64227223 0.09964805 0.7454435 0.124075584 0.46383956 -0.21466047
0.60131586 -0.21639274 -0.28760877 -0.11837067 -0.15767133 0.30882755 -2.3366332 2.5067492
1.4992669 -0.16625442 0.16650192 0.5165282 0.13232593 -0.4084576 -0.26769027 -0.08839424
-0.2626779 -0.6638941 0.14005183 -0.04936187 -0.6434821 0.41355985 -0.079244345 0.17407925
0.32804772 0.92516667 0.18960766 -0.23870604 0.5854593 -2.2151723 -2.9800978 -0.14165784
2.2107553 3.4644215 2.6819267 -2.9155066 -1.5884901 0.05309615 -0.01009777 -0.75485456

network.0.bias f4 [28]
00000000: 65de 4ec1 b303 adc0 5b77 60c0 af09 963f
00000010: 473f 82be 5644 81c0 f5dd 30c1 4c76 55c1
00000020: ec70 2ec1 8ab7 dfc0 61f6 94c0 f1fc fbbd
00000030: c9a4 7ec0 315d bcc0 554b 7ec0 4450 04c1
00000040: f4f1 85c0 c51c 9fc0 8f86 f8c0 e4ae d6c0
00000050: d9ac 34bf 78b8 823e 9fcb 26c1 a943 f2c0
00000060: 4a7a 1340 7ed4 9ac0 2a9c 17c0 e24e d8c0
-12.929296 -5.4067016 -3.5072849 1.1721705 -0.25438902 -4.039592 -11.054189 -13.341381
-10.902569 -6.9911547 -4.6550756 -0.12304104 -3.9788077 -5.886376 -3.973348 -8.269596
-4.1857853 -4.972262 -7.7664256 -6.708849 -0.70576245 0.25531363 -10.424712 -7.5707593
2.304339 -4.838439 -2.3689065 -6.7596292

network.2.weight f4 [1, 28]
00000000: 7570 f23d ca95 e63d e9e8 86be ce66 663e
00000010: f044 333e 3959 5a3e 9b81 5f3e d66e 1d3e
00000020: 9099 263e ff26 1bbe 9717 4fbe 1833 0e3e
00000030: 3c5b cfbb 749e b13d c51f 563e 62d0 d4bd
00000040: 5b29 bb3e 8313 e8bd 017b e73d 54cc cbbd
00000050: ad69 b4be 02e5 32be 19b0 24be bc02 f3bd
00000060: 15b0 40be 4991 d93e 9a23 26be 8889 d5bd
0.11837856 0.11259039 -0.2634957 0.22500154 0.17506766 0.21323098 0.21826784 0.15374312
0.16269517 -0.15151595 -0.20223843 0.13886678 -0.0063280147 0.08672801 0.20910557 -0.10391308
0.3655499 -0.113318466 0.11302758 -0.09951082 -0.35236874 -0.17470172 -0.16082801 -0.11865756
-0.1881717 0.42493656 -0.16224518 -0.10426623
