HPC/Major_project/logistic_regression/models/exp1/24.pth (torch, 4895 bytes, 3 tensors)

network.0.weight f4 [28, 28]
-2.004014 4.4907556 0.21506765 -1.2118857 -0.09633452 -0.81891465 -4.2824864 -0.16898689
2.0911987 -3.6314218 0.6672453 -0.03785961 0.008381442 -2.2758644 -0.09580778 0.019407637
0.3434687 -1.9882421 -0.4861352 -0.26323032 0.6135262 -0.292123 1.8739283 0.42974243
0.13579044 2.727266 -2.7144797 -0.60411084 1.1221877 -0.50143665 0.19744812 0.5762972
-0.008276793 2.2505991 0.60543936 -0.073592596 -1.1731626 1.6919734 0.109525815 0.058327798
0.61869484 1.3297272 -0.10006898 0.04194723 0.8454024 0.41687664 -0.115904965 -0.08109153
0.25813517 0.20877375 1.4987899 -0.64825386 0.4855751 -4.5990243 3.2160501 -1.6005832
0.64755994 -0.06779782 0.015372758 0.3755109 0.018677965 -0.032362826 0.044957627 0.035804804
0.7312886 0.18251505 0.03785391 0.015450715 0.6144034 0.21430406 0.020945968 0.054386705
0.4868025 0.16107959 -0.0031979259 0.03106818 0.30711344 -0.30570424 0.8172381 -0.6511752
0.60269463 -13.046606 -0.25049433 -0.5579702 0.94008833 -0.07929616 0.02355669 1.3167757
-0.008733485 -0.0300731 0.04529676 0.08494355 0.3088528 0.17937101 0.083852164 0.042698156
0.33328402 0.11336958 0.039779045 0.06942812 0.38459685 0.37284544 0.016012508 0.06706035
0.39968762 -0.44171813 0.20768236 0.01786658 -0.6905832 -0.002750556 4.099738 -12.616604
-5.385906 -0.11975344 0.009131707 -2.6169093 0.02413957 0.55220354 -0.18844838 -0.050777145
-0.69929993 0.73549473 0.08262791 -0.06398771 0.10720792 0.63018996 0.069259964 -0.07346969
0.4071559 0.5272464 0.018698491 0.030855503 0.47754785 -0.40672195 2.0194583 1.4637402
1.4803243 2.8617854 -6.617745 -0.0038958176 0.16709413 -0.028823221 0.015830139 0.29688406
-0.006933566 0.078216694 0.018717503 0.042438775 -0.08864918 -0.0011945501 0.06538474 -0.016750494
0.033951715 -0.012626992 -0.002877194 -0.007832773 0.3377169 -0.0461633 0.037063133 -0.034815915
0.4219199 4.8033104 -13.913152 -0.3485647 -0.5258394 1.2753276 -3.5175118 1.0525991
0.80279577 0.09146408 -0.09436196 0.48057568 0.0072001005 -0.11271888 -0.035114132 0.033494387
-0.1793274 0.1560733 -0.027398422 0.012338422 -0.2636764 0.3123503 -0.059774056 0.0775373
-0.35475823 0.34238148 -0.045332197 -0.03134752 -0.5585396 0.23744978 -0.18840858 -0.64436215
0.8169021 -13.000874 0.003978004 -0.3853061 3.8029544 2.7190995 0.2475213 1.0154775
-0.05439816 1.1783097 -5.919315 0.14406052 0.5793707 0.43848595 0.77230424 -0.1944662
1.3913913 0.44221437 0.41179776 -0.0353956 0.783242 0.23320593 0.4886352 -0.12593015
0.42824462 -0.14379698 -0.13587473 -0.071459495 -0.29190257 0.2967582 -2.3174882 2.3217382
1.4455065 -0.30262408 0.12589711 0.5385039 0.060239177 -0.35335174 -0.21906844 -0.09848946
-0.16471381 -0.44416672 0.09740883 0.018549142 -0.7472861 0.32545498 -0.05360859 0.13970248
0.25689134 0.81344056 0.25263974 -0.09599936 0.56760645 -1.983002 -3.2786455 -0.1539565
2.1050587 3.469638 2.7805579 -2.93385 -1.5298702 0.08876951 0.08406062 -0.96959615
00000000: c441 00c0 45b4 8f40 b23a 5c3e 121f 9bbf
00000010: 084b c5bd 64a4 51bf 210a 89c0 e60a 2dbe
00000020: 33d6 0540 3769 68c0 97d0 2a3f ae12 1bbd
00000030: 5152 093c c3a7 11c0 df36 c4bd c4fc 9e3c
00000040: 21db af3e b87e febf b7e6 f8be 20c6 86be
00000050: 0e10 1d3f 2591 95be e2dc ef3f 3307 dc3e
00000060: a60c 0b3e 878b 2e40 09ba 2dc0 02a7 1abf
00000070: d9a3 8f3f 275e 00bf d72f 4a3e 3788 133f
00000080: 639b 07bc d109 1040 13fe 1a3f b7b7 96bd
00000090: 312a 96bf 9692 d83f 124f e03d 21e9 6e3d
000000a0: c962 1e3f 8034 aa3f f7f0 ccbd dcd0 2b3d
000000b0: 4b6c 583f db70 d53e 955f edbd 5113 a6bd
000000c0: 4b2a 843e c9c8 553e 59d8 bf3f f7f3 25bf
000000d0: 4d9d f83e 352b 93c0 c4d3 4d40 e9df ccbf
000000e0: 7dc6 253f 95d9 8abd 05de 7b3c f742 c03e
000000f0: 8802 993c e28e 04bd 7d25 383d 0fa8 123d
00000100: bb35 3b3f 3ae5 3a3e b40c 1b3d ff24 7d3c
00000110: 8b49 1d3f 8672 5b3e e196 ab3c 98c4 5e3d
00000120: 2d3e f93e 0cf2 243e 4b94 51bb b282 fe3c
00000130: f93d 9d3e 4485 9cbe 8436 513f 6bb3 26bf
00000140: 324a 1a3f e6be 50c1 cb40 80be 23d7 0ebf
00000150: a1a9 703f 0666 a2bd f6f9 c03c 1b8c a83f
00000160: e416 0fbc dd5b f6bc 1889 393d e2f6 ad3d
00000170: f421 9e3e 09ad 373e afba ab3d 43e4 2e3d
00000180: 34a4 aa3e 4f2e e83d 5aef 223d 5530 8e3d
00000190: e1e9 c43e 99e5 be3e aa2c 833c f056 893d
000001a0: dba3 cc3e e128 e2be afaa 543e ef5c 923c
000001b0: 10ca 30bf ac42 34bb 0e31 8340 9cdd 49c1
000001c0: 5859 acc0 4b41 f5bd 289d 153c 717b 27c0
000001d0: 59c0 c53c 365d 0d3f 9df8 40be b2fb 4fbd
000001e0: 5205 33bf 6249 3c3f d238 a93d fd0b 83bd
000001f0: d38f db3d 2154 213f 2bd8 8d3d 4777 96bd
00000200: bd76 d03e 9ff9 063f 942d 993c aec4 fc3c
00000210: 2781 f43e dc3d d0be ce3e 0140 d75b bb3f
00000220: 447b bd3f 7e27 3740 91c4 d3c0 f950 7fbb
00000230: b91a 2b3e ad1e ecbc 35ae 813c 3001 983e
00000240: f832 e3bb 1330 a03d 7355 993c 48d4 2d3d
00000250: b48d b5bd 7392 9cba 6fe8 853d 5538 89bc
00000260: f410 0b3d 71e1 4ebc 4e8f 3cbb 0855 00bc
00000270: 3be9 ac3e ba15 3dbd 83cf 173d 229b 0ebd
00000280: e305 d83e b8b4 9940 459c 5ec1 1377 b2be
00000290: 699d 06bf ef3d a33f ea1e 61c0 91bb 863f
000002a0: 0684 4d3f 8551 bb3d d840 c1bd 040e f63e
000002b0: d2ee eb3b 28d9 e6bd d6d3 0fbd 6931 093d
000002c0: 9aa1 37be aed1 1f3e a872 e0bc 1827 4a3c
000002d0: 9800 87be 61ec 9f3e a4d5 74bd e0cb 9e3d
000002e0: dfa2 b5be a04c af3e 41ae 39bd 4266 00bd
000002f0: 74fc 0ebf 0926 733e 2eee 40be ebf4 24bf
00000300: 7f20 513f 9403 50c1 eb59 823b d746 c5be
00000310: 9b63 7340 ba05 2e40 3976 7d3e 2bfb 813f
00000320: 9bd0 5ebd dad2 963f 076b bdc0 9a84 133e
00000330: a351 143f 3b81 e03e bbb5 453f 2622 47be
00000340: 1c19 b23f ec69 e23e 28d7 d23e fafa 10bd
00000350: 8c82 483f 89cd 6e3e 652e fa3e d5f3 00be
00000360: e142 db3e 843f 13be bf22 0bbe 5b59 92bd
00000370: 4174 95be b1f0 973e ba51 14c0 5c97 1440
00000380: 5b06 b93f 8bf1 9abe 2ceb 003e 64db 093f
00000390: 5bbd 763d 85ea b4be 7a53 60be d8b4 c9bd
000003a0: bdaa 28be d269 e3be 487e c73d 5ff4 973c
000003b0: 244e 3fbf 09a2 a63e ae94 5bbd 2b0e 0f3e
000003c0: 4387 833e a43d 503f ff59 813e 509b c4bd
000003d0: a84e 113f 02d3 fdbf 54d5 51c0 c6a6 1dbe
000003e0: 48b9 0640 8d0e 5e40 a9f4 3140 33c4 3bc0
000003f0: c9d2 c3bf cacc b53d f927 ac3d 7437 78bf

network.0.bias f4 [28]
-12.862702 -5.1578245 -3.502759 1.1298376 -0.1587354 -3.9184184 -11.050946 -13.294489
-10.825275 -6.9754677 -4.628895 -0.14537893 -3.9788077 -5.6103306 -3.890483 -8.269596
-3.9843094 -4.724018 -7.681077 -6.1972756 -0.5772457 0.80055255 -10.077991 -7.6232758
2.2581556 -4.838439 -2.399989 -6.6787257
00000000: a1cd 4dc1 e60c a5c0 342d 60c0 859e 903f
00000010: 888b 22be 5ec7 7ac0 add0 30c1 3ab6 54c1
00000020: 5434 2dc1 0837 dfc0 e81f 94c0 37de 14be
00000030: c9a4 7ec0 d487 b3c0 acfd 78c0 4450 04c1
00000040: edfe 7ec0 282b 97c0 62cb f5c0 1550 c6c0
00000050: 60c6 13bf 03f1 4c3f 733f 21c1 e0f1 f3c0
00000060: 9f85 1040 7ed4 9ac0 6b99 19c0 1fb8 d5c0

network.2.weight f4 [1, 28]
0.120486796 0.11459899 -0.27077726 0.23285049 0.1829401 0.21813996 0.23076473 0.1425666
0.1323007 -0.13754542 -0.20825727 0.13956358 -0.0063280147 0.07074211 0.22064847 -0.10391308
0.3797704 -0.121958636 0.12095868 -0.09692424 -0.3552876 -0.183316 -0.16162732 -0.12144586
-0.1737971 0.42493656 -0.15922353 -0.09211039
00000000: c8c1 f63d e0b2 ea3d 51a3 8abe 5c70 6e3e
00000010: a654 3b3e 1560 5f3e 974d 6c3e fbfc 113e
00000020: d679 073e b5d8 0cbe 6541 55be c1e9 0e3e
00000030: 3c5b cfbb 3de1 903d acf1 613e 62d0 d4bd
00000040: 4471 c23e 73c5 f9bd 2fb9 f73d 3780 c6bd
00000050: 42e8 b5be 31b7 3bbe a281 25be 9bb8 f8bd
00000060: def7 31be 4991 d93e 7e0b 23be 5fa4 bcbd
