HPC/Major_project/logistic_regression/models/exp1/26.pth (torch, 4895 bytes, 3 tensors)

network.0.weight f4 [28, 28]
-1.9110982 4.484997 0.23222531 -1.1472297 -0.07425825 -0.7490703 -4.2397976 -0.14009593
2.26621 -3.6784198 0.7348987 -0.0781771 -0.15074779 -2.2321656 -0.056042414 -0.01656704
0.27862513 -1.942151 -0.46072447 -0.28479183 0.6215968 -0.25855187 1.9511807 0.4543745
0.056948323 2.8006294 -2.7079055 -0.58272815 1.0250473 -0.52536505 0.15666986 0.57074976
0.017666645 2.1850538 0.5509288 -0.05614538 -1.11527 1.6506262 0.024876367 -0.036979165
0.6334656 1.3158087 -0.045497354 0.039682616 0.8244881 0.46742472 -0.027502466 -0.1745303
0.30933076 0.14232635 1.5989046 -0.50182915 0.5285309 -4.6356597 3.2091286 -1.5117441
0.66159874 -0.116165504 -0.01841951 0.3921894 0.004237978 -0.008021806 0.05108494 0.031108981
0.7056277 0.17990905 0.06981398 0.020139704 0.6102661 0.14660038 0.00472988 0.08719253
0.4835295 0.13839954 -0.023313487 0.030854406 0.26568738 -0.28265104 0.85644436 -0.67961264
0.651054 -13.072501 -0.2586615 -0.53274477 0.9519025 -0.05210722 0.05456708 1.2980376
0.038501464 -0.03599721 0.052395742 0.05758773 0.36214626 0.24211526 0.09102566 0.0135878865
0.29761443 0.1356123 0.0042850208 0.07114402 0.44470978 0.39198416 -0.034023747 0.098727725
0.40602264 -0.4555005 0.108274505 -0.025050174 -0.78522563 -0.0012086236 4.1002197 -12.626771
-5.464163 -0.06125386 0.062952764 -2.523618 0.0024527598 0.539412 -0.17156814 0.004688447
-0.7268809 0.63492984 0.07586481 -0.07026303 0.06295689 0.6126578 0.07377511 -0.07146819
0.41456318 0.47870508 0.0230787 0.0015521895 0.5268748 -0.40781933 1.7040945 1.5174923
1.3865865 2.994138 -6.5963554 0.07618147 0.20077486 -0.05483878 0.06028688 0.22080116
0.04939995 0.056836173 -0.011401555 -0.018527254 -0.08250483 0.09126031 0.043259628 -0.05426784
0.019293662 0.04819744 0.009836118 -0.023521086 0.2976089 -0.03518255 -0.0060757305 0.016518624
0.4029214 4.6807156 -14.055254 -0.3775198 -0.49750152 1.0780511 -3.362424 1.1012039
0.8572553 0.11240659 0.015917633 0.38151932 0.026312169 -0.14141254 0.0065100286 0.0044538355
-0.10944507 0.19250862 -0.072101824 -0.047136344 -0.36717477 0.31426746 -0.041120358 -0.016249584
-0.37927166 0.41207424 -0.080119714 -0.0056736018 -0.5654616 0.21454313 -0.19004188 -0.5846943
0.75227916 -13.002466 -0.067537524 -0.44451275 3.8099601 2.8963957 0.28402457 1.042139
-0.048646405 1.175206 -5.8606553 0.1316394 0.4739762 0.46588725 0.7890742 -0.16042058
1.3775696 0.44463813 0.48018676 0.046209157 0.7229532 0.29981604 0.49696538 -0.22670962
0.4397892 -0.15510507 -0.08806561 -0.10401828 -0.3375766 0.34540066 -2.2532883 2.2283888
1.4618484 -0.35499418 0.16498008 0.5226164 0.028785536 -0.35387322 -0.21105632 -0.11412411
-0.2384904 -0.29748634 0.099710025 0.09111488 -0.7606362 0.34894505 -0.032965474 0.22004996
0.24855347 0.8263362 0.32713282 -0.06416845 0.6901471 -1.8894978 -3.5123875 -0.21755224
2.0530043 3.3885841 2.875468 -2.8893816 -1.6972193 0.10329416 0.0049758493 -1.116909
00000000: de9e f4bf 1885 8f40 79cc 6d3e 6cd8 92bf
00000010: b614 98bd 12c3 3fbf 6cac 87c0 4f75 0fbe
00000020: 9609 1140 3b6b 6bc0 5222 3c3f 511b a0bd
00000030: a15d 1abe cddb 0ec0 bb8c 65bd 9ab7 87bc
00000040: f4a7 8e3e 6798 f8bf 14e4 ebbe 3cd0 91be
00000050: f820 1f3f e960 84be 4ac0 f93f c6a3 e83e
00000060: a542 693d 833d 3340 534e 2dc0 ac2d 15bf
00000070: c034 833f 537e 06bf 106e 203e a81c 123f
00000080: a4b9 903c ecd7 0b40 ab09 0d3f b3f8 65bd
00000090: 2bc1 8ebf b847 d33f 86c9 cb3c 7777 17bd
000000a0: cd2a 223f 6b6c a83f 6f5b 3abd 3d8a 223d
000000b0: a711 533f 4b52 ef3e da4c e1bc 12b8 32be
000000c0: 9a60 9e3e 00be 113e e8a8 cc3f e077 00bf
000000d0: cd4d 073f 5357 94c0 5d62 4d40 d580 c1bf
000000e0: 895e 293f 2ee8 edbd 83e4 96bc 0dcd c83e
000000f0: bcde 8a3b e56d 03bc 713e 513d 43d8 fe3c
00000100: 04a4 343f 143a 383e a2fa 8e3d 05fc a43c
00000110: 663a 1c3f 691e 163e 1cfd 9a3b ff91 b23d
00000120: 2e91 f73e 9cb8 0d3e edfb bebc 61c2 fc3c
00000130: 2d08 883e a3b7 90be f03f 5b3f 18fb 2dbf
00000140: 7aab 263f f728 51c1 486f 84be f661 08bf
00000150: e2af 733f 616e 55bd bb81 5f3d 1926 a63f
00000160: b6b3 1d3d cf71 13bd eb9c 563d 1de1 6b3d
00000170: 3c6b b93e 10ed 773e a96b ba3d ba9f 5e3c
00000180: eb60 983e f3dd 0a3e 5c69 8c3b f5b3 913d
00000190: 00b1 e33e 26b2 c83e 7c5c 0bbd c331 ca3d
000001a0: 33e2 cf3e 5d37 e9be 06bf dd3d 0636 cdbc
000001b0: 8c04 49bf ae6a 9eba 0035 8340 4107 4ac1
000001c0: 6cda aec0 54e5 7abd 61ed 803d f582 21c0
000001d0: 7bbe 203b e816 0a3f 8faf 2fbe 8ba1 993b
000001e0: de14 3abf c38a 223f 025f 9b3d 10e6 8fbd
000001f0: 8bef 803d 24d7 1c3f 6817 973d ea5d 92bd
00000200: a041 d43e d518 f53e 8b0f bd3c d672 cb3a
00000210: 44e1 063f b2cd d0be c51f da3f 303d c23f
00000220: ab7b b13f f59f 3f40 5815 d3c0 0805 9c3d
00000230: ed97 4d3e a19e 60bd 60ef 763d b319 623e
00000240: 9a57 4a3d 0ccd 683d 96cd 3abc 78c6 97bc
00000250: 4bf8 a8bd afe6 ba3d 0231 313d f447 5ebd
00000260: be0d 9e3c ae6a 453d ab27 213c 4baf c0bc
00000270: 3260 983e 941b 10bd ec16 c7bb 1152 873c
00000280: b74b ce3e 6cc8 9540 52e2 60c1 464a c1be
00000290: 85b8 febe 94fd 893f f431 57c0 40f4 8c3f
000002a0: 1575 5b3f 6d35 e63d b265 823c 8056 c33e
000002b0: 9e8c d73c 73ce 10be 1452 d53b 7bf1 913b
000002c0: bd24 e0bd fb20 453e 1faa 93bd 0a12 41bd
000002d0: 55fe bbbe aae7 a03e d26d 28bd d91d 85bc
000002e0: e52f c2be 65fb d23e ce15 a4bd 9fe9 b9bb
000002f0: 17c2 10bf 32b1 5b3e 579a 42be 87ae 15bf
00000300: 5e95 403f 1a0a 50c1 1d51 8abd 2d97 e3be
00000310: 63d6 7340 8c5e 3940 ab6b 913e d064 853f
00000320: 7441 47bd 266d 963f 7d8a bbc0 7bcc 063e
00000330: 02ad f23e c688 ee3e c400 4a3f 4b45 24be
00000340: 3354 b03f 9ca7 e33e 0adb f53e d045 3d3d
00000350: 7613 393f 7d81 993e 3f72 fe3e 9126 68be
00000360: 0d2c e13e ddd3 1ebe be5b b4bd 8907 d5bd
00000370: d7d6 acbe 5bd8 b03e e035 10c0 ec9d 0e40
00000380: d91d bb3f ccc1 b5be 8af0 283e 30ca 053f
00000390: a5cf eb3c df2e b5be 261f 58be e7b9 e9bd
000003a0: d436 74be 2150 98be c534 cc3d 709a ba3d
000003b0: 0eb9 42bf eda8 b23e ce06 07bd c754 613e
000003c0: cd84 7e3e c58a 533f f47d a73e c06a 83bd
000003d0: 7bad 303f 10db f1bf f5ca 60c0 04c6 5ebe
000003e0: 6c64 0340 90de 5840 ab07 3840 a1eb 38c0
000003f0: 7b3e d9bf e38b d33d 730c a33b e0f6 8ebf

network.0.bias f4 [28]
-12.829653 -5.1039066 -3.4673898 1.0848702 -0.120937854 -3.8474255 -11.071391 -13.341416
-10.820991 -6.979099 -4.6386895 -0.17862101 -3.9788077 -5.525332 -3.8218777 -8.269596
-3.9288886 -4.683246 -7.635098 -5.9506464 -0.5860223 1.0957757 -10.008716 -7.5638843
2.2346165 -4.838439 -2.3793497 -6.667466
00000000: 4246 4dc1 3453 a3c0 b7e9 5dc0 07dd 8a3f
00000010: 44ae f7bd 383c 76c0 6b24 31c1 7176 55c1
00000020: c722 2dc1 c754 dfc0 2570 94c0 6de8 36be
00000030: c9a4 7ec0 85cf b0c0 a599 74c0 4450 04c1
00000040: e972 7bc0 27dd 95c0 b952 f4c0 b26b bec0
00000050: 8f05 16bf 6142 8c3f b323 20c1 570b f2c0
00000060: f503 0f40 7ed4 9ac0 4447 18c0 e25b d5c0

network.2.weight f4 [1, 28]
0.088533536 0.12784965 -0.27613208 0.23277356 0.17430945 0.22584248 0.23524415 0.1566012
0.13307007 -0.13236974 -0.2086583 0.12620398 -0.0063280147 0.09896615 0.22193135 -0.10391308
0.36699584 -0.12164206 0.13398145 -0.09364255 -0.3668637 -0.20364572 -0.17160569 -0.14686033
-0.17080475 0.42493656 -0.15351279 -0.086205065
00000000: 1251 b53d 05eb 023e 2f61 8dbe 315c 6e3e
00000010: 2d7e 323e 4043 673e d8e3 703e 115c 203e
00000020: 8543 083e ef8b 07be 85aa 55be 9e3b 013e
00000030: 3c5b cfbb c4ae ca3d f941 633e 62d0 d4bd
00000040: e1e6 bb3e 791f f9bd 6f32 093e aac7 bfbd
00000050: 8fd5 bbbe 8188 50be 67b9 2fbe 8e62 16be
00000060: 71e7 2ebe 4991 d93e 7532 1dbe 488c b0bd
