HPC/Major_project/logistic_regression/models/exp1/30.pth (torch, 4895 bytes, 3 tensors)

network.0.weight f4 [28, 28]
000000 96 eb f1 bf 17 21 8f 40 22 8e 88 3e e7 3d 87 bf
       -1.890002 4.4727893 0.2667094 -1.0565766
000010 81 7c 3a bd ce 68 4f bf b0 81 8c c0 0d 8f 06 be
       -0.045528892 -0.81019294 -4.390831 -0.13140507
000020 03 6a 0e 40 84 3a 62 c0 7b 19 36 3f ee bd 57 bd
       2.2252204 -3.5348215 0.7113263 -0.052671365
000030 32 7b f5 bd 2a 20 0c c0 33 1c 45 3d 91 7b 18 bd
       -0.11986388 -2.1894631 0.048122596 -0.037227217
000040 5c ba 58 3e 13 8f ee bf 5b 91 ea be 51 89 5e be
       0.2116484 -1.8637413 -0.45814022 -0.2173207
000050 47 cd 14 3f 4c 64 aa be 8c ad f4 3f ea 97 dd 3e
       0.5812573 -0.33279645 1.9115462 0.43279964
000060 5e 70 73 bd dc 75 3b 40 22 49 2f c0 15 e0 10 bf
       -0.059433334 2.9290686 -2.7388387 -0.5659192
000070 8f bd 70 3f 5c 72 00 bf 69 31 97 3d 6b aa 09 3f
       0.94039243 -0.501745 0.07382471 0.5377566
000080 7a ee 8a bc 6d 96 08 40 30 52 00 3f bf ca c8 bc
       -0.016959418 2.1341813 0.5012541 -0.02451074
000090 a5 4d 92 bf dc 62 c8 3f ea 1f 8c 3d 31 32 9b bc
       -1.1429945 1.565517 0.068420246 -0.018944832
0000a0 62 47 09 3f 99 c5 9f 3f 52 50 18 bd e7 af 85 3d
       0.53624547 1.2482177 -0.037185974 0.06527691
0000b0 47 fa 52 3f 3d d2 e8 3e 8d ea 0b 3d 20 8c e1 bd
       0.8241314 0.454729 0.034159232 -0.11013055
0000c0 78 06 9d 3e c4 d2 91 3b 95 14 d9 3f 28 bb 1d bf
       0.30668998 0.004450174 1.6959406 -0.616137
0000d0 39 66 18 3f d7 89 98 c0 d8 1c 49 40 57 9d ae bf
       0.5953098 -4.766826 3.1423855 -1.3641766
0000e0 2f 7e 29 3f 1c ca c3 bd 52 92 a1 3c 40 54 c3 3e
       0.66208166 -0.09560034 0.019723091 0.38150215
0000f0 ff 34 e7 3c 04 47 01 bd 5b a3 e4 3c a9 9a 1b 3d
       0.028223513 -0.031561866 0.027909925 0.037989292
000100 41 7d 31 3f 01 40 23 3e d2 e0 1a 3d 43 ed c3 3b
       0.6933175 0.15942384 0.03781206 0.0059792115
000110 bc bd 0f 3f 4e 90 25 3e ac 35 44 3b 57 74 c0 3c
       0.56148887 0.16168329 0.0029939217 0.023492975
000120 39 d6 fe 3e f0 0b f8 3d fa 5d be bc 27 73 49 3d
       0.49772814 0.12111652 -0.02323817 0.049182083
000130 02 3d 91 3e c2 31 9b be 2d bb 5f 3f 50 d2 28 bf
       0.28366858 -0.303114 0.8739498 -0.6594591
000140 83 ed 2e 3f 0f 48 51 c1 55 a9 7c be 3c 67 07 bf
       0.68331164 -13.080092 -0.2467397 -0.528919
000150 a6 5a 6f 3f 5e 3d 89 bd 86 1c 7a 3c 51 91 9d 3f
       0.93497694 -0.06701158 0.01526559 1.2309972
000160 14 e1 93 3c 22 a3 fd bc 3e a3 8e 3d 99 f6 b4 3d
       0.018051662 -0.030961577 0.0696473 0.08836097
000170 ac cc c1 3e 40 16 8b 3e f3 02 ae 3d e0 b2 dc 3c
       0.37851465 0.27165413 0.08496656 0.026940763
000180 40 af b0 3e e9 6d 13 3e d8 28 99 3c af 32 a4 3d
       0.34508705 0.14397396 0.018696234 0.0801748
000190 d2 a9 ea 3e c9 3b c3 3e c4 c1 53 bc f7 c9 5d 3d
       0.45832688 0.3813155 -0.012924615 0.054147687
0001a0 6e 77 d9 3e 41 76 e8 be 15 a2 0f bc b9 0c 6a bc
       0.4247393 -0.4540272 -0.008766671 -0.01428526
0001b0 15 2f 5c bf bc d2 3b bd 88 5e 82 40 28 69 4a c1
       -0.8600934 -0.04585527 4.0740395 -12.650673
0001c0 a1 d7 ae c0 60 ca e1 bd 37 38 82 3d 22 47 28 c0
       -5.463822 -0.11024928 0.063583784 -2.6293416
0001d0 5c 0c 9a 3b 85 08 0e 3f 1c 1b 30 be 8c e3 73 bb
       0.0047011804 0.5548175 -0.17197841 -0.0037214486
0001e0 3d 9d 33 bf 71 d9 13 3f 7d 1c a7 3d d7 3a 25 bd
       -0.701618 0.57753664 0.081597306 -0.040339317
0001f0 de 9b 0c 3d ca dc 12 3f 56 37 4f 3d e2 93 79 bd
       0.034328334 0.5736815 0.05058988 -0.060932048
000200 e2 0f cb 3e b5 c5 e1 3e b5 b4 c1 3c 54 b1 63 3d
       0.39660555 0.4409615 0.023645738 0.055589035
000210 fa ca 07 3f 21 a0 d2 be 72 06 b2 3f 4a 85 c0 3f
       0.5304409 -0.41137794 1.3908217 1.5040677
000220 f5 54 9c 3f 4d af 4b 40 b0 11 d2 c0 6a 7b 31 3e
       1.2213427 3.1825745 -6.564659 0.17332235
000230 2a 01 f8 3d 22 49 72 bc 32 0c c5 3b 85 c8 16 3e
       0.12109597 -0.014787944 0.0060134167 0.1472493
000240 97 07 9e 3c fd 3f 22 3e 8b c1 10 3b b5 51 19 bb
       0.019290728 0.15844722 0.0022088017 -0.0023394648
000250 68 aa 4c bd 7f 21 1e 3e d7 b5 3c 3d 19 b2 f6 3b
       -0.0499672 0.15442465 0.046071853 0.007528555
000260 e0 07 ff 3b 95 30 65 3d 8e e7 6c 3c 20 16 ba 3a
       0.007782921 0.055954535 0.014459504 0.0014197268
000270 2a 1b 6b 3e 6e ac 09 bd 34 3c 09 3c 8c 25 74 3c
       0.22959581 -0.033611707 0.00837617 0.01490153
000280 85 49 c0 3e 39 af 92 40 07 0b 64 c1 8f 41 b7 be
       0.3755609 4.5838895 -14.252692 -0.35792205
000290 b4 2d c1 be c5 2d 52 3f b2 d5 4a c0 6f 3c 91 3f
       -0.3773018 0.8210109 -3.169293 1.1346568
0002a0 fb 8a 60 3f c2 67 b1 3d b6 b8 c5 bc fe f6 e1 3e
       0.8771207 0.08662368 -0.024135929 0.44133753
0002b0 ea 6b c5 3c b3 cf f7 bd 4d 98 93 3c 22 b9 3e bc
       0.024099309 -0.12100162 0.018016959 -0.011640819
0002c0 2b ac 36 be 3e cb 45 3e 57 a4 9d bc 6c 63 f0 bc
       -0.17839114 0.19315812 -0.019243402 -0.029344283
0002d0 5a 1d b3 be 85 a8 9a 3e 4f 27 cb bd 2e f8 2f 3d
       -0.3498333 0.30206695 -0.09919607 0.042961292
0002e0 a1 a1 cb be e6 02 e1 3e d2 62 bd 3c 5a e5 18 3b
       -0.3977175 0.43947524 0.02311841 0.0023330064
0002f0 7e 66 0f bf b2 e2 8a 3e dc d2 14 be fb 67 0b bf
       -0.56015766 0.2712608 -0.14533561 -0.54455537
000300 e7 0f 44 3f df 6e 50 c1 9c c8 09 be 3c 8f a9 be
       0.76586765 -13.027068 -0.13455433 -0.33117092
000310 67 91 74 40 ee 83 3b 40 13 0a 77 3e 49 5c 86 3f
       3.8213747 2.9299273 0.24124937 1.0496913
000320 da 97 81 bd 00 a1 9b 3f a2 6e bb c0 3a ce d0 3d
       -0.063277915 1.2158508 -5.857255 0.101955846
000330 af 00 d0 3e 66 f4 01 3f 5a ab 2c 3f 33 c6 19 be
       0.40625522 0.5076355 0.6744896 -0.15017013
000340 16 82 9f 3f e5 9a ee 3e 8f d6 c2 3e 0c 4c a9 bd
       1.2461574 0.4660255 0.3805432 -0.08266458
000350 6c de 2e 3f 78 8d 5f 3e 8e fe e5 3e 6d 10 d1 bd
       0.6830814 0.2183131 0.44920772 -0.10208211
000360 5f 62 c0 3e 06 66 1a be d7 99 4e 3c 3f 84 9f bd
       0.3757505 -0.15077981 0.01260992 -0.07788896
000370 e9 5f af be 9e 1b d9 3e 1c bd 06 c0 43 bc 05 40
       -0.3425286 0.42403883 -2.1052923 2.0896156
000380 79 b4 b0 3f 50 15 b7 be 57 ae 33 3e 1d 01 02 3f
       1.3805076 -0.35758448 0.17546974 0.5078295
000390 a8 72 98 3d 39 81 ab be e2 d3 68 be 09 c1 9d bd
       0.07443744 -0.33497027 -0.22737077 -0.07702834
0003a0 b0 1c e8 bd 8a de 3c be 4f 88 43 3c 03 d1 4e 3c
       -0.11333597 -0.18444267 0.011934354 0.012623074
0003b0 b9 ee 42 bf 6a ac a3 3e 8b c6 96 3d 37 1d 5d 3e
       -0.7614551 0.3196748 0.07362088 0.21593176
0003c0 a5 10 8b 3e 72 95 46 3f de a5 99 3e 84 d0 a3 bd
       0.27161136 0.77571785 0.3000936 -0.079987556
0003d0 bc 73 21 3f 23 33 e0 bf 63 b6 7a c0 7f 1f 18 be
       0.6306722 -1.7515606 -3.917382 -0.14855765
0003e0 98 bb fa 3f b7 be 54 40 35 60 44 40 ff 72 33 c0
       1.9588499 3.3241403 3.068372 -2.8038938
0003f0 d2 27 d4 bf c7 1f 08 3e f2 6c 33 3d 74 ec a1 bf
       -1.6574652 0.13293372 0.04380507 -1.2650285

network.0.bias f4 [28]
000000 97 f2 4c c1 38 8a 9e c0 c1 65 5e c0 d2 48 7f 3f
       -12.809226 -4.9543724 -3.4749606 0.9972049
000010 75 cd f1 bd 8d f1 68 c0 a0 0c 31 c1 7d 80 56 c1
       -0.11806766 -3.639743 -11.065582 -13.406369
000020 db 2d 2c c1 9d 82 df c0 85 5c 94 c0 b3 fa 46 be
       -10.761195 -6.984694 -4.636294 -0.19431572
000030 c9 a4 7e c0 4f 4a ae c0 e3 40 71 c0 44 50 04 c1
       -3.9788077 -5.446571 -3.7695854 -8.269596
000040 63 2c 77 c0 84 70 93 c0 79 79 f2 c0 d5 ba ad c0
       -3.8620842 -4.607485 -7.577328 -5.4290566
000050 f4 00 ff be cd 1c a9 3f af fd 1d c1 42 d5 f3 c0
       -0.49805415 1.3211914 -9.874434 -7.6197824
000060 f7 b0 0d 40 7e d4 9a c0 0a 83 19 c0 8c 0e d6 c0
       2.213926 -4.838439 -2.398623 -6.6892757

network.2.weight f4 [1, 28]
000000 9c 74 e4 3d 11 41 f7 3d dd 39 8a be 9f c2 6e 3e
       0.11155054 0.12072957 -0.2699727 0.2331643
000010 d6 ed 3e 3e 9a 28 68 3e 8e c0 65 3e 70 2e 0a 3e
       0.18645415 0.22671738 0.22436735 0.13494277
000020 c1 ef 14 3e 54 5f 1a be 09 57 4d be 09 e0 0b 3e
       0.14544584 -0.15075427 -0.20052733 0.13659681
000030 3c 5b cf bb fa 1b a1 3d 27 dd 62 3e 62 d0 d4 bd
       -0.0063280147 0.07866664 0.22154675 -0.10391308
000040 cf f3 be 3e 83 5b fb bd b3 f4 ef 3d ed bd ba bd
       0.37295386 -0.12273314 0.117165945 -0.09118257
000050 d7 9d be be 68 d7 63 be 3f 76 22 be de 94 02 be
       -0.37229797 -0.2225014 -0.1586542 -0.12752101
000060 b4 4b 37 be 49 91 d9 3e 0b e0 22 be f0 0e b9 bd
       -0.17899972 0.42493656 -0.15905778 -0.09036052
