HPC/Major_project/logistic_regression/models/exp1/32.pth (torch, 28367 bytes, 7 tensors)

network.0.weight f4 [56, 28]
000000 54 aa 89 be 8f c8 ae bf 81 26 a2 3f b9 61 1c 3f
       -0.26887763 -1.3654956 1.2668 0.6108661
000010 24 8e 85 be 9a 51 b7 3f 1a ee d6 3d 42 3b 53 bf
       -0.26085007 1.4321778 0.10494633 -0.82512295
000020 52 01 0d c1 29 8e e7 c0 58 56 d1 bf 97 ef bb 3d
       -8.812822 -7.2361035 -1.6354475 0.091765575
000030 ce f9 4e 40 42 cb 31 c0 1c 3e d9 3f 40 9e 09 3f
       3.2339969 -2.7780309 1.6972079 0.53757095
000040 08 d3 cd 3f 1a b3 eb bf 99 d3 7f 3f eb 1d 62 bf
       1.6080027 -1.8414032 0.9993225 -0.883269
000050 8d a6 30 3f 16 4f ca c0 25 98 74 3f bc 76 12 c0
       0.69004136 -6.322154 0.95544654 -2.288497
000060 c0 ab a4 40 a1 ca e7 40 ff 8c 1e c1 f0 0e f1 40
       5.1459656 7.243485 -9.909423 7.5330734
000070 36 bc 70 40 b5 9c ce 40 69 aa dd 3e c7 ab 29 40
       3.7614875 6.4566293 0.43294075 2.6511095
000080 5e 7c 89 3c ee 4f 78 bf ee 2a fd 3e 06 2f 54 3d
       0.016782936 -0.96996963 0.49446815 0.051802658
000090 72 0e 9d 3f 8d ec 91 40 f2 6d 4a c1 4c cc e1 3e
       1.2270033 4.560126 -12.651842 0.4410118
0000a0 16 fa 98 c0 ba fd ed 3e 19 ab 3e 3f ba ec fb 3e
       -4.780528 0.4648264 0.74479824 0.49204046
0000b0 72 d1 ae bc 1c 3a f9 be 1e 79 5b 3f 8c eb 59 3e
       -0.021340106 -0.48677146 0.85731685 0.2128126
0000c0 af 8c cd 3e 1c ff dd 3f 78 20 13 c0 12 85 a3 bf
       0.40146396 1.7343478 -2.2988567 -1.2774985
0000d0 00 59 99 3f 26 9b 0e c0 41 c8 fc 3e 30 47 89 3f
       1.1980286 -2.2282195 0.49371532 1.072485
0000e0 41 3f 07 41 26 59 44 c0 3c 1e fe bd 90 4b de 40
       8.452943 -3.0679412 -0.124081105 6.946724
0000f0 fb 15 c7 be 46 8f 37 c1 29 ea e8 3e 09 e5 5d bc
       -0.38883957 -11.472479 0.4549115 -0.013543376
000100 9b cb 80 bf 6f 7f 50 41 02 55 4d 40 39 70 de 3d
       -1.0062135 13.031112 3.2083135 0.108612485
000110 46 34 89 40 db 36 77 c0 ca 42 a1 3e 3b 51 ef bc
       4.287631 -3.862723 0.3149627 -0.029213538
000120 c9 a6 06 be 0f 44 13 c0 c4 9c 40 bf 8d 62 03 3e
       -0.13149561 -2.301029 -0.75239205 0.12830563
000130 35 18 54 bf 23 4a 3b bf 8f 0b fd 3f 8f 76 70 c0
       -0.82849437 -0.7316 1.9769152 -3.7572362
000140 15 5c 1b 40 5a 53 ad bf 7a a3 55 bf 9e 38 ff 3f
       2.4274952 -1.3541062 -0.8345257 1.9939153
000150 8f 86 ad 40 62 90 9a bf a9 26 c7 bd 1c b3 61 40
       5.4226756 -1.2075312 -0.09724171 3.526557
000160 90 e2 e7 be 7f f9 98 41 86 c6 0a 40 87 ff eb 3d
       -0.4529004 19.121824 2.168367 0.11523347
000170 df 94 a1 40 e7 59 f6 c0 3e 8b ce bf 64 3f f2 3e
       5.0494227 -7.6984744 -1.6136243 0.47313988
000180 28 e2 5d 3f b3 dc 8e c0 a8 dc aa 3e c5 eb 52 3e
       0.8667321 -4.464441 0.33371472 0.20597751
000190 14 c8 aa be 14 94 6c c0 ca b2 28 3e 71 b2 9a 3c
       -0.33355772 -3.696538 0.16474453 0.018883916
0001a0 71 e3 2b be e3 cd 29 3f 51 d3 0e 40 c8 da 52 c0
       -0.16785981 0.66329783 2.2316477 -3.2946033
0001b0 f6 06 ce 3f 64 06 29 c0 27 92 4a c0 3f 06 2d 40
       1.6095874 -2.641015 -3.1651704 2.7035062
0001c0 ff 33 68 c1 a0 d1 b1 bf f7 73 58 3d 1c 14 11 c1
       -14.512694 -1.3892097 0.052844968 -9.0674095
0001d0 37 5e 08 be 4c 35 10 3f bc 79 2c 3e 5c 2d ba bd
       -0.1331719 0.56331325 0.16843313 -0.09090683
0001e0 9e bc 9c bf 98 f4 2f 3f 0d 92 91 3e ce 2d 79 bd
       -1.2245061 0.68732595 0.2843174 -0.0608347
0001f0 c3 50 58 3d a3 14 71 3e 3a f3 73 3e 68 b2 02 3e
       0.052811395 0.23543029 0.23823252 0.12763369
000200 f1 6b 4c 3f 0d d7 3c 3d e6 36 0b 3e 2c aa ff bd
       0.79852206 0.046103526 0.13595161 -0.124836296
000210 fb 3f 9b 3f 22 c7 cc 3f b1 23 d0 3f d1 f0 a0 40
       1.21289 1.599827 1.6260892 5.0293965
000220 32 7f 53 bf 83 7c 4f 41 94 6e c0 c1 36 d6 85 40
       -0.8261596 12.967898 -24.053993 4.182399
000230 84 7f 11 3f c2 fe 79 be 69 7c 94 3e ba e0 06 c0
       0.568352 -0.24413589 0.29001167 -2.1074662
000240 25 12 12 bf 33 31 bb 40 76 aa ec 3f 2d f3 b8 3e
       -0.57058936 5.849756 1.848952 0.36123028
000250 d2 ad 74 c0 f6 63 8d 40 34 a7 51 bf 73 d2 12 3f
       -3.8231091 4.4184523 -0.81895757 0.5735237
000260 fa e7 30 bf 91 c9 94 40 bc 44 0e 3f 84 93 bc 3f
       -0.6910397 4.6496053 0.5557363 1.4732518
000270 3b 1a e3 3f d4 d0 e8 3f 8c 50 cd bf e8 67 45 be
       1.774238 1.8188729 -1.6040206 -0.19277918
000280 9b c0 c1 bf 28 23 bf c0 9e 51 02 bf cc ef 12 c0
       -1.5136904 -5.9730415 -0.5090579 -2.295886
000290 c5 4a 01 41 30 af 08 c1 b0 89 61 c0 34 29 f5 40
       8.080754 -8.54277 -3.5240288 7.6612797
0002a0 ee 1b 07 c1 7d 16 bb bf 52 b8 dd be 68 ef 3b c0
       -8.444319 -1.4616238 -0.43304688 -2.9364872
0002b0 ba bd 42 be 5d 83 45 c1 3a fc 2a 41 41 d5 10 bd
       -0.19017687 -12.344571 10.686579 -0.035359625
0002c0 51 c4 12 40 71 a4 00 c1 70 2e cc c0 3f 8f 6f be
       2.2932322 -8.040147 -6.3806686 -0.23394488
0002d0 d4 08 c2 3f d7 d4 81 c0 55 5d 9d bf 7b 3a c7 3d
       1.5158944 -4.0572314 -1.2294108 0.09727951
0002e0 51 a3 53 3f 4b 41 2d c0 26 2b 66 bf 92 a9 c9 bd
       0.82671076 -2.7071102 -0.8990959 -0.09846796
0002f0 ff aa 42 3f 83 12 86 bf 41 a6 b7 40 b7 3c ac 3f
       0.7604217 -1.0474399 5.7390447 1.3456029
000300 90 9a 96 3e 6d 4e 64 40 9c 3a a8 c0 6e 26 29 c0
       0.29414797 3.5672867 -5.2571545 -2.6429706
000310 3c 21 b4 3e df 6f 00 3c 51 83 8a be db fc d9 3f
       0.35181606 0.007839172 -0.2705331 1.703029
000320 c1 4a 86 bd 4d 43 30 41 f0 ea e4 bd a2 bb e4 3e
       -0.06557227 11.016431 -0.11177623 0.44674402
000330 7f 69 00 40 fb b0 4e 40 42 d6 09 bf e8 6f bb 3e
       2.006439 3.229552 -0.53842556 0.36608815
000340 cc 2f 2a 40 06 1b 21 40 91 c0 47 3e 01 df 2e bf
       2.6591673 2.5172744 0.19507052 -0.68309027
000350 d5 6a 1a 40 71 b9 76 40 ee d2 10 bf a6 9e 05 3f
       2.4127705 3.8550684 -0.56571853 0.52195203
000360 22 17 0b 40 ee 47 f4 bf 50 87 be 3e 06 0b ce be
       2.173287 -1.9084451 0.3721261 -0.40242785
000370 bd e5 a8 c0 03 27 53 c1 a0 a3 bb 40 1e 47 05 c0
       -5.278044 -13.197024 5.8637238 -2.0824656
000380 5a b3 20 c0 30 ce 5e 3e 6e 51 88 bd dd 98 c5 bf
       -2.5109468 0.21758342 -0.066561565 -1.5437275
000390 c0 43 89 3e b0 ac 19 41 b5 88 1f 3f be 11 3b bf
       0.26809502 9.60466 0.62317973 -0.7307395
0003a0 e0 46 9f c0 aa d9 af bf dc a3 08 c0 f7 47 2f be
       -4.9774017 -1.3738301 -2.1350012 -0.17117296
0003b0 32 48 18 40 c3 76 ff c0 18 e0 80 3e ee 3c 8b bf
       2.3794065 -7.9832473 0.2517097 -1.0877969
0003c0 c7 ad b7 3d bb f0 04 c1 11 75 bf bd 82 db 16 bd
       0.08968692 -8.308772 -0.093485005 -0.036830433
0003d0 f8 96 b4 be 85 71 4e 40 16 61 ba bf e2 b1 3e 3f
       -0.3527143 3.2256787 -1.4560878 0.7449018
0003e0 7d 31 e3 bf 24 f2 dd 40 5b 68 9e c0 91 a7 06 bf
       -1.7749478 6.935808 -4.9502387 -0.52599436
0003f0 91 7c 89 40 f2 73 94 bd c0 8e 8e 3e c9 a1 81 40
       4.296456 -0.07248677 0.27843285 4.050999

network.0.bias f4 [56]
000000 9a e1 90 c1 80 60 3e c1 5c 04 2f c1 9a 9b 89 3f
       -18.110157 -11.89856 -10.938564 1.0750611
000010 ca ec 2c c0 e3 d4 38 c1 44 d1 ac c0 0a 7e a0 c1
       -2.7019525 -11.551974 -5.400545 -20.061543
000020 e3 51 d0 c1 8d a2 8a c1 62 19 09 c1 f6 b9 67 c1
       -26.039984 -17.32937 -8.568697 -14.482901
000030 19 11 b4 3f b8 9e 3c c1 be 33 b8 40 39 90 9d c1
       1.4067718 -11.78875 5.756316 -19.695421
000040 9f 83 31 c1 7c 7c cb c1 d4 e7 04 c1 5b 3e e2 3f
       -11.094634 -25.435783 -8.306599 1.7675279
000050 ee 12 0d c1 73 52 14 c0 3c 44 49 c0 0e 3b cf 40
       -8.8171215 -2.3175323 -3.1447897 6.475959
000060 5b d8 a1 c1 ed 8d 1a c1 f6 a6 89 40 41 7b 86 c1
       -20.230642 -9.65965 4.301631 -16.810183
000070 db 48 cb c0 d0 d0 97 c1 32 32 87 c0 1c aa dd c1
       -6.3526435 -18.97696 -4.2248774 -27.708061
000080 79 85 1b c1 35 6b 8d c1 ba b1 89 c1 3d 75 81 c1
       -9.720086 -17.677347 -17.21178 -16.182245
000090 17 c0 04 c1 24 67 38 c0 a5 ae 65 40 a2 a9 cc c1
       -8.296897 -2.8812952 3.5887845 -25.582829
0000a0 d8 1e 34 c1 2a 92 59 c0 57 cf a6 c1 53 93 82 c1
       -11.25753 -3.3995461 -20.85124 -16.321936
0000b0 5a e8 4b c1 47 aa 83 c1 83 f9 c8 c0 0e 88 22 c1
       -12.744226 -16.458143 -6.280458 -10.158216
0000c0 33 f4 6f c1 be 1b ea c0 bd 4b 9e c0 d5 0f 9a c1
       -14.997119 -7.3158865 -4.9467454 -19.25773
0000d0 cd 87 a7 3f 50 d0 96 c0 67 13 52 c1 36 c2 8e c1
       1.3088318 -4.712929 -13.129737 -17.84483

network.2.weight f4 [56, 56]
000000 59 37 c0 3e 63 c2 03 c0 50 c2 8a bf 84 be b3 bf
       0.37542227 -2.0587394 -1.084055 -1.4042516
000010 e2 6a d8 bf 5b 1c 68 bf bc ff 38 c0 5b e1 26 bf
       -1.6907618 -0.90668267 -2.8906088 -0.65187615
000020 11 d5 9c be 8c c8 46 be b7 e6 89 be c9 e9 34 3d
       -0.30631307 -0.1941244 -0.26933834 0.044168267
000030 f0 00 cd 3d 6f 62 16 c0 6a aa 1e c0 75 d8 cc bf
       0.100099444 -2.349758 -2.4791512 -1.6003557
000040 68 3c e2 bf 1a 45 11 bf 82 0a 67 bf 61 6c cf bf
       -1.7674685 -0.56746066 -0.9025041 -1.620495
000050 2b ef c0 bf d9 71 99 bf 42 6e ef bf cc e7 ac bf
       -1.5072988 -1.1987869 -1.8705523 -1.3508239
000060 ad 71 32 3d 56 2c 52 c0 04 1a bf bf 2f 82 c3 bf
       0.04356544 -3.283956 -1.4929814 -1.5274104
000070 ad 97 0a c0 17 f1 de bf 97 bf fb bf 8d 43 d7 be
       -2.1655076 -1.7417325 -1.9667844 -0.42043725
000080 f9 d8 ac bf 74 1c 10 c0 8a d1 01 be 94 83 f2 bd
       -1.3503715 -2.2517366 -0.12677589 -0.11841503
000090 93 35 d3 bf 6b 7e 0f c0 d1 7f e5 bf c8 34 92 3f
       -1.6500725 -2.242091 -1.7929631 1.1422358
0000a0 20 e2 08 bf 9c b8 d4 bf 54 ed 9d 3c dc 3e 7b be
       -0.5347004 -1.6618838 0.019278206 -0.24535698
0000b0 69 0e fe bf e6 b9 a4 bf 05 23 e1 bf 52 5f 90 bf
       -1.9848148 -1.2869232 -1.7588812 -1.127909
0000c0 2e 79 fe bf 78 20 bc bf b5 53 9c bf 34 61 d2 be
       -1.9880731 -1.4697409 -1.2213045 -0.41089785
0000d0 85 15 f0 bf b1 7f 5f be e7 a7 89 bf ec 38 a0 bf
       -1.8756567 -0.21826054 -1.0754365 -1.2517371
0000e0 cc 8b e2 be 5c 9d 5f be 6a 25 06 be 16 64 a7 be
       -0.44247282 -0.21837372 -0.1310021 -0.32693547
0000f0 ef 49 b6 ba c2 47 08 bf 69 de 28 bf 13 5e 8f be
       -0.0013907532 -0.53234494 -0.6596437 -0.2800146
000100 20 e1 08 be 19 91 fb be 4e 7c 6d 3b ff 1a 10 bf
       -0.13367128 -0.49134138 0.0036237421 -0.5629119
000110 38 3c 9b be 65 20 75 3d b0 66 23 be 0f c4 1b bf
       -0.3031938 0.059845347 -0.15957141 -0.60846037
000120 0d 60 ad be b1 ab f7 be 95 60 f9 be 8b 06 f9 be
       -0.33862343 -0.48373178 -0.487065 -0.48637804
000130 a6 62 18 bd 71 30 bc be f1 53 7b be 49 3c 9b be
       -0.037203453 -0.36755708 -0.2454374 -0.3031943
000140 90 ea b1 be b2 1b 6c be 42 6f 2f be db 50 91 be
       -0.3474927 -0.2305744 -0.17132285 -0.28382
000150 d7 dc 31 be e4 8d 09 bf bc 6b 24 be 53 30 99 be
       -0.173694 -0.5373213 -0.16056722 -0.2991968
000160 42 e9 cb be 25 b4 82 be 92 e1 08 bf 9e 6b 8b be
       -0.398264 -0.25528064 -0.53469193 -0.27230543
000170 e3 a3 02 bf 64 59 07 bf c5 6b a9 be b6 ce 93 be
       -0.5103132 -0.52870774 -0.33090034 -0.28868645
000180 e5 f5 c9 be 12 b1 d5 be de 14 34 be 10 95 fa be
       -0.39445415 -0.41736656 -0.17586085 -0.4894185
000190 f9 b1 24 be 4a de 57 be ce 94 e7 be 0e 29 84 bd
       -0.16083516 -0.2108089 -0.45230716 -0.06453143
0001a0 11 d8 14 bf 48 11 39 3d be 40 49 be 8a 78 dd be
       -0.5814219 0.045182496 -0.19653603 -0.43256027
0001b0 45 f4 09 bd f9 cf af be 3b 9d 09 bf 68 01 a6 bd
       -0.03368022 -0.34338358 -0.5375554 -0.08105737
0001c0 4e 00 10 bf dd 4f 9b be 60 89 ea be aa ae 09 bf
       -0.56250465 -0.30334368 -0.45807934 -0.5378214
0001d0 f3 1c 98 be ea 96 d5 be 2e f7 91 be 82 35 cc be
       -0.29709587 -0.417167 -0.28508896 -0.39884573
0001e0 db 6b 6d be d5 77 d7 be 6c 05 0a bf 48 74 37 be
       -0.23185675 -0.42083612 -0.53914523 -0.17915452
0001f0 82 34 dc bd 0f 56 fe be 54 45 c4 be d0 31 d3 be
       -0.107522026 -0.49675032 -0.38334143 -0.4124894
000200 59 31 96 be 51 60 0c bf ef 95 15 be bf ef f2 be
       -0.29334524 -0.5483447 -0.14607976 -0.47448537
000210 6e 73 e2 be 8e a5 5c be cd e4 84 be 34 0c c8 be
       -0.4422869 -0.21547529 -0.2595581 -0.3907181
000220 b0 46 0f be 5f 2a 82 be 40 51 5e be e5 00 15 bf
       -0.13991809 -0.25422952 -0.21710682 -0.5820449
000230 0f c0 83 be e4 67 8d be 97 52 40 be 36 fd 6c be
       -0.25732467 -0.27618325 -0.18781506 -0.23143467
000240 7a 08 32 be b0 85 5c bd b3 cb c7 be 65 c2 ff be
       -0.17386046 -0.05383843 -0.39022598 -0.49953
000250 41 64 c4 be e5 d7 a8 be 6e d9 b1 be f5 d6 1e bf
       -0.38357738 -0.32977214 -0.34736198 -0.6204675
000260 7c 2c aa be 0c 4b d8 be 0f ce 90 be 55 af 51 be
       -0.33237064 -0.42244756 -0.2828221 -0.2047704
000270 28 74 96 be 55 ed 12 be cc 2c 9d be fe ad 8e be
       -0.29385495 -0.14348347 -0.3069824 -0.2786712
000280 11 c0 01 bf e1 6b aa be 7a b0 b8 be 0e 66 1c be
       -0.50683695 -0.3328543 -0.3607214 -0.15273306
000290 66 9d c6 be 74 43 f7 be 83 17 b4 be 62 f5 9e be
       -0.3879196 -0.4829365 -0.35174188 -0.31046587
0002a0 ad de 70 be a7 51 34 bd 88 48 0f bf 81 4a ee be
       -0.23522444 -0.044023182 -0.5597005 -0.46541217
0002b0 3d 65 f7 be 2a a3 2c be 0c 78 47 be db 28 a1 be
       -0.48319426 -0.16859117 -0.19479388 -0.31476483
0002c0 71 e5 03 be 7e e2 bd be 82 02 67 be 1b db 58 be
       -0.12880494 -0.37086862 -0.2255955 -0.21177332
0002d0 1e b6 f4 bb 81 94 50 bd 9e c1 c7 be 15 76 28 be
       -0.007467999 -0.050922874 -0.39014906 -0.16451295
0002e0 93 2a 38 be 9e 92 8d be 3a 1b 84 be 26 87 bc be
       -0.17984991 -0.27650923 -0.25802022 -0.3682186
0002f0 df b6 99 be 8f 9a e8 bd 6e f6 2c be a4 de 90 be
       -0.30022332 -0.11357605 -0.1689088 -0.2829486
000300 09 a8 82 be bf 61 ef be 10 8f 62 be f4 a3 15 bf
       -0.25518826 -0.46754262 -0.22124887 -0.584533
000310 c9 46 7c be 1e 29 a7 be e8 25 c1 be 43 68 5f be
       -0.24636377 -0.32648557 -0.37724233 -0.21817116
000320 fd b4 51 be 47 a3 66 bd 3c d9 12 be 9a 9d 9d be
       -0.20479198 -0.056308057 -0.14340681 -0.30784303
000330 f3 11 c0 be 45 86 ce be b0 40 4a be 68 86 33 be
       -0.37513694 -0.40336815 -0.19751239 -0.1753174
000340 c5 a6 77 be 79 f3 58 be c3 be 85 be 3b 47 ec be
       -0.24184711 -0.21186627 -0.26122102 -0.46148095
000350 44 4c 0d bf 48 c8 32 3d 56 bb 19 be 85 64 1c bf
       -0.551945 0.043648034 -0.15012869 -0.6109088
000360 24 0b c0 be cd 1b 83 be 98 1b 0f be a6 4f 3b 3c
       -0.375085 -0.25607148 -0.1397537 0.011432564
000370 4c 85 b3 be 1a 61 91 be 03 d7 71 3d 5f a3 19 bf
       -0.35062635 -0.28394395 0.05904294 -0.6001491
000380 e1 3a 0b c0 35 85 cd bf f1 a1 dc bf c4 dd 22 c0
       -2.1754687 -1.6056277 -1.723692 -2.5447855
000390 88 15 d0 bf 7b 6e 4b c0 b3 ca f3 bf cb 9f f2 bf
       -1.6256571 -3.1786182 -1.9046234 -1.8955015
0003a0 33 1f 04 c0 fa 0d e3 be 8b 1f ca bf f8 f5 25 c0
       -2.0644042 -0.443466 -1.5790876 -2.5931377
0003b0 49 a8 2d c0 bb 12 4d c0 28 18 61 c0 72 7a a6 c0
       -2.7133963 -3.2042682 -3.5170994 -5.202447
0003c0 a9 43 87 c0 1a d2 db 3e 17 4e a4 3e 3f 1a 5d c0
       -4.2270093 0.42933732 0.32090828 -3.454727
0003d0 c1 e7 8d 3f a6 46 29 c0 65 e9 b7 c0 1f b6 5e c0
       1.1086351 -2.644937 -5.7472405 -3.4798658
0003e0 eb 7e 5e c0 d4 0d 37 c0 37 ca 00 c0 c5 3d 73 bf
       -3.4764965 -2.860219 -2.0123422 -0.9501613
0003f0 01 0a 27 c0 c0 4c 9a bf cf 5e b5 bf 5d 1a cd bf
       -2.6099856 -1.2054672 -1.4169558 -1.602367

network.2.bias f4 [56]
000000 2a f4 1e c0 e8 0f c9 be 11 93 a6 be c9 3f 9c be
       -2.4836526 -0.39269948 -0.32534078 -0.30517414
000010 2f 97 e9 c0 8b 0c c2 be af dc ac be e8 37 45 be
       -7.299705 -0.37900195 -0.33762118 -0.19259608
000020 03 ce b5 be 60 df 8d bf 7e c9 b6 be 3c c9 a5 be
       -0.35508737 -1.1083794 -0.357006 -0.32380092
000030 77 52 e4 bf f6 c0 a2 be 2e 50 a3 be da 6f 5d be
       -1.7837666 -0.31787843 -0.3189711 -0.21624699
000040 35 3d ac be 47 52 ab be 64 61 a7 be 7b 31 3f c0
       -0.33640447 -0.3346121 -0.3269149 -2.987395
000050 85 8e 47 be 55 b3 b6 be 32 14 ee bf 6f 23 31 be
       -0.1948796 -0.35683694 -1.8599913 -0.17298673
000060 c3 52 a4 be ae 78 86 c0 52 1a bc be db fa a1 3f
       -0.32094392 -4.2022314 -0.3673883 1.265468
000070 bc 0b f5 be 1b 30 9b be 38 b2 d4 be 31 dc d1 be
       -0.47860515 -0.3031014 -0.4154222 -0.40988305
000080 49 99 88 be d2 16 85 be 56 87 7f be e0 56 af be
       -0.26679447 -0.25993973 -0.2495397 -0.34245968
000090 23 26 d1 be 08 f0 02 bf a8 34 ea be c0 f0 66 bf
       -0.40849409 -0.5114751 -0.457433 -0.90211105
0000a0 ea f8 fa 41 76 d5 00 bf 5c 90 57 be 07 d4 26 bf
       31.37154 -0.50325716 -0.21051162 -0.6516728
0000b0 c4 52 1e bf 23 45 77 bf 33 f5 ae be 05 7f 6e c0
       -0.6184504 -0.9658987 -0.34171447 -3.7265027
0000c0 fa 13 88 c0 7a cc 4c be 5f 17 55 be 1d 0f 30 bf
       -4.2524385 -0.19999877 -0.20809697 -0.6877306
0000d0 5f 17 b3 be 6c 01 ef 40 73 df bf be a3 2c aa be
       -0.34978768 7.4689236 -0.37475166 -0.3323718

network.4.weight f4 [28, 56]
000000 53 6c d2 bd 44 9a 96 3e b8 02 0e 3f 59 d1 22 3e
       -0.102745675 0.2941457 0.554729 0.15900172
000010 9a 0b af be 5b cf af be a6 0f ce 3d f0 99 b5 be
       -0.3418854 -0.34337887 0.100615785 -0.35469007
000020 3e 4a 93 3e c2 12 86 be 4a 23 5b bd 3a fa 0f bf
       0.2876758 -0.26186186 -0.05350045 -0.5624119
000030 22 8c 9b bf d3 01 4f bd 30 46 e6 be b4 90 79 3d
       -1.215214 -0.05053885 -0.44975424 0.060929015
000040 54 53 76 be 2a dd 0d 3f 3d 4d 3e be 95 fe b4 be
       -0.24055225 0.55415595 -0.18584152 -0.3535048
000050 d7 b3 38 3e 8f f5 9d 3d 9d b5 db bd c8 48 a0 be
       0.18037353 0.07712852 -0.10727999 -0.31305528
000060 a8 05 6a be f1 7a 98 bf 58 08 ea 3d f3 35 de be
       -0.2285372 -1.1912519 0.11427373 -0.43400535
000070 c3 aa 04 3f cf 1e e7 bc 82 ce 83 bd b4 f8 ad be
       0.5182306 -0.028212933 -0.064358726 -0.33978808
000080 d0 cc c6 be e4 1a d9 be 65 63 e7 bd 88 5e 70 3e
       -0.38828135 -0.42403328 -0.11298255 0.23473561
000090 4e 0d e1 be 02 91 8c 3c a4 e7 ee bd 45 3a 9a 3e
       -0.43955463 0.017158989 -0.11665276 0.3012258
0000a0 73 3b d3 be da a0 04 bf 95 89 89 be cb 4e 0e bf
       -0.41256294 -0.5180794 -0.2686278 -0.5558898
0000b0 f5 ab 71 be 36 c9 91 be bf 70 82 be 15 17 a5 be
       -0.23600753 -0.28473824 -0.25476643 -0.32244173
0000c0 51 27 14 bd 10 d8 72 3e 36 a8 b8 3b 05 36 a7 be
       -0.036170308 0.23715234 0.0056352867 -0.326584
0000d0 ae 79 41 be 91 5a 16 c0 72 88 70 be 8e 1f 14 bd
       -0.18894073 -2.3492777 -0.2348955 -0.036162905
0000e0 8a 2b 34 be de fb 03 3e 36 41 c3 be 70 eb d9 3d
       -0.17594734 0.12889048 -0.3813569 0.10640609
0000f0 40 01 ab be 83 95 a8 3e 70 41 f4 3c a7 29 1f 3e
       -0.3339939 0.32926568 0.02981636 0.15543233
000100 3d fc 9f 3c 08 62 82 3e 7b c0 ab bd 7f 40 83 3e
       0.019529456 0.25465417 -0.08386322 0.25635144
000110 47 db 4e be f2 c5 9b bd e2 a6 9d bd f1 87 c3 3c
       -0.20200835 -0.076061144 -0.07697846 0.023868533
000120 99 28 da 3e 8a d1 00 bf 5d ce 9f 3c 0a d3 0f be
       0.426091 -0.5031973 0.019507581 -0.14045349
000130 87 bb 6f 3e 17 48 b8 bd 11 f3 d7 3f f1 0c 89 3d
       0.2341138 -0.08998125 1.6871053 0.066919215
000140 d3 43 15 3d 3e 0c c0 bf 67 8c 75 be eb a0 ed bd
       0.036441635 -1.5003736 -0.2397934 -0.11602958
000150 77 0d a0 3d 54 e5 87 3d bf ef 7a 3e 83 07 b5 3c
       0.07815068 0.06635538 0.24505518 0.022098308
000160 60 08 96 bd df 30 ff 3d 41 d1 76 3c 5f a6 34 bd
       -0.07325816 0.12460493 0.015064538 -0.044103976
000170 81 80 90 be ab fb 0f be c0 ae 61 3e ec 79 2d be
       -0.2822304 -0.14060847 0.22039318 -0.16941041
000180 4f ec 8a bf 80 0d 97 3e ac 6c 07 be 53 05 b2 be
       -1.0853366 0.29502487 -0.13225049 -0.34769687
000190 1d 39 45 3e a2 25 dd be 6a 81 81 3e 9f 24 26 40
       0.19260068 -0.43192774 0.25294048 2.5959852
0001a0 4f 9c b3 be b2 20 bc be b4 42 ee bd 3f 0e f7 bc
       -0.35080191 -0.36743695 -0.11633816 -0.03015816
0001b0 d6 17 ab bd f5 41 b8 be 5f 5a 54 be 30 54 8e bd
       -0.08354156 -0.3598782 -0.20737599 -0.06949651
0001c0 50 a9 f1 3e 91 14 8c be f4 48 8a bd 57 64 45 be
       0.47199488 -0.2735944 -0.06752196 -0.19276558
0001d0 d9 9e ed be a3 a8 e9 bd 21 cd c9 bd c3 02 91 be
       -0.46410254 -0.11409118 -0.09853578 -0.2832242
0001e0 6d 2a 86 be 95 cb 17 bf 9d 52 8f be b0 36 a7 3e
       -0.26204243 -0.59295017 -0.27992716 0.3265891
0001f0 74 5b 27 bf d0 20 93 be d5 07 00 be 2c 3b ab be
       -0.6537392 -0.2873597 -0.12502988 -0.33443582
000200 1c 79 6a 3b 2f c1 cf bd 92 65 ad be da 17 1d be
       0.0035777753 -0.10144269 -0.33866554 -0.1534113
000210 71 77 a2 be d2 86 94 be fa 4d c3 bf 9b d6 80 3c
       -0.31731752 -0.2900911 -1.5258172 0.015727332
000220 82 8a 16 bc 0c be ff be d9 ce da be 20 3c cc be
       -0.009188296 -0.49949682 -0.42735937 -0.39889622
000230 fe e2 00 bf 5e 17 b8 be c3 60 f6 3e 2a 42 80 3d
       -0.5034636 -0.35955328 0.48120698 0.0626262
000240 97 16 91 3d 39 b2 1b bf 90 42 c4 be 3f 08 98 be
       0.07084387 -0.6081882 -0.38332033 -0.2969379
000250 d5 25 eb be 48 9d 9b be 04 37 b9 be 47 30 e8 bd
       -0.459273 -0.30393434 -0.36174786 -0.11337333
000260 0a b9 f1 be 3d 0b 4c 3e 9c 6e 86 bd 06 86 99 be
       -0.47211486 0.19926162 -0.06564066 -0.29985064
000270 c7 c4 07 bc 9b ec af 3c 41 7e 75 3d f4 2d 88 bd
       -0.0082866615 0.021475127 0.05993486 -0.0664939
000280 37 87 df be 5b 9a 0c be 62 18 ba be ef 03 d1 be
       -0.43657848 -0.13730757 -0.36346728 -0.40823314
000290 b0 df 37 bd d9 08 94 be 7e e1 47 bc 22 79 a1 be
       -0.04489106 -0.28913 -0.012199758 -0.3153773
0002a0 26 ad 0a bf f2 c3 ca bd dd 74 b8 3e 6b e1 6a bd
       -0.54170454 -0.09900655 0.3602666 -0.05734388
0002b0 31 3b a3 be 44 14 a9 bc 44 da ae be 54 a7 a7 3d
       -0.31881097 -0.020639546 -0.34150898 0.08186212
0002c0 a1 45 1c be 34 26 ed be 0b 1b 9e bd 9e 9f a5 bd
       -0.15260936 -0.4631821 -0.07720002 -0.08087085
0002d0 9f d5 ec 3c 99 bf 89 be 1b 0e 78 bd be 0f 4c 3d
       0.028910456 -0.2690399 -0.060560327 0.0498197
0002e0 da 77 b8 be 84 1c 91 3d 3e 7c a9 3a fe 0f 85 be
       -0.3602894 0.07085517 0.0012930704 -0.25988764
0002f0 09 e1 0e 3d b3 20 de be 5b 07 cc be 40 bd b1 3d
       0.03488258 -0.43384323 -0.39849362 0.08678675
000300 19 c3 7f be 73 bd cc be 3c c9 af be 5a b2 99 bf
       -0.24976768 -0.39988288 -0.34333217 -1.2007554
000310 57 73 25 be 66 16 b4 bd 60 5b fa be 9b 78 14 be
       -0.1615728 -0.08793335 -0.4889784 -0.14499132
000320 ab 71 4a bd 13 0a c9 bd 3e 87 a0 be 23 6d 64 be
       -0.04942481 -0.09816375 -0.31353182 -0.22307257
000330 32 9b 61 bd 7c 5a 4a be ff 93 23 be df 07 c2 3d
       -0.055079646 -0.1976108 -0.15974425 0.094741575
000340 6a 60 f4 bf f2 68 10 bd b1 d1 6a 3d 2d ce 82 bc
       -1.9091923 -0.035256334 0.057328884 -0.015967453
000350 6c 9d a0 be c5 1b a5 be 54 ad 0d bf 6d 02 01 be
       -0.31370103 -0.3224775 -0.553426 -0.12598582
000360 fa fd 9a bf 02 e8 5d 3e f7 bf ef 3d b3 99 99 be
       -1.2108757 0.21670535 0.11706536 -0.30000076
000370 7c c5 d1 be 03 15 1b bf 61 a5 f3 3d 7c c5 ac bc
       -0.4097098 -0.60578936 0.11896778 -0.021090262
000380 15 39 73 bd 69 9d 1f bd 25 db f8 3e 17 c7 38 be
       -0.05938061 -0.038968477 0.48604694 -0.18044697
000390 7b ec ba bf a6 31 69 3e ca 24 81 3e 04 1e 80 bd
       -1.4603418 0.22772846 0.2522338 -0.06255725
0003a0 ca 74 15 3d b0 fc 2a 3d 51 7e c6 3e e8 0a 7a 3d
       0.03648833 0.041744888 0.38768247 0.061045557
0003b0 3b 90 63 be 4f 66 89 3c 10 20 71 3e 20 c2 dd 3d
       -0.22222988 0.016772417 0.23547387 0.10828042
0003c0 b6 43 c2 be 83 c7 8a 3e 1a e4 ab 3c ae 68 36 be
       -0.37942284 0.2710534 0.02098279 -0.1781337
0003d0 3f 53 02 3d ce a8 83 3e f2 51 71 bd 22 e4 28 3e
       0.03181767 0.25714725 -0.05891604 0.16493276
0003e0 46 64 3e 3e cc a0 53 be 6e cf 74 3d 72 bc 8b be
       0.18592939 -0.20666808 0.059768133 -0.2729221
0003f0 88 45 3a 3d 49 8d 3a 3e 78 b1 87 bd f4 82 18 3e
       0.045476466 0.18217959 -0.06625646 0.14893705

network.4.bias f4 [28]
000000 b8 3e fb bf aa f1 1f c0 42 66 99 be b4 99 af bf
       -1.9628515 -2.499125 -0.2996083 -1.3718781
000010 c6 56 15 be 8b 36 03 c0 14 2d 0b c0 7c d0 47 bf
       -0.14583883 -2.050204 -2.1746264 -0.78052497
000020 16 3c 25 c0 4e 06 36 bf 07 bb 92 bf 1c 1c 17 bf
       -2.5817924 -0.7110337 -1.1463326 -0.59027267
000030 20 ec 3d c0 80 4b 4d 41 07 c2 20 c0 3c e5 f7 bf
       -2.967537 12.830933 -2.5118425 -1.9366832
000040 a8 4a d9 bf ed eb 3c c0 1f d1 da bf ee 67 1e c0
       -1.6975908 -2.9518998 -1.7095069 -2.4750934
000050 8e dc 9f bf 91 0b 39 bf f1 2e 5e c0 71 1e fe bf
       -1.2489183 -0.72283274 -3.471615 -1.985304
000060 da 52 83 c0 21 b7 02 c0 17 aa 77 bf 2f 3b 62 c0
       -4.1038637 -2.0424273 -0.9674391 -3.5348623

network.6.weight f4 [1, 28]
000000 6a 4a 73 be 99 81 92 3f fa 63 4b 3f 8a 74 c7 bc
       -0.23758855 1.14458 0.7944943 -0.024347562
000010 52 61 87 be 23 93 df bf 5f dd 8d bf b2 ed d1 3f
       -0.26441437 -1.7466778 -1.1083182 1.6400664
000020 d5 1b 7b be 6d 43 a1 3f ed cb d2 3f 80 a6 ab 3f
       -0.24522336 1.2598702 1.6468483 1.3410187
000030 93 15 b7 be cf 1c 34 be 80 92 8b 3f 42 f0 3d bd
       -0.35758647 -0.17589115 1.0904083 -0.046371706
000040 ab 73 28 3f 0f d1 ac 3f f3 cf 4f 3f a9 5a 69 be
       0.65801495 1.35013 0.8117668 -0.2278849
000050 4a 11 e0 3f 38 6f 8d 3f f0 b7 b0 3e 38 c0 96 3e
       1.7505276 1.1049566 0.34515333 0.29443526
000060 30 2e 9c bf 8d 9a 99 bf b0 2d 11 bd e5 2c 06 bf
       -1.2201595 -1.200029 -0.03544396 -0.52412254
