HPC/Major_project/logistic_regression/models/exp1/34.pth (torch, 4895 bytes, 3 tensors)

network.0.weight f4 [28, 28]
00000000: f112 f3bf d5d0 8f40 9dd7 803e 55f4 89bf
00000010: 3a0f 41bd c975 56bf 4d9b 8cc0 0092 1cbe
00000020: c01b 1140 0319 63c0 f3f1 3d3f dfad 64bd
00000030: 9212 1ebe 9d16 0bc0 1cb1 1e3d 1aa4 733b
00000040: dedd 5c3e b149 efbf 12d0 eebe 1d38 65be
00000050: 22a6 113f a6e1 a6be d304 f63f 46e2 db3e
00000060: 8792 83bd cc6f 3d40 2edb 2fc0 c91d 13bf
00000070: 407f 753f 3252 f2be 2a8c c43d 800a 0c3f
00000080: 4d4c 3bbc 0620 0a40 d872 003f 4da3 e6bc
00000090: d2bb 93bf a7e3 c83f 5d13 b33d a32b 6cbc
000000a0: c093 0f3f 9fba 9e3f 303e 84bc f241 4c3d
000000b0: 442f 523f 9f8d e83e 6e07 95bc 2c95 f1bd
000000c0: fbcb 953e 18ce 473c 88ef dc3f 7cc2 1bbf
000000d0: de7e 243f 1920 98c0 3539 4a40 b951 aabf
000000e0: 65d5 2a3f 6088 ccbd f9f8 7b3c b848 c53e
000000f0: 6ace e63c 9005 a6bc 2785 e23c de25 cf3c
00000100: 9f35 313f 2676 2f3e 116a 1d3d 0828 ac3b
00000110: 8098 123f b240 293e 39ae d339 3a06 3c3d
00000120: 279b fd3e 1696 e93d ae0c 10bc fb10 3c3d
00000130: 9d82 893e cd76 9ebe f4fa 5f3f eee0 29bf
00000140: 7151 2f3f 754f 51c1 da1d 71be db6b 06bf
00000150: fa51 6f3f 6a08 8bbd 87f0 28bb 76a2 9e3f
00000160: 462c 5d3c ac7b f7bc 2559 933d 7795 b33d
00000170: fdae c53e dd3f 8e3e 66d5 aa3d 2671 0c3d
00000180: 61ea ae3e e83c 113e c64e c33c 3d6c 893d
00000190: 4e9a ea3e 8487 c53e 8a53 58bb bc51 7a3d
000001a0: d4e2 df3e 19be efbe a1ec 2dbd 3790 493b
000001b0: 65cd 61bf 997e 4fbd 0aa2 8140 dc7b 4ac1
000001c0: 77c3 afc0 a48b c6bd 9e73 6a3d 63fd 26c0
000001d0: cea6 093c adac 0e3f 31ba 27be 63bc 74bb
000001e0: 8d30 31bf aad8 103f 16ef 8a3d 6dfb 5ebd
000001f0: c8c3 b93c bc5b 123f 718b 9f3d 3202 88bd
00000200: 4410 c73e c7af de3e bbac aa3c b325 563d
00000210: 3c4d 073f b3ba cfbe e024 ae3f f463 be3f
00000220: 996e 993f 4b77 4d40 e4da d1c0 a959 4b3e
00000230: f640 0a3e 9940 e6bc 0597 513c d8a3 163e
00000240: 132c ef3c b8e4 283e 2bd1 cdbb d02a 283c
00000250: 1dc0 7cbd 3ea3 363e 8570 463d 61cf c13c
00000260: 8c80 4f3c 3374 6c3d 5dcd 243c 97e5 463b
00000270: 5c86 653e 4aaa 41bc b50c 9b3b be1c ef3a
00000280: 02d5 bd3e d54f 9240 9380 64c1 3225 b3be
00000290: 043c c9be 6f29 4e3f 4994 49c0 f9e0 913f
000002a0: 09cd 583f 1750 d23d d632 91bc bb5f e43e
000002b0: 809b d93c 2ad5 e3bd 199f 4b3c d325 53bc
000002c0: e6ef 3abe d4df 553e a78e 81bb 08ec e9bc
000002d0: 040e abbe 6839 9b3e 4f1d 97bd 02f7 613d
000002e0: 20e3 ccbe afcd de3e a02a 87bc 2bcb b53b
000002f0: 92c4 16bf 6813 8c3e 76b9 05be bb18 0fbf
00000300: 382e 3e3f e6af 50c1 8752 1fbe be33 a8be
00000310: 2031 7740 2b69 3d40 c5da 783e ac82 813f
00000320: d5c4 b3bd cdfb 9a3f 8a78 bbc0 80fc 023e
00000330: e221 c73e cc79 f43e b596 383f bd39 39be
00000340: d857 9e3f 1434 e23e d1ad cc3e c5a8 0cbd
00000350: 04bf 2b3f b519 693e 7b30 e33e 2720 f2bd
00000360: 0f17 c73e ad66 12be cc65 db3c 7860 bcbd
00000370: 5ec1 b4be e90c d53e 67ae 05c0 200d 0440
00000380: d54c ae3f 0de1 b1be 5502 2b3e af96 043f
00000390: 1d6e a93d 5269 aebe ff36 7fbe ad19 52bd
000003a0: 3bc1 b6bd 58d0 39be a247 363c 113c 763b
000003b0: 95fc 43bf 7e25 993e e1e1 113d 16d3 5e3e
000003c0: 9b3c 8a3e 527e 433f b640 943e 0e13 bbbd
000003d0: 3aec 223f 1f7b dbbf 3f78 7cc0 3ba1 3bbe
000003e0: 5458 fb3f ad28 5440 2f8b 4740 dcf9 30c0
000003f0: cee9 d4bf 44ed e13d 7717 113d 9844 a4bf
-1.8990155 4.494242 0.251645 -1.0777689 -0.04713366 -0.83773476 -4.3939576 -0.1529007
2.2673187 -3.5484016 0.7419731 -0.05582988 -0.15436772 -2.1732552 0.038743123 0.003717667
0.2156901 -1.8694364 -0.4664312 -0.22384687 0.56894124 -0.3259403 1.9220222 0.4294607
-0.06424432 2.9599485 -2.7477527 -0.57467324 0.95897293 -0.47328335 0.09597047 0.5470352
-0.011431766 2.1582046 0.5017524 -0.02815404 -1.1541693 1.5694474 0.08743928 -0.014414701
0.56084824 1.2400702 -0.016142935 0.049867578 0.8210337 0.45420548 -0.01819202 -0.117960304
0.29257187 0.012195133 1.7260599 -0.60843635 0.64256084 -4.753918 3.1597416 -1.330619
0.66731864 -0.09986949 0.015379184 0.38532043 0.028174598 -0.020266324 0.027651383 0.025286611
0.69222444 0.17134914 0.03843123 0.0052537955 0.57263947 0.16528586 0.00040374862 0.045904376
0.49532434 0.1140558 -0.008792086 0.04591463 0.26857463 -0.30950013 0.874923 -0.6635884
0.68483645 -13.081899 -0.23546544 -0.52508324 0.9348446 -0.06788714 -0.002577813 1.2393329
0.013499325 -0.030210339 0.07194737 0.087687425 0.38610068 0.277831 0.08341484 0.034287594
0.34163192 0.1418339 0.023841273 0.06710098 0.4582085 0.38579953 -0.0033008778 0.061113104
0.43727744 -0.4682472 -0.042461995 0.0030756125 -0.8820403 -0.050657842 4.05103 -12.655239
-5.4926105 -0.09694603 0.057239167 -2.6092155 0.008401586 0.5573223 -0.1637962 -0.0037343733
-0.6921471 0.56580603 0.06783883 -0.054438997 0.022676364 0.57171226 0.07790268 -0.06641044
0.38879597 0.43493482 0.020834317 0.052282047 0.52852225 -0.40572128 1.3605003 1.4874253
1.1986877 3.210406 -6.55797 0.19858421 0.13501343 -0.028106974 0.0127923535 0.14710939
0.02919582 0.164935 -0.0062810383 0.010264114 -0.06170665 0.1783571 0.04844715 0.023658456
0.012664925 0.057728004 0.010058728 0.0030349249 0.22414535 -0.011820385 0.0047317394 0.0018242819
0.37076575 4.572245 -14.28139 -0.34989315 -0.393036 0.8053197 -3.1496756 1.1396781
0.8468786 0.10269182 -0.017724436 0.44604287 0.026563406 -0.11124642 0.012428069 -0.012887436
-0.18255576 0.20886165 -0.003953773 -0.028554931 -0.3340913 0.30317235 -0.07378637 0.055167206
-0.40017033 0.435163 -0.016499817 0.005547901 -0.5889369 0.27358556 -0.13059029 -0.5589711
0.74289274 -13.042944 -0.15558825 -0.32851976 3.8623734 2.959544 0.24302204 1.0118003
-0.08777777 1.2108094 -5.8584642 0.12791634 0.38893038 0.47749174 0.7210496 -0.18088432
1.2370558 0.44180357 0.3997636 -0.03434064 0.6708834 0.22763713 0.44372925 -0.11822539
0.3888478 -0.1429698 0.026781939 -0.091980875 -0.35303777 0.41611412 -2.0887697 2.063301
1.3617197 -0.34742013 0.16700108 0.51792425 0.082729556 -0.34064728 -0.24923323 -0.051294018
-0.089235745 -0.18145883 0.011125477 0.0037572423 -0.76557285 0.29911417 0.035615806 0.2176021
0.26999363 0.76364625 0.2895562 -0.09134494 0.63641703 -1.7146949 -3.9448392 -0.18323223
1.9636331 3.3149827 3.11787 -2.7652502 -1.6633852 0.11031583 0.03542277 -1.2833433

network.0.bias f4 [28]
00000000: 5b6d 4cc1 6a02 9dc0 0339 5ec0 60ab 7d3f
00000010: ed2a eebd 7ff3 65c0 6fc5 30c1 6b43 56c1
00000020: a6ee 2bc1 cc45 dec0 1c07 94c0 6434 2fbe
00000030: c9a4 7ec0 a6f0 acc0 10b4 6fc0 4450 04c1
00000040: 2255 74c0 2658 92c0 f010 f2c0 5404 abc0
00000050: 06dc febe 6ab5 ab3f f35b 1dc1 3598 f3c0
00000060: b392 0d40 7ed4 9ac0 d9aa 18c0 2ff2 d5c0
-12.776698 -4.9065447 -3.4722297 0.9908962 -0.11629281 -3.5929868 -11.048202 -13.391459
-10.745764 -6.94602 -4.625868 -0.17109829 -3.9788077 -5.404376 -3.7453651 -8.269596
-3.817696 -4.5732603 -7.5645676 -5.3442783 -0.4977724 1.3414738 -9.834949 -7.61233
2.2120788 -4.838439 -2.3854277 -6.6858134

network.2.weight f4 [1, 28]
00000000: 1d93 ed3d 17b7 f83d 0b78 8bbe 0029 6f3e
00000010: 7fe6 453e 063d 6b3e ed4a 6b3e a04d 093e
00000020: e3ea 0d3e 2fb9 15be 75b6 4bbe 1e70 0c3e
00000030: 3c5b cfbb 6371 a33d 8bf8 673e 62d0 d4bd
00000040: 229c c03e 79d8 fcbd 2c18 f23d 0e15 babd
00000050: 165a c2be cbb1 66be 6d8f 1fbe cfc1 08be
00000060: 87e7 36be 4991 d93e 142e 25be 634b b4bd
0.11600325 0.121442966 -0.27240023 0.23355484 0.19326209 0.22972497 0.229778 0.13408518
0.13859133 -0.14621423 -0.1989382 0.13714644 -0.0063280147 0.07980611 0.22653405 -0.10391308
0.3761912 -0.123459764 0.11821017 -0.09086047 -0.37959355 -0.2252876 -0.15582056 -0.13355182
-0.17861758 0.42493656 -0.16130859 -0.088034414
