HPC/Major_project/logistic_regression/models/exp1/40.pth (torch, 4959 bytes, 3 tensors)

network.0.weight f4 [28, 28]
000000 c7 cd 03 bf 83 06 57 bf 54 c6 db bd 30 85 13 bf
       -0.51485866 -0.8399431 -0.107311875 -0.57625103
000010 31 49 5f be 94 34 97 3d b9 f7 a6 3f 52 50 11 3e
       -0.21805264 0.07383075 1.3044349 0.14190796
000020 05 69 88 3f db cc 83 bf 0b 68 89 bc 4c e0 4d bf
       1.065705 -1.0296892 -0.016773244 -0.80420375
000030 fd 96 f5 3e 36 1b 51 bf e7 8e ee bd 77 59 d4 be
       0.47966757 -0.81682146 -0.1164835 -0.41474506
000040 f3 ee 27 3f a4 dd 02 3f 39 99 27 bf 43 34 ec be
       0.6559898 0.51119447 -0.65468174 -0.46133623
000050 54 b8 c9 3e d2 4e 56 be c9 46 9d 3e a0 6a 89 bf
       0.39398444 -0.20928505 0.30718067 -1.0735664
000060 49 78 1f 3e c0 d4 4c 3f 07 31 9b bf 9b ce 46 be
       0.15573229 0.8001213 -1.2124337 -0.19414751
000070 ed d5 e9 be f9 0a c7 3e 3d 4f 98 3d d4 44 6d 3e
       -0.45671025 0.3887556 0.074369885 0.23170787
000080 c5 ce 54 3c cb f6 44 3f bb 8c db be 89 0c e7 bb
       0.012988751 0.76939076 -0.42880806 -0.007051055
000090 fa 3b b9 3e d2 22 b5 3f ef 1e 36 bc 06 da 50 bd
       0.3617857 1.4151251 -0.011115774 -0.050989173
0000a0 f0 50 5c 3f 70 ca 9e 3f ff c7 2b 3d 4c 27 f3 bd
       0.86061 1.2405529 0.041938778 -0.1187273
0000b0 9c 34 71 3f 62 da 8c 3f 43 91 f4 3c ec a9 13 bb
       0.942209 1.1004145 0.029854422 -0.0022531701
0000c0 4d 4c ec 3e bd 6f f9 be 7a 2c 1e 40 8a a7 e6 3d
       0.46151963 -0.48718062 2.4714646 0.11262424
0000d0 97 3b 1c 40 0d a4 2a c0 76 74 10 40 5f ff 94 c0
       2.441137 -2.6662629 2.2571082 -4.656173
0000e0 08 10 cd bf 52 88 99 3d dc e6 c9 3d 67 97 95 bf
       -1.6020517 0.07496704 0.09858486 -1.1686829
0000f0 e4 f2 a7 3d 66 69 ee 3d 89 e9 27 be 8d 5b 1f bb
       0.082006246 0.11641197 -0.1639768 -0.0024316043
000100 94 38 32 3f 28 89 6c 3e 00 5a 7d 3e 65 fb 7a bc
       0.6961758 0.23099196 0.24741364 -0.015318726
000110 4d 0e b8 3e 99 45 fa 3e a5 d2 b5 3d fc 0d 35 bd
       0.3594841 0.48881224 0.08878068 -0.04420279
000120 ea 7a b5 3e 1e 24 f4 3e 53 e2 c8 3a ea 9e 6e 3d
       0.35445338 0.47683805 0.0015326239 0.05825702
000130 80 d8 e7 3e b7 44 12 c0 b5 a1 bb 3e 4d b7 09 3f
       0.45282364 -2.285444 0.3664681 0.5379532
000140 39 a8 19 bd cc a4 fb c0 36 20 40 40 50 a9 c1 c0
       -0.037513945 -7.863867 3.001966 -6.051918
000150 52 4d 3d 3f 07 ea a7 bc 69 86 f0 bc 92 8b 95 3f
       0.73946106 -0.020497335 -0.029360967 1.1683218
000160 91 7a f5 3c 56 5e f3 bd 3d a9 f0 3d 91 c9 d6 3c
       0.02996567 -0.118832275 0.1175103 0.026219161
000170 17 f7 7e 3e eb b0 e3 bd bc bd bd 3d 7d 75 20 3c
       0.24898945 -0.11117729 0.092647046 0.009793636
000180 2b ea a7 3c 72 a0 47 be ba a0 36 bd ca 5b b8 3d
       0.020497402 -0.19494799 -0.044586875 0.090018824
000190 80 1e 9c 3d 0f 9c 0c 3e 0d 61 25 bd 44 43 a1 3d
       0.07623005 0.13731407 -0.040375758 0.07874158
0001a0 d2 54 7f 3e 23 a5 f5 be 39 73 23 3e 56 cf 04 be
       0.249347 -0.47977552 0.15961923 -0.12969717
0001b0 75 f3 5a bf 3e 0b d3 3e 00 09 67 40 5d 5b 48 c1
       -0.85527736 0.41219515 3.6099243 -12.5223055
0001c0 de 34 a3 c0 44 91 30 be cd 85 a3 3b 82 b6 1a c0
       -5.1002035 -0.17242914 0.0049903155 -2.4173894
0001d0 ba 86 bd 3c 4b ae 2a 3f a2 ec 9a 3d c6 a1 09 bd
       0.023135532 0.666722 0.075646654 -0.033601545
0001e0 8d ba f8 be aa 14 5d 3d bd a2 fa 3c 74 ad 43 bd
       -0.48579827 0.053974785 0.030595178 -0.04777284
0001f0 59 bc 84 bd bc c0 3d 3e 20 26 98 bc c9 4e 97 3c
       -0.06481237 0.18530554 -0.018572867 0.018470185
000200 c7 1d 4b 3e 43 5b e6 3d 94 dd de bc b5 69 d4 3a
       0.19835578 0.112478755 -0.027205266 0.001620582
000210 b3 e3 c5 3e e6 38 4d 3e 74 f6 64 3f 16 58 bf 3f
       0.38650283 0.20041236 0.8943856 1.4948757
000220 0d a8 f1 be 06 11 82 40 0c b7 e8 c0 df 93 a7 3f
       -0.47198525 4.064578 -7.2723446 1.3092002
000230 38 bb 61 3e 13 00 6e 3d 38 0b 5c 3c 13 b2 be 3e
       0.22044075 0.05810554 0.013430409 0.37245235
000240 7d e2 12 3d 9e 45 25 3d 9e 8e 80 bd 8e 45 ae 3c
       0.035860527 0.040349595 -0.06277202 0.0212734
000250 9a 02 95 bd d5 e7 3e 3e ef 7c 73 3d ad 8a 52 bc
       -0.07275887 0.18643124 0.059445318 -0.012850446
000260 28 aa 02 3e 05 fb 88 3d 5f 0c 3e bc 1b a3 8e ba
       0.12760222 0.06688503 -0.011599629 -0.001088235
000270 8b 83 c8 3e c6 99 3a 3d 5e 62 a0 bb 21 43 c0 3c
       0.3916286 0.045556806 -0.004894539 0.02346951
000280 30 a8 02 3f ea 59 9b 40 24 b4 5e c1 6c 91 a2 be
       0.51037884 4.854726 -13.91898 -0.31751573
000290 f9 d7 0b bf ac c9 82 3f b7 82 50 c0 d1 f7 62 3f
       -0.54626423 1.0217795 -3.2579782 0.8865939
0002a0 56 4e 04 3f 7d fc 02 3d 36 46 3a 3c 64 f2 18 3e
       0.5168203 0.031979073 0.011369279 0.14936215
0002b0 e3 db 37 3d 38 3a 3b 3d 46 1a 90 3c 6a e3 fa 3b
       0.044887435 0.04570982 0.017590653 0.0076565044
0002c0 85 23 05 be dc cf 8b 3e a0 28 92 3d 06 c4 49 bc
       -0.13001831 0.27307022 0.07136655 -0.012314802
0002d0 88 5b a6 be c0 d2 c7 3e 65 23 0c bc 4a 85 93 3d
       -0.32491708 0.39027977 -0.008553361 0.07203157
0002e0 07 b2 b2 be 45 b9 e8 3e a9 0a f1 b9 a3 61 9d bc
       -0.3490145 0.4545385 -0.00045975044 -0.019211596
0002f0 0f f6 0c bf f5 29 ba 3d 84 6e 8e 3d c8 10 f5 be
       -0.55062956 0.09090034 0.06954673 -0.47864366
000300 a9 75 53 3f 7b 68 51 c1 57 d3 8d be 16 89 f7 bd
       0.8260141 -13.088008 -0.27700302 -0.12086694
000310 45 37 45 40 0c 1a 7f c0 49 64 85 bd 5b 93 6f 3f
       3.0814984 -3.9859648 -0.065132685 0.9358422
000320 51 19 bc bc 86 a3 e1 3f e0 c4 c0 40 42 81 17 be
       -0.02296129 1.7628028 6.0240326 -0.14795402
000330 dc 9f 76 bf 6e 96 27 3f 28 04 f1 be 6e 52 34 3e
       -0.96337676 0.6546391 -0.47073483 0.1760957
000340 04 9f 3a 3f 0f f1 27 3f a0 30 86 be 20 55 c0 3c
       0.7289889 0.656022 -0.26208973 0.02347809
000350 81 9e 01 3f f8 94 05 3e f1 61 b3 bd b3 86 7b bd
       0.5063248 0.13045108 -0.08758915 -0.061407756
000360 d9 f8 96 3e 72 85 54 3e 81 08 24 bf 63 d5 c6 be
       0.2948673 0.2075403 -0.64075476 -0.38834676
000370 61 01 80 be a7 b4 67 bf de 8a 1d bd 77 1b 7a 3f
       -0.25001052 -0.9051003 -0.038462512 0.9769816
000380 dc ee 0e 40 24 99 c1 be 25 a3 3a 3d 8c e1 a8 3f
       2.2333288 -0.3781215 0.045565743 1.3193831
000390 ca a9 f0 3d 99 06 01 bf 05 df d4 3d ff 2d 2f be
       0.11751135 -0.5040069 0.103941 -0.1710739
0003a0 69 7d 2e 3f 5b 95 42 bf 88 7e 2a 3c e3 d1 ea bc
       0.6816011 -0.7600915 0.010406144 -0.028664535
0003b0 24 c8 bf be 1f cf 8f 3e 16 5f 0e bc 52 d5 05 3d
       -0.37457383 0.28087708 -0.008689662 0.03267414
0003c0 14 65 9d bc fa cc 31 3f 12 13 e7 3d 6d 71 88 bd
       -0.019213237 0.69453394 0.11282934 -0.06662259
0003d0 11 27 b2 3e ac bd 87 bf ac b3 6a c0 3d 70 a1 be
       0.3479543 -1.0604758 -3.6672163 -0.31530944
0003e0 c9 8b b1 3f 61 92 66 40 6c ee 27 40 53 bb 19 c0
       1.3870784 3.6026843 2.623927 -2.4020584
0003f0 bf e4 48 3f 80 45 99 bc b4 ec 08 bb 9a f5 07 3f
       0.7847404 -0.018709898 -0.002089304 0.53109133

network.0.bias f4 [28]
000000 3c 41 31 c1 62 4c 97 3f f5 69 f3 c0 23 38 8c 3f
       -11.078426 1.1820185 -7.606684 1.0954632
000010 aa 02 3b bf 80 63 78 c0 df d3 31 c1 f6 16 69 c1
       -0.7305094 -3.881073 -11.114226 -14.568106
000020 a2 3a 2c c1 76 89 54 c0 96 6e 96 c0 66 d1 70 be
       -10.764315 -3.32089 -4.7009993 -0.23517379
000030 63 15 8f c0 c5 04 98 c0 a7 c0 7b c0 dc 7b 43 c1
       -4.4713607 -4.750582 -3.9336336 -12.217739
000040 92 90 71 c0 4a 7d 8b c0 50 09 f9 c0 fb 35 34 c1
       -3.7744489 -4.359044 -7.782387 -11.263179
000050 8e 64 1d bf 0f 66 1f 3f 9b f1 96 c0 47 7f e2 c0
       -0.6148156 0.62265104 -4.716993 -7.078037
000060 41 30 22 40 c5 dc 22 c1 db 3b 2b c0 bd 08 f0 c0
       2.5341952 -10.178899 -2.6755283 -7.5010667

network.2.weight f4 [1, 28]
000000 7a 16 a6 3d 87 bc 0b 3e 73 fc 0d be 5a 2d 61 3e
       0.08109756 0.13646136 -0.13865833 0.21989956
000010 c2 8f 61 3e f3 6b 5d 3e 7f 58 6d 3e 31 a6 16 3e
       0.22027496 0.2162321 0.2317829 0.14711834
000020 8f c6 31 3e 27 62 8e be 0d 07 58 be 18 99 10 3e
       0.173609 -0.2780926 -0.2109644 0.141209
000030 34 5a 37 bc 05 52 9c 3d cb 47 52 3e 73 a7 e6 3d
       -0.01119094 0.076328315 0.205352 0.11262407
000040 15 c3 c3 3e 22 04 03 be 37 3c 00 3e b2 ca 12 be
       0.38234773 -0.12794545 0.1252297 -0.14335135
000050 b9 25 c4 be 29 ba 42 be 79 62 f0 bd 0e b0 d2 bd
       -0.3831003 -0.19016327 -0.11737532 -0.10287486
000060 bb 37 34 be 61 53 33 3f 8b 38 26 be bc bb 0a be
       -0.17599384 0.700491 -0.16232507 -0.13548177
