HPC/Major_project/logistic_regression/models/exp1/42.pth (torch, 28367 bytes, 7 tensors)

network.0.weight f4 [56, 28]
-0.16550265 -1.6518605 1.5929422 0.88287205 -0.42001602 0.742235 0.4642567 -1.2598647
-8.45254 -7.1447473 -1.725098 -0.008879066 3.8977642 -2.67438 2.25206 0.18845175
1.2596009 -2.4995155 0.88466424 -0.8694757 0.30809313 -4.5644965 0.2560375 -2.4483185
5.4472613 7.536943 -10.079697 7.534063 3.70241 6.3432465 0.46142066 2.616762
-0.10873427 -0.78362757 0.6070458 0.27371317 1.2897032 4.3391232 -13.250014 0.2347127
-4.4547267 0.84381104 1.1377846 0.39406416 0.013475604 -0.3232605 0.9082126 0.07979969
0.3492689 1.3512703 -2.3200781 -1.3855655 1.1591523 -2.5442836 0.42899173 0.97574437
8.377907 -3.460639 -0.22238825 6.847525 -0.3459174 -11.805964 0.36540225 0.10269849
-1.0419701 12.850258 3.573492 0.19271521 4.4786816 -4.0319996 0.24992299 0.18175721
-0.20758829 -2.1786935 -0.8244473 -0.05219726 -0.8275036 -0.79705006 1.9569627 -3.942125
2.629042 -1.3187703 -0.6613911 2.0393384 5.6934376 -1.7535292 0.02163217 3.864486
-0.41306058 19.241041 2.67732 0.119389445 4.6188374 -7.8142343 -1.4594094 0.45805544
0.96701926 -4.359603 0.45841593 0.22631152 -0.22467096 -3.5854943 0.20806952 -0.108421676
0.0040591937 0.42076704 2.0564127 -3.31831 1.7870498 -2.3084166 -3.078743 2.9096715
-14.722502 -1.5797237 -0.0192958 -9.133478 -0.22819884 0.8991483 0.15828985 -0.12661992
-1.1625658 0.6729113 0.46648642 -0.17548619 0.06521528 0.30705002 0.13644831 0.07596288
0.8663286 0.20153093 0.13907169 -0.025603028 1.1196709 1.9538678 1.783553 5.086497
-0.97898775 13.4164 -24.391956 3.7135324 0.5644088 -0.16135608 0.33056828 -2.0181286
-0.9346823 6.239893 1.8809123 0.29492992 -3.9028301 4.851403 -0.87441236 0.56931484
-0.6476459 4.764341 0.24287786 1.0913472 1.9123087 1.6963323 -1.534436 -0.1440371
-1.6133182 -5.9037375 -0.60962284 -2.296629 8.243665 -8.042241 -3.4129827 7.5734935
-8.518879 -1.465355 -0.43992388 -2.8197381 -0.21454714 -12.3231125 10.875546 -0.011410897
2.2399971 -7.9497824 -6.3825617 -0.115893684 1.5874126 -4.1080527 -1.1450642 -0.069620095
0.882801 -2.7722187 -0.8302512 0.1073795 0.8109461 -1.1353145 5.85668 1.5278802
0.50437343 3.4622371 -5.6033688 -2.5274103 0.75908464 0.34256712 -0.39181948 1.585637
-0.16944583 11.073202 0.012609531 0.73782414 2.4156535 3.4093926 -0.7273725 0.34123763
2.8410833 2.3573933 0.29344937 -0.7546284 2.751311 3.7843616 -0.34949234 0.44335115
2.3594282 -1.813801 0.20172451 -0.14361142 -4.793719 -14.137145 6.3945346 -2.2952716
-2.4958515 0.21476097 -0.10366038 -1.7797618 0.37576297 9.4161 0.5005205 -0.35484356
-6.105611 -1.2674335 -2.9418926 0.11572598 2.4622712 -8.599243 0.43521273 -0.77851707
0.06749504 -8.402806 0.12817022 0.009401468 -0.42226565 3.379191 -1.6074795 0.9867226
-1.7055637 7.262147 -5.3166566 -0.229447 3.8664832 -0.16957517 -0.05137179 3.826274
00000000: 8779 29be 2a70 d3bf 88e5 cb3f e703 623f
00000010: 570c d7be 1d03 3e3f 0eb3 ed3e 3f43 a1bf
00000020: 9b3d 07c1 c5a1 e4c0 03d0 dcbf 8179 11bc
00000030: f874 7940 0b29 2bc0 c021 1040 7ff9 403e
00000040: 9a3a a13f 10f8 1fc0 5b79 623f f695 5ebf
00000050: 62be 9d3e 5b10 92c0 5917 833e 40b1 1cc0
00000060: f74f ae40 a32e f140 7046 21c1 0b17 f140
00000070: 49f4 6c40 e0fb ca40 543f ec3e 0779 2740
00000080: 13b0 debd d19b 48bf 5b67 1b3f 2224 8c3e
00000090: ff14 a53f 19da 8a40 0f00 54c1 8758 703e
000000a0: 1f8d 8ec0 0004 583f eda2 913f c7c2 c93e
000000b0: c8c8 5c3c 6682 a5be 9f80 683f 056e a33d
000000c0: 60d3 b23e 6df6 ac3f 297c 14c0 365a b1bf
000000d0: 1a5f 943f 8bd5 22c0 cea4 db3e 62ca 793f
000000e0: e80b 0641 1c7b 5dc0 bfb9 63be ed1e db40
000000f0: 161c b1be 3be5 3cc1 0116 bb3e 9653 d23d
00000100: 475f 85bf a89a 4d41 18b4 6440 2357 453e
00000110: 5c51 8f40 2406 81c0 d0eb 7f3e 901e 3a3e
00000120: 0692 54be b76f 0bc0 fa0e 53bf cbcc 55bd
00000130: 47d7 53bf 790b 4cbf c17d fa3f c74b 7cc0
00000140: 3942 2840 77cd a8bf ed50 29bf 8584 0240
00000150: a430 b640 a573 e0bf f335 b13c bd53 7740
00000160: ad7c d3be a7ed 9941 3659 2b40 7482 f43d
00000170: 84cd 9340 350e fac0 edcd babf 3e86 ea3e
00000180: 938e 773f de81 8bc0 7eb5 ea3e 35be 673e
00000190: 2510 66be bd78 65c0 2d10 553e 2f0c debd
000001a0: fc02 853b c76e d73e 449c 0340 315f 54c0
000001b0: 0cbe e43f 19bd 13c0 200a 45c0 0f38 3a40
000001c0: 5e8f 6bc1 6334 cabf 3a12 9ebc ba22 12c1
000001d0: f5ac 69be 952e 663f bc16 223e a7a8 01be
000001e0: f5ce 94bf ea43 2c3f 4fd7 ee3e a7b2 33be
000001f0: 978f 853d a935 9d3e 1bb9 0b3e 6d92 9b3d
00000200: b6c7 5d3f 205e 4e3e cf68 0e3e 71bd d1bc
00000210: 6051 8f3f 5718 fa3f 774b e43f 95c4 a240
00000220: f19e 7abf 93a9 5641 ba22 c3c1 84aa 6d40
00000230: 187d 103f 873a 25be 3f40 a93e 0529 01c0
00000240: 5747 6fbf 34ad c740 bcc1 f03f 0e01 973e
00000250: f8c7 79c0 b23e 9b40 7dd9 5fbf 9ebe 113f
00000260: 1fcc 25bf 7b75 9840 f9b4 783e 44b1 8b3f
00000270: 88c6 f43f 6b21 d93f 6668 c4bf 767e 13be
00000280: 3681 cebf 6beb bcc0 3e10 1cbf f8fb 12c0
00000290: 0de6 0341 05ad 00c1 4f6e 5ac0 0f5a f240
000002a0: 544d 08c1 c190 bbbf b43d e1be 9776 34c0
000002b0: 3fb2 5bbe 782b 45c1 3d02 2e41 c5f4 3abc
000002c0: 1d5c 0f40 9e64 fec0 f23d ccc0 ab59 edbd
000002d0: 5630 cb3f 2b75 83c0 7791 92bf fb94 8ebd
000002e0: 3fff 613f 086c 31c0 588b 54bf c9e9 db3d
000002f0: 2a9a 4f3f fc51 91bf ec69 bb40 9491 c33f
00000300: 9e1e 013f 4b95 5d40 cc4e b3c0 17c1 21c0
00000310: 5f53 423f f564 af3e 909c c8be 27f6 ca3f
00000320: 3583 2dbe d62b 3141 3598 4e3c 0be2 3c3f
00000330: 119a 1a40 7d33 5a40 1635 3abf b3b6 ae3e
00000340: 4fd4 3540 88df 1640 ff3e 963e 542f 41bf
00000350: 7b15 3040 fb32 7240 a9f0 b2be ecfe e23e
00000360: df00 1740 a22a e8bf df90 4e3e df0e 13be
00000370: 2566 99c0 bf31 62c1 07a0 cc40 bbe5 12c0
00000380: 08bc 1fc0 4dea 5b3e e54b d4bd 3ccf e3bf
00000390: 0164 c03e 58a8 1641 1d22 003f 0eae b5be
000003a0: 2a61 c3c0 433b a2bf f847 3cc0 be01 ed3d
000003b0: da95 1d40 8096 09c1 34d4 de3e e54c 47bf
000003c0: d73a 8a3d e571 06c1 0e3f 033e 9d08 1a3c
000003d0: 3433 d8be aa44 5840 e3c1 cdbf da99 7c3f
000003e0: e94f dabf 8263 e840 0d22 aac0 28f4 6abe
000003f0: 7674 7740 1da5 2dbe 3a6b 52bd ace1 7440

network.0.bias f4 [56]
-18.684805 -12.191251 -11.165914 1.1410422 -2.5649056 -11.3502865 -5.3108387 -20.182535
-26.387983 -16.608585 -8.920363 -15.099278 1.1981839 -11.908228 5.763865 -20.325989
-10.843336 -25.883596 -8.17587 2.0657864 -8.747649 -2.2326913 -3.1913397 7.257735
-20.710707 -9.719457 3.915475 -16.531242 -6.1274624 -18.852133 -3.4265466 -27.823498
-9.836413 -18.4539 -17.321241 -16.412987 -8.462898 -2.6806312 3.8204603 -26.248125
-11.330409 -3.3367462 -20.429985 -16.580591 -12.795055 -16.774965 -6.1842866 -10.474417
-15.062981 -6.710785 -4.932323 -19.216347 1.5203831 -4.663563 -13.455534 -18.029192
00000000: 7b7a 95c1 5d0f 43c1 95a7 32c1 ac0d 923f
00000010: 6a27 24c0 c69a 35c1 64f2 a9c0 d575 a1c1
00000020: 971a d3c1 62de 84c1 cfb9 0ec1 a596 71c1
00000030: 175e 993f 1a88 3ec1 9571 b840 a09b a2c1
00000040: 4e7e 2dc1 9b11 cfc1 5dd0 02c1 d835 0440
00000050: 5ff6 0bc1 6ae4 0ec0 e93e 4cc0 5d3f e840
00000060: 87af a5c1 e582 1bc1 2497 7a40 fc3f 84c1
00000070: 2c14 c4c0 2bd1 96c1 8a4c 5bc0 8696 dec1
00000080: f361 1dc1 96a1 93c1 e791 8ac1 cc4d 83c1
00000090: 0868 07c1 768f 2bc0 6c82 7440 29fc d1c1
000000a0: 5b49 35c1 408d 55c0 9c70 a3c1 0da5 84c1
000000b0: 8cb8 4cc1 2133 86c1 ade5 c5c0 3697 27c1
000000c0: f801 71c1 c0be d6c0 97d5 9dc0 14bb 99c1
000000d0: ea9b c23f e83b 95c0 de49 57c1 c93b 90c1

network.2.weight f4 [56, 56]
0.37542227 -2.0587394 -1.084055 -1.4042516 -1.6907618 -0.90668267 -2.8906088 -0.65187615
-0.30631307 -0.1941244 -0.26933834 0.044168267 0.100099444 -2.349758 -2.4791512 -1.6003557
-1.7674685 -0.56746066 -0.9025041 -1.620495 -1.5072988 -1.1987869 -1.8705523 -1.3508239
0.04356544 -3.283956 -1.4929814 -1.5274104 -2.1655076 -1.7417325 -1.9667844 -0.42043725
-1.3503715 -2.2517366 -0.12677589 -0.11841503 -1.6500725 -2.242091 -1.7929631 1.1422358
-0.5347004 -1.6618838 0.019278206 -0.24535698 -1.9848148 -1.2869232 -1.7588812 -1.127909
-1.9880731 -1.4697409 -1.2213045 -0.41089785 -1.8756567 -0.21826054 -1.0754365 -1.2517371
-0.44247282 -0.21837372 -0.1310021 -0.32693547 -0.0013907532 -0.53234494 -0.6596437 -0.2800146
-0.13367128 -0.49134138 0.0036237421 -0.5629119 -0.3031938 0.059845347 -0.15957141 -0.60846037
-0.33862343 -0.48373178 -0.487065 -0.48637804 -0.037203453 -0.36755708 -0.2454374 -0.3031943
-0.3474927 -0.2305744 -0.17132285 -0.28382 -0.173694 -0.5373213 -0.16056722 -0.2991968
-0.398264 -0.25528064 -0.53469193 -0.27230543 -0.5103132 -0.52870774 -0.33090034 -0.28868645
-0.39445415 -0.41736656 -0.17586085 -0.4894185 -0.16083516 -0.2108089 -0.45230716 -0.06453143
-0.5814219 0.045182496 -0.19653603 -0.43256027 -0.03368022 -0.34338358 -0.5375554 -0.08105737
-0.56250465 -0.30334368 -0.45807934 -0.5378214 -0.29709587 -0.417167 -0.28508896 -0.39884573
-0.23185675 -0.42083612 -0.53914523 -0.17915452 -0.107522026 -0.49675032 -0.38334143 -0.4124894
-0.29334524 -0.5483447 -0.14607976 -0.47448537 -0.4422869 -0.21547529 -0.2595581 -0.3907181
-0.13991809 -0.25422952 -0.21710682 -0.5820449 -0.25732467 -0.27618325 -0.18781506 -0.23143467
-0.17386046 -0.05383843 -0.39022598 -0.49953 -0.38357738 -0.32977214 -0.34736198 -0.6204675
-0.33237064 -0.42244756 -0.2828221 -0.2047704 -0.29385495 -0.14348347 -0.3069824 -0.2786712
-0.50683695 -0.3328543 -0.3607214 -0.15273306 -0.3879196 -0.4829365 -0.35174188 -0.31046587
-0.23522444 -0.044023182 -0.5597005 -0.46541217 -0.48319426 -0.16859117 -0.19479388 -0.31476483
-0.12880494 -0.37086862 -0.2255955 -0.21177332 -0.007467999 -0.050922874 -0.39014906 -0.16451295
-0.17984991 -0.27650923 -0.25802022 -0.3682186 -0.30022332 -0.11357605 -0.1689088 -0.2829486
-0.25518826 -0.46754262 -0.22124887 -0.584533 -0.24636377 -0.32648557 -0.37724233 -0.21817116
-0.20479198 -0.056308057 -0.14340681 -0.30784303 -0.37513694 -0.40336815 -0.19751239 -0.1753174
-0.24184711 -0.21186627 -0.26122102 -0.46148095 -0.551945 0.043648034 -0.15012869 -0.6109088
-0.375085 -0.25607148 -0.1397537 0.011432564 -0.35062635 -0.28394395 0.05904294 -0.6001491
-2.1754687 -1.6056277 -1.723692 -2.5447855 -1.6256571 -3.1786182 -1.9046234 -1.8955015
-2.0644042 -0.443466 -1.5790876 -2.5931377 -2.7133963 -3.2042682 -3.5170994 -5.202447
-4.2270093 0.42933732 0.32090828 -3.454727 1.1086351 -2.644937 -5.7472405 -3.4798658
-3.4764965 -2.860219 -2.0123422 -0.9501613 -2.6099856 -1.2054672 -1.4169558 -1.602367
00000000: 5937 c03e 63c2 03c0 50c2 8abf 84be b3bf
00000010: e26a d8bf 5b1c 68bf bcff 38c0 5be1 26bf
00000020: 11d5 9cbe 8cc8 46be b7e6 89be c9e9 343d
00000030: f000 cd3d 6f62 16c0 6aaa 1ec0 75d8 ccbf
00000040: 683c e2bf 1a45 11bf 820a 67bf 616c cfbf
00000050: 2bef c0bf d971 99bf 426e efbf cce7 acbf
00000060: ad71 323d 562c 52c0 041a bfbf 2f82 c3bf
00000070: ad97 0ac0 17f1 debf 97bf fbbf 8d43 d7be
00000080: f9d8 acbf 741c 10c0 8ad1 01be 9483 f2bd
00000090: 9335 d3bf 6b7e 0fc0 d17f e5bf c834 923f
000000a0: 20e2 08bf 9cb8 d4bf 54ed 9d3c dc3e 7bbe
000000b0: 690e febf e6b9 a4bf 0523 e1bf 525f 90bf
000000c0: 2e79 febf 7820 bcbf b553 9cbf 3461 d2be
000000d0: 8515 f0bf b17f 5fbe e7a7 89bf ec38 a0bf
000000e0: cc8b e2be 5c9d 5fbe 6a25 06be 1664 a7be
000000f0: ef49 b6ba c247 08bf 69de 28bf 135e 8fbe
00000100: 20e1 08be 1991 fbbe 4e7c 6d3b ff1a 10bf
00000110: 383c 9bbe 6520 753d b066 23be 0fc4 1bbf
00000120: 0d60 adbe b1ab f7be 9560 f9be 8b06 f9be
00000130: a662 18bd 7130 bcbe f153 7bbe 493c 9bbe
00000140: 90ea b1be b21b 6cbe 426f 2fbe db50 91be
00000150: d7dc 31be e48d 09bf bc6b 24be 5330 99be
00000160: 42e9 cbbe 25b4 82be 92e1 08bf 9e6b 8bbe
00000170: e3a3 02bf 6459 07bf c56b a9be b6ce 93be
00000180: e5f5 c9be 12b1 d5be de14 34be 1095 fabe
00000190: f9b1 24be 4ade 57be ce94 e7be 0e29 84bd
000001a0: 11d8 14bf 4811 393d be40 49be 8a78 ddbe
000001b0: 45f4 09bd f9cf afbe 3b9d 09bf 6801 a6bd
000001c0: 4e00 10bf dd4f 9bbe 6089 eabe aaae 09bf
000001d0: f31c 98be ea96 d5be 2ef7 91be 8235 ccbe
000001e0: db6b 6dbe d577 d7be 6c05 0abf 4874 37be
000001f0: 8234 dcbd 0f56 febe 5445 c4be d031 d3be
00000200: 5931 96be 5160 0cbf ef95 15be bfef f2be
00000210: 6e73 e2be 8ea5 5cbe cde4 84be 340c c8be
00000220: b046 0fbe 5f2a 82be 4051 5ebe e500 15bf
00000230: 0fc0 83be e467 8dbe 9752 40be 36fd 6cbe
00000240: 7a08 32be b085 5cbd b3cb c7be 65c2 ffbe
00000250: 4164 c4be e5d7 a8be 6ed9 b1be f5d6 1ebf
00000260: 7c2c aabe 0c4b d8be 0fce 90be 55af 51be
00000270: 2874 96be 55ed 12be cc2c 9dbe fead 8ebe
00000280: 11c0 01bf e16b aabe 7ab0 b8be 0e66 1cbe
00000290: 669d c6be 7443 f7be 8317 b4be 62f5 9ebe
000002a0: adde 70be a751 34bd 8848 0fbf 814a eebe
000002b0: 3d65 f7be 2aa3 2cbe 0c78 47be db28 a1be
000002c0: 71e5 03be 7ee2 bdbe 8202 67be 1bdb 58be
000002d0: 1eb6 f4bb 8194 50bd 9ec1 c7be 1576 28be
000002e0: 932a 38be 9e92 8dbe 3a1b 84be 2687 bcbe
000002f0: dfb6 99be 8f9a e8bd 6ef6 2cbe a4de 90be
00000300: 09a8 82be bf61 efbe 108f 62be f4a3 15bf
00000310: c946 7cbe 1e29 a7be e825 c1be 4368 5fbe
00000320: fdb4 51be 47a3 66bd 3cd9 12be 9a9d 9dbe
00000330: f311 c0be 4586 cebe b040 4abe 6886 33be
00000340: c5a6 77be 79f3 58be c3be 85be 3b47 ecbe
00000350: 444c 0dbf 48c8 323d 56bb 19be 8564 1cbf
00000360: 240b c0be cd1b 83be 981b 0fbe a64f 3b3c
00000370: 4c85 b3be 1a61 91be 03d7 713d 5fa3 19bf
00000380: e13a 0bc0 3585 cdbf f1a1 dcbf c4dd 22c0
00000390: 8815 d0bf 7b6e 4bc0 b3ca f3bf cb9f f2bf
000003a0: 331f 04c0 fa0d e3be 8b1f cabf f8f5 25c0
000003b0: 49a8 2dc0 bb12 4dc0 2818 61c0 727a a6c0
000003c0: a943 87c0 1ad2 db3e 174e a43e 3f1a 5dc0
000003d0: c1e7 8d3f a646 29c0 65e9 b7c0 1fb6 5ec0
000003e0: eb7e 5ec0 d40d 37c0 37ca 00c0 c53d 73bf
000003f0: 010a 27c0 c04c 9abf cf5e b5bf 5d1a cdbf

network.2.bias f4 [56]
-2.4836526 -0.39269948 -0.32534078 -0.30517414 -7.299705 -0.37900195 -0.33762118 -0.19259608
-0.35508737 -1.1083794 -0.357006 -0.32380092 -1.7837666 -0.31787843 -0.3189711 -0.21624699
-0.33640447 -0.3346121 -0.3269149 -2.987395 -0.1948796 -0.35683694 -1.8599913 -0.17298673
-0.32094392 -4.3127875 -0.3673883 0.7348257 -0.47860515 -0.3031014 -0.4154222 -0.40988305
-0.26679447 -0.25993973 -0.2495397 -0.34245968 -0.40849409 -0.5114751 -0.457433 -0.90211105
32.78973 -0.50325716 -0.21051162 -0.6516728 -0.6184504 -0.9658987 -0.34171447 -3.6466565
-2.6818352 -0.19999877 -0.20809697 -0.6877306 -0.34978768 7.932142 -0.37475166 -0.3323718
00000000: 2af4 1ec0 e80f c9be 1193 a6be c93f 9cbe
00000010: 2f97 e9c0 8b0c c2be afdc acbe e837 45be
00000020: 03ce b5be 60df 8dbf 7ec9 b6be 3cc9 a5be
00000030: 7752 e4bf f6c0 a2be 2e50 a3be da6f 5dbe
00000040: 353d acbe 4752 abbe 6461 a7be 7b31 3fc0
00000050: 858e 47be 55b3 b6be 3214 eebf 6f23 31be
00000060: c352 a4be 5b02 8ac0 521a bcbe 891d 3c3f
00000070: bc0b f5be 1b30 9bbe 38b2 d4be 31dc d1be
00000080: 4999 88be d216 85be 5687 7fbe e056 afbe
00000090: 2326 d1be 08f0 02bf a834 eabe c0f0 66bf
000000a0: af28 0342 76d5 00bf 5c90 57be 07d4 26bf
000000b0: c452 1ebf 2345 77bf 33f5 aebe d262 69c0
000000c0: 30a3 2bc0 7acc 4cbe 5f17 55be 1d0f 30bf
000000d0: 5f17 b3be 1bd4 fd40 73df bfbe a32c aabe

network.4.weight f4 [28, 56]
-0.102745675 0.2941457 0.554729 0.15900172 -0.3418854 -0.34337887 0.100615785 -0.35469007
0.2876758 -0.26186186 -0.05350045 -0.5624119 -1.215214 -0.05053885 -0.44975424 0.060929015
-0.24055225 0.55415595 -0.18584152 -0.3535048 0.18037353 0.07712852 -0.10727999 -0.31305528
-0.2285372 -1.1912519 0.11427373 -0.43400535 0.5182306 -0.028212933 -0.064358726 -0.33978808
-0.38828135 -0.42403328 -0.11298255 0.23473561 -0.43955463 0.017158989 -0.11665276 0.3012258
-0.41256294 -0.5180794 -0.2686278 -0.5558898 -0.23600753 -0.28473824 -0.25476643 -0.32244173
-0.036170308 0.23715234 0.0056352867 -0.326584 -0.18894073 -2.3492777 -0.2348955 -0.036162905
-0.17594734 0.12889048 -0.3813569 0.10640609 -0.3339939 0.32926568 0.02981636 0.15543233
0.019529456 0.25465417 -0.08386322 0.25635144 -0.20200835 -0.076061144 -0.07697846 0.023868533
0.426091 -0.5031973 0.019507581 -0.14045349 0.2341138 -0.08998125 1.6871053 0.066919215
0.036441635 -1.5003736 -0.2397934 -0.3146472 0.07815068 0.06635538 0.24505518 0.022098308
-0.07325816 0.12460493 0.015064538 -0.044103976 -0.2822304 -0.14060847 0.22039318 -0.16941041
-0.24208272 0.29502487 -0.13225049 -0.34769687 0.19260068 -0.43192774 0.25294048 3.1029305
-0.35080191 -0.36743695 -0.11633816 -0.03015816 -0.08354156 -0.70593125 -0.20737599 -0.06949651
0.47199488 -0.2735944 -0.06752196 -0.19276558 -0.46410254 -0.11409118 -0.09853578 -0.2832242
-0.26204243 -0.59295017 -0.27992716 0.3265891 -0.6537392 -0.2873597 -0.12502988 -0.33443582
0.0035777753 -0.10144269 -0.33866554 -0.1534113 -0.31731752 -0.2900911 -1.5258172 0.015727332
-0.009188296 -0.49949682 -0.42735937 -0.39889622 -0.5034636 -0.35955328 0.48120698 0.0626262
0.07084387 -0.6081882 -0.38332033 -0.2969379 -0.459273 -0.30393434 -0.36174786 -0.11337333
-0.47211486 0.19926162 -0.06564066 -0.29985064 -0.0082866615 0.021475127 0.05993486 -0.0664939
-0.43657848 -0.13730757 -0.36346728 -0.40823314 -0.04489106 -0.28913 -0.012199758 -0.3153773
-0.54170454 -0.09900655 0.3602666 -0.05734388 -0.31881097 -0.020639546 -0.34150898 0.08186212
-0.15260936 -0.4631821 -0.07720002 -0.08087085 0.028910456 -0.2690399 -0.060560327 0.0498197
-0.3602894 0.07085517 0.0012930704 -0.25988764 0.03488258 -0.43384323 -0.39849362 0.08678675
-0.24976768 -0.39988288 -0.34333217 -1.2007554 -0.1615728 -0.08793335 -0.4889784 -0.14499132
-0.04942481 -0.09816375 -0.31353182 -0.22307257 -0.055079646 -0.1976108 -0.15974425 0.094741575
-1.9091923 -0.035256334 0.057328884 -0.015967453 -0.31370103 -0.3224775 -0.553426 -0.12598582
-1.2108757 0.21670535 0.11706536 -0.30000076 -0.4097098 -0.60578936 0.11896778 -0.021090262
-0.05938061 -0.038968477 0.48604694 -0.18044697 -1.4603418 0.22772846 0.2522338 -0.06255725
0.03648833 0.041744888 0.38768247 0.061045557 -0.22222988 0.016772417 0.23547387 0.10828042
-0.37942284 0.2710534 0.02098279 -0.1781337 0.03181767 0.25714725 -0.05891604 0.16493276
0.18592939 -0.20666808 0.059768133 -0.2729221 0.045476466 0.18217959 -0.06625646 0.14893705
00000000: 536c d2bd 449a 963e b802 0e3f 59d1 223e
00000010: 9a0b afbe 5bcf afbe a60f ce3d f099 b5be
00000020: 3e4a 933e c212 86be 4a23 5bbd 3afa 0fbf
00000030: 228c 9bbf d301 4fbd 3046 e6be b490 793d
00000040: 5453 76be 2add 0d3f 3d4d 3ebe 95fe b4be
00000050: d7b3 383e 8ff5 9d3d 9db5 dbbd c848 a0be
00000060: a805 6abe f17a 98bf 5808 ea3d f335 debe
00000070: c3aa 043f cf1e e7bc 82ce 83bd b4f8 adbe
00000080: d0cc c6be e41a d9be 6563 e7bd 885e 703e
00000090: 4e0d e1be 0291 8c3c a4e7 eebd 453a 9a3e
000000a0: 733b d3be daa0 04bf 9589 89be cb4e 0ebf
000000b0: f5ab 71be 36c9 91be bf70 82be 1517 a5be
000000c0: 5127 14bd 10d8 723e 36a8 b83b 0536 a7be
000000d0: ae79 41be 915a 16c0 7288 70be 8e1f 14bd
000000e0: 8a2b 34be defb 033e 3641 c3be 70eb d93d
000000f0: 4001 abbe 8395 a83e 7041 f43c a729 1f3e
00000100: 3dfc 9f3c 0862 823e 7bc0 abbd 7f40 833e
00000110: 47db 4ebe f2c5 9bbd e2a6 9dbd f187 c33c
00000120: 9928 da3e 8ad1 00bf 5dce 9f3c 0ad3 0fbe
00000130: 87bb 6f3e 1748 b8bd 11f3 d73f f10c 893d
00000140: d343 153d 3e0c c0bf 678c 75be 7019 a1be
00000150: 770d a03d 54e5 873d bfef 7a3e 8307 b53c
00000160: 6008 96bd df30 ff3d 41d1 763c 5fa6 34bd
00000170: 8180 90be abfb 0fbe c0ae 613e ec79 2dbe
00000180: 88e4 77be 800d 973e ac6c 07be 5305 b2be
00000190: 1d39 453e a225 ddbe 6a81 813e 6a96 4640
000001a0: 4f9c b3be b220 bcbe b442 eebd 3f0e f7bc
000001b0: d617 abbd e9b7 34bf 5f5a 54be 3054 8ebd
000001c0: 50a9 f13e 9114 8cbe f448 8abd 5764 45be
000001d0: d99e edbe a3a8 e9bd 21cd c9bd c302 91be
000001e0: 6d2a 86be 95cb 17bf 9d52 8fbe b036 a73e
000001f0: 745b 27bf d020 93be d507 00be 2c3b abbe
00000200: 1c79 6a3b 2fc1 cfbd 9265 adbe da17 1dbe
00000210: 7177 a2be d286 94be fa4d c3bf 9bd6 803c
00000220: 828a 16bc 0cbe ffbe d9ce dabe 203c ccbe
00000230: fee2 00bf 5e17 b8be c360 f63e 2a42 803d
00000240: 9716 913d 39b2 1bbf 9042 c4be 3f08 98be
00000250: d525 ebbe 489d 9bbe 0437 b9be 4730 e8bd
00000260: 0ab9 f1be 3d0b 4c3e 9c6e 86bd 0686 99be
00000270: c7c4 07bc 9bec af3c 417e 753d f42d 88bd
00000280: 3787 dfbe 5b9a 0cbe 6218 babe ef03 d1be
00000290: b0df 37bd d908 94be 7ee1 47bc 2279 a1be
000002a0: 26ad 0abf f2c3 cabd dd74 b83e 6be1 6abd
000002b0: 313b a3be 4414 a9bc 44da aebe 54a7 a73d
000002c0: a145 1cbe 3426 edbe 0b1b 9ebd 9e9f a5bd
000002d0: 9fd5 ec3c 99bf 89be 1b0e 78bd be0f 4c3d
000002e0: da77 b8be 841c 913d 3e7c a93a fe0f 85be
000002f0: 09e1 0e3d b320 debe 5b07 ccbe 40bd b13d
00000300: 19c3 7fbe 73bd ccbe 3cc9 afbe 5ab2 99bf
00000310: 5773 25be 6616 b4bd 605b fabe 9b78 14be
00000320: ab71 4abd 130a c9bd 3e87 a0be 236d 64be
00000330: 329b 61bd 7c5a 4abe ff93 23be df07 c23d
00000340: 6a60 f4bf f268 10bd b1d1 6a3d 2dce 82bc
00000350: 6c9d a0be c51b a5be 54ad 0dbf 6d02 01be
00000360: fafd 9abf 02e8 5d3e f7bf ef3d b399 99be
00000370: 7cc5 d1be 0315 1bbf 61a5 f33d 7cc5 acbc
00000380: 1539 73bd 699d 1fbd 25db f83e 17c7 38be
00000390: 7bec babf a631 693e ca24 813e 041e 80bd
000003a0: ca74 153d b0fc 2a3d 517e c63e e80a 7a3d
000003b0: 3b90 63be 4f66 893c 1020 713e 20c2 dd3d
000003c0: b643 c2be 83c7 8a3e 1ae4 ab3c ae68 36be
000003d0: 3f53 023d cea8 833e f251 71bd 22e4 283e
000003e0: 4664 3e3e cca0 53be 6ecf 743d 72bc 8bbe
000003f0: 8845 3a3d 498d 3a3e 78b1 87bd f482 183e

network.4.bias f4 [28]
-1.9628515 -2.6885054 -0.2996083 -1.3718781 -0.14583883 -2.050204 -2.1746264 -0.78052497
-2.5817924 -0.7110337 -1.1463326 -0.59027267 -2.967537 13.133916 -2.5118425 -1.9366832
-1.6975908 -2.9518998 -1.7095069 -2.4750934 -1.2489183 -0.72283274 -3.4319801 -1.985304
-4.1038637 -2.0424273 -0.9674391 -3.6760375
00000000: b83e fbbf 7910 2cc0 4266 99be b499 afbf
00000010: c656 15be 8b36 03c0 142d 0bc0 7cd0 47bf
00000020: 163c 25c0 4e06 36bf 07bb 92bf 1c1c 17bf
00000030: 20ec 3dc0 8524 5241 07c2 20c0 3ce5 f7bf
00000040: a84a d9bf edeb 3cc0 1fd1 dabf ee67 1ec0
00000050: 8edc 9fbf 910b 39bf 90a5 5bc0 711e febf
00000060: da52 83c0 21b7 02c0 17aa 77bf 3344 6bc0

network.6.weight f4 [1, 28]
-0.23758855 0.84973216 0.7944943 -0.024347562 -0.26441437 -1.7466778 -1.1083182 1.6400664
-0.24522336 1.2598702 1.6468483 1.3410187 -0.35758647 -0.17760508 1.0904083 -0.046371706
0.65801495 1.35013 0.8117668 -0.2278849 1.7505276 1.1049566 0.26965067 0.29443526
-1.2201595 -1.200029 -0.03544334 -0.3827469
00000000: 6a4a 73be 0c88 593f fa63 4b3f 8a74 c7bc
00000010: 5261 87be 2393 dfbf 5fdd 8dbf b2ed d13f
00000020: d51b 7bbe 6d43 a13f edcb d23f 80a6 ab3f
00000030: 9315 b7be 1bde 35be 8092 8b3f 42f0 3dbd
00000040: ab73 283f 0fd1 ac3f f3cf 4f3f a95a 69be
00000050: 4a11 e03f 386f 8d3f a70f 8a3e 38c0 963e
00000060: 302e 9cbf 8d9a 99bf 092d 11bd 67f7 c3be
