HPC/Major_project/logistic_regression/models/exp1/42.pth (torch, 4959 bytes, 3 tensors)

network.0.weight f4 [28, 28]
0	0xbf03cdc7	-0.51485866
1	0xbf570683	-0.8399431
2	0xbddbc654	-0.107311875
3	0xbf138530	-0.57625103
4	0xbe5f4931	-0.21805264
5	0x3d973494	0.07383075
6	0x3fa6f7b9	1.3044349
7	0x3e115052	0.14190796
8	0x3f886905	1.065705
9	0xbf83ccdb	-1.0296892
10	0xbc89680b	-0.016773244
11	0xbf4de04c	-0.80420375
12	0x3ef596fd	0.47966757
13	0xbf511b36	-0.81682146
14	0xbdee8ee7	-0.1164835
15	0xbed45977	-0.41474506
16	0x3f27eef3	0.6559898
17	0x3f02dda4	0.51119447
18	0xbf279939	-0.65468174
19	0xbeec3443	-0.46133623
20	0x3ec9b854	0.39398444
21	0xbe564ed2	-0.20928505
22	0x3e9d46c9	0.30718067
23	0xbf896aa0	-1.0735664
24	0x3e1f7849	0.15573229
25	0x3f4cd4c0	0.8001213
26	0xbf9b3107	-1.2124337
27	0xbe46ce9b	-0.19414751
28	0xbeebafba	-0.46032506
29	0x3ec9ec5b	0.39438137
30	0x3d9da57c	0.07697579
31	0x3e6cbbee	0.23118564
32	0x3c8510f7	0.016243441
33	0x3f4469dd	0.76724035
34	0xbedf1e25	-0.43577686
35	0xbb4ad17e	-0.003094762
36	0x3eb97926	0.3622524
37	0x3fb4214a	1.4072659
38	0xbc5c8ad7	-0.013460836
39	0xbd6f8e84	-0.058485523
40	0x3f5b1f0a	0.85594237
41	0x3f9f8b6b	1.2464422
42	0x3d1a0ed2	0.03761179
43	0xbdf9b3e4	-0.121925145
44	0x3f719484	0.9436724
45	0x3f8c2e91	1.0951711
46	0x3cea8935	0.028629879
47	0xba32552b	-0.0006802852
48	0x3eea8db7	0.45811245
49	0xbef6d402	-0.48208624
50	0x401ef664	2.4837885
51	0x3deee658	0.11665028
52	0x401c7df2	2.445187
53	0xc02ac5e2	-2.6683278
54	0x400febfc	2.2487783
55	0xc094d791	-4.6513143
56	0xbfcce94f	-1.60087
57	0x3d98540e	0.07437907
58	0x3dc40ed4	0.09573141
59	0xbf96b715	-1.1774622
60	0x3db0555b	0.0861003
61	0x3e003781	0.12521173
62	0xbe286d28	-0.1644789
63	0xbbd1c7a2	-0.006401972
64	0x3f32b78b	0.69811314
65	0x3e73a2af	0.23792528
66	0x3e80dad1	0.25166944
67	0xbc969db4	-0.018385746
68	0x3eb5c63a	0.35502797
69	0x3ef86a23	0.48518476
70	0x3db855c3	0.09000733
71	0xbd313166	-0.04326
72	0x3eb3ce88	0.35118508
73	0x3ef7cb9a	0.48397523
74	0x3bf9f194	0.0076276753
75	0x3d695a13	0.056970667
76	0x3ee63ac0	0.44966698
77	0xc0112143	-2.2676551
78	0x3eba63f1	0.36404374
79	0x3f0947de	0.53625286
80	0xbd03ff0f	-0.032225665
81	0xc0fbb490	-7.8657913
82	0x40404b8f	3.0046117
83	0xc0c1c55a	-6.055341
84	0x3f3c09ae	0.7345227
85	0xbcc24ba7	-0.023717714
86	0xbcc65d2d	-0.024214352
87	0x3f95ce0d	1.1703507
88	0x3d17063c	0.03687118
89	0xbdedeb37	-0.11617129
90	0x3de48582	0.11158277
91	0x3d02c8f6	0.031929933
92	0x3e7fd02a	0.24981752
93	0xbddfb206	-0.10922627
94	0x3db45a8d	0.08806334
95	0x3b349bcc	0.0027558682
96	0x3cb7c870	0.022434443
97	0xbe405373	-0.18781833
98	0xbd264ed2	-0.040602513
99	0x3db69332	0.08914794
100	0x3da1f3af	0.07907807
101	0x3e07d470	0.13264632
102	0xbd26d7ed	-0.040733267
103	0x3d9d67e6	0.07685833
104	0x3e817c9e	0.25290388
105	0xbef74839	-0.4829729
106	0x3e0dabe0	0.13835096
107	0xbdfd67b2	-0.12373294
108	0xbf5b9321	-0.85771376
109	0x3ed1f081	0.41003802
110	0x406683d9	3.6017973
111	0xc14866cc	-12.525097
112	0xc0a33dca	-5.1012926
113	0xbe33a394	-0.17542869
114	0x3bea9c20	0.007159725
115	0xc01a9e65	-2.4159176
116	0x3d0100b8	0.031494826
117	0x3f2b5655	0.6692861
118	0x3d91ec47	0.071251445
119	0xbce50530	-0.027956575
120	0xbef72efb	-0.4827803
121	0x3d46bd13	0.04852016
122	0x3cd689ac	0.026188694
123	0xbd5ebbee	-0.054378442
124	0xbd8abb82	-0.067740455
125	0x3e42983f	0.1900339
126	0xbc85d3fa	-0.01633643
127	0x3c848747	0.016177787
128	0x3e4e1773	0.20126133
129	0x3dddffea	0.10839827
130	0xbcc9fc58	-0.02465646
131	0xb978f355	-0.00023741771
132	0x3ec826b0	0.39092016
133	0x3e5069fb	0.20352928
134	0x3f61a2a9	0.88138825
135	0x3fbf68aa	1.4953816
136	0xbef213f3	-0.47280845
137	0x408231af	4.068565
138	0xc0e8b886	-7.272525
139	0x3fa77216	1.3081691
140	0x3e5bcd2f	0.2146499
141	0x3d5d98ba	0.05410073
142	0x3c8e1918	0.01734595
143	0x3ebc0607	0.36723348
144	0x3d2eb0e0	0.04264915
145	0x3d4ab470	0.049488485
146	0xbd937694	-0.07200351
147	0x3cc67b45	0.024228701
148	0xbd965ded	-0.07342134
149	0x3e42bc96	0.19017252
150	0x3d58f0df	0.052964088
151	0xbc89c94f	-0.016819624
152	0x3e0227c6	0.12710485
153	0x3d9aba18	0.07555026
154	0xbc08d655	-0.008351882
155	0x3afcadbe	0.0019277853
156	0x3ec61a3a	0.38691884
157	0x3d316857	0.043312397
158	0xbc0e8100	-0.008697748
159	0x3c800627	0.015627934
160	0x3f02922f	0.5100431
161	0x409a9fff	4.832031
162	0xc15ef47d	-13.9346895
163	0xbea2a7ab	-0.31768546
164	0xbf098d7d	-0.5373152
165	0x3f8113c4	1.0084157
166	0xc04fe42d	-3.2483017
167	0x3f6501ed	0.89456064
168	0x3f043beb	0.5165393
169	0x3cee8e51	0.029120596
170	0x3c471986	0.012152081
171	0x3e1d998b	0.15390603
172	0x3d35f4a7	0.04442277
173	0x3d494487	0.04913762
174	0x3c7bb1b4	0.015362192
175	0x3c19ff89	0.009399303
176	0xbe050cc1	-0.12993146
177	0x3e87edbe	0.2654857
178	0x3d99fc04	0.07518771
179	0xbc443ecf	-0.011977865
180	0xbea48620	-0.3213358
181	0x3eca1b59	0.3947399
182	0xbc2a578a	-0.0103968475
183	0x3d919e71	0.071102984
184	0xbeb25656	-0.34831494
185	0x3ee6b6d2	0.45061356
186	0xbc201973	-0.009771693
187	0xbcdc8c05	-0.026922235
188	0xbf0eba0f	-0.5575265
189	0x3daf4310	0.08557713
190	0x3d94426d	0.07239232
191	0xbef3f348	-0.47646546
192	0x3f52a6a4	0.82285523
193	0xc1517875	-13.091908
194	0xbe8de46e	-0.2771334
195	0xbdfa2e54	-0.12215868
196	0x4045bc90	3.089634
197	0xc07fc4d9	-3.9963896
198	0xbd78030d	-0.060549784
199	0x3f6ff318	0.93730307
200	0xbc8ae0b7	-0.016952856
201	0x3fe2a3e3	1.7706264
202	0x40c0da09	6.0266156
203	0xbe1bc5f7	-0.15212236
204	0xbf7a537b	-0.9778363
205	0x3f289011	0.6584483
206	0xbeed651e	-0.4636621
207	0x3e37b992	0.17941883
208	0x3f3afec4	0.7304499
209	0x3f27d7cf	0.6556367
210	0xbe83ef0e	-0.25768322
211	0x3cdddd5e	0.027083095
212	0x3f0074db	0.5017831
213	0x3e09e60a	0.13466659
214	0xbdafb15f	-0.08578753
215	0xbd80bbf5	-0.0628585
216	0x3e97959c	0.2960633
217	0x3e4ecce6	0.2019535
218	0xbf231caa	-0.6371561
219	0xbec651d3	-0.38734302
220	0xbe82e448	-0.2556479
221	0xbf67e36e	-0.90581405
222	0xbd3bcc94	-0.045849398
223	0x3f78d9be	0.9720725
224	0x400e946e	2.2278094
225	0xbec3767c	-0.38176334
226	0x3d217807	0.039421108
227	0x3fa80640	1.3126907
228	0x3df7ba62	0.120960966
229	0xbf00c347	-0.5029797
230	0x3dcd98a3	0.10038879
231	0xbe2a28dc	-0.16617149
232	0x3f2e3f96	0.68065774
233	0xbf4128fb	-0.75453156
234	0x3ba1d966	0.004939246
235	0xbd05e0af	-0.032684978
236	0xbec30914	-0.38092864
237	0x3e9095c7	0.2823927
238	0xbc506d72	-0.012721406
239	0x3d25d938	0.04049036
240	0xbcc39db9	-0.023878919
241	0x3f313642	0.69223416
242	0x3df1fea8	0.1181615
243	0xbd88bd21	-0.066766985
244	0x3eb761f5	0.35816923
245	0xbf85caf3	-1.045256
246	0xc06bb98d	-3.6832001
247	0xbea203ee	-0.31643623
248	0x3fafd16d	1.3735787
249	0x40662fff	3.5966794
250	0x402776cd	2.616626
251	0xc01a202c	-2.4082136
252	0x3f4b1bf2	0.79339516
253	0xbc91126e	-0.017708983
254	0xbc30883d	-0.010774669
255	0x3f078335	0.5293458

network.0.bias f4 [28]
0	0xc131413c	-11.078426
1	0x3f98f6fe	1.1950376
2	0xc0f3434f	-7.6019664
3	0x3f8bdde4	1.0927091
4	0xbf39b308	-0.72538805
5	0xc077a9eb	-3.869746
6	0xc131bd2d	-11.1086855
7	0xc168f390	-14.5594635
8	0xc12c599a	-10.771875
9	0xc054b013	-3.3232467
10	0xc0963afe	-4.694701
11	0xbe673608	-0.22579205
12	0xc08f1563	-4.4713607
13	0xc097819b	-4.734571
14	0xc07b4a10	-3.9263954
15	0xc143617b	-12.211299
16	0xc070bef2	-3.7616544
17	0xc08b3fcf	-4.351539
18	0xc0f8c508	-7.7740517
19	0xc133f940	-11.248352
20	0xbf1d91e7	-0.61550754
21	0x3f253820	0.64538765
22	0xc09588a5	-4.6729302
23	0xc0e24e1e	-7.072036
24	0x40220433	2.5315063
25	0xc122d812	-10.177752
26	0xc02b4137	-2.6758554
27	0xc0f0037a	-7.5004244

network.2.weight f4 [1, 28]
0	0x3da6167a	0.08109756
1	0x3e0fc47d	0.14039798
2	0xbe0bf7ea	-0.1366879
3	0x3e60cfda	0.21954289
4	0x3e6346e8	0.22195017
5	0x3e5fb990	0.2184813
6	0x3e6bdca1	0.23033382
7	0x3e199132	0.14996794
8	0x3e2aa180	0.1666317
9	0xbe8d413b	-0.2758883
10	0xbe570b39	-0.21000375
11	0x3e166fce	0.14691088
12	0xbc375a34	-0.01119094
13	0x3d957a49	0.07298715
14	0x3e5375c5	0.20650394
15	0x3de39f9f	0.1111443
16	0x3ec4f06c	0.38464677
17	0xbe0523d8	-0.13001955
18	0x3e058371	0.13038422
19	0xbe1643af	-0.14674257
20	0xbec3f1eb	-0.38270506
21	0xbe452cd1	-0.19255377
22	0xbdf4c402	-0.11951448
23	0xbdc5648a	-0.09638317
24	0xbe33d1a0	-0.17560434
25	0x3f367cce	0.71284187
26	0xbe23c1c9	-0.15991892
27	0xbe0e216f	-0.13879941
