HPC/Major_project/logistic_regression/models/exp1/46.pth (torch, 4959 bytes, 3 tensors)

network.0.weight f4 [28, 28]
00000000: c7cd 03bf 8306 57bf 54c6 dbbd 3085 13bf
00000010: 3149 5fbe 9434 973d b9f7 a63f 5250 113e
00000020: 0569 883f dbcc 83bf 0b68 89bc 4ce0 4dbf
00000030: fd96 f53e 361b 51bf e78e eebd 7759 d4be
00000040: f3ee 273f a4dd 023f 3999 27bf 4334 ecbe
00000050: 54b8 c93e d24e 56be c946 9d3e a06a 89bf
00000060: 4978 1f3e c0d4 4c3f 0731 9bbf 9bce 46be
00000070: a3ca ecbe e31b cd3e 41d9 993d 7c70 733e
00000080: a062 813c 41fd 423f 222e e1be b06e b3bb
00000090: fac8 ba3e ecac b23f cf86 74bc adcf 2cbd
000000a0: d8e6 593f 7d7d 9f3f 25ae 0c3d 39d1 ecbd
000000b0: 1541 6f3f b785 8c3f 34fc f73c 4d57 9dba
000000c0: eb33 ea3e 7823 f5be ea51 2040 a833 fa3d
000000d0: 5767 1d40 3049 2ac0 f935 0f40 715b 94c0
000000e0: e806 cdbf db39 833d 252b d03d 0f7e 98bf
000000f0: 9a6b ba3d 24ec 0c3e 8182 2fbe b881 cd3a
00000100: f573 323f 94c8 753e 1fbf 783e 6d51 00bd
00000110: 030e b43e 2833 fa3e 9b73 b33d cb77 44bd
00000120: 09f3 b13e ee67 fa3e 260b 76bb f15e 5d3d
00000130: 6981 e33e 119a 0fc0 7d95 b63e 9c4a 0c3f
00000140: 7541 cebc baec fbc0 2c5a 4040 001f c2c0
00000150: cf82 3b3f c2e5 afbc fe96 debc c8aa 963f
00000160: c61e 173d 5c98 eabd 5fe7 f13d 3e4d e63c
00000170: d726 823e 4f9c cfbd 85c2 c43d 3bdf 613c
00000180: cbd7 c73c 2225 38be 56c7 15bd 31c3 d03d
00000190: 08ba b43d c70f 063e 1df8 12bd 6f79 a73d
000001a0: 1f56 813e 2b27 fcbe 41e3 c93d de53 f4bd
000001b0: 83f3 5dbf 37a2 d13e 67a9 6540 bc74 48c1
000001c0: 0e6c a3c0 d970 39be 40b6 74ba 54ed 19c0
000001d0: bd8c 083d 0857 2a3f 4e87 973d 58be 10bd
000001e0: 2016 f7be 527b 163d 9cd6 e13c c65f 47bd
000001f0: 6406 84bd a0e1 433e 300d 91bc fd0d d93c
00000200: 1d79 523e dd0c d53d df92 d1bc dd69 c23a
00000210: 61b4 c63e 8888 523e d13b 5b3f 3951 bf3f
00000220: c51c f3be dc5c 8240 b9a9 e8c0 fd10 a73f
00000230: ea8d 523e 298e 563d f266 3f3c b863 b93e
00000240: 1459 243d 97e2 683d aaaa 8bbd b386 b63c
00000250: 9c67 8ebd 66d9 423e 95b5 6e3d 5e46 8fbb
00000260: df2a f63d 0b78 a83d d793 10bc 42b1 583c
00000270: f7d2 c33e 8754 3a3d 37af d7bb b262 8f3c
00000280: 2d0e 023f c21a 9940 bd7b 5fc1 7f0d a6be
00000290: daaf 04bf fe79 7a3f 3fbf 4ec0 4c5b 683f
000002a0: 98df 043f 7486 033d bcf7 2b3c 247c 263e
000002b0: 383c 353d ea6c 4c3d 64d4 bb3c c758 bf3a
000002c0: 8dcb 05be b52c 853e 6919 aa3d d0ed c7bb
000002d0: cc65 a7be 79d8 c83e 44e1 f2bb 059e 883d
000002e0: 4db4 b1be 684f e73e 3701 c7bb 84e7 c3bc
000002f0: c72b 0fbf 960d 9e3d 0aea 993d 1d4b f3be
00000300: 5100 513f f49f 51c1 4d7f 8fbe c8ac f8bd
00000310: d961 4640 18a0 80c0 3309 60bd 5a67 743f
00000320: 26dc 5dbc 5e53 e33f e4fe c040 5922 1abe
00000330: d95f 80bf 88d6 293f dcc5 e8be 88cd 403e
00000340: 296e 3a3f de92 273f b5c1 7dbe 7919 043d
00000350: 4223 003f d410 0d3e 6ffa a9bd 01a0 80bd
00000360: 4d60 953e 3c43 463e c868 20bf 442f c5be
00000370: 1853 82be 8483 64bf c42b 4fbd cefa 763f
00000380: ef2f 0e40 ab0b cabe cc7b 283d 4e7f a93f
00000390: 6778 013e 2d5d fdbe 432e cd3d 161b 22be
000003a0: 1c33 2f3f 9492 3cbf d3f2 d5bb 8e4f fbbc
000003b0: 2142 c3be 6b0d 923e 8290 88bc 051c 4b3d
000003c0: 714f 18bd 1114 2f3f 4eec e93d 2c04 77bd
000003d0: e4a5 b73e 1411 82bf 342d 6ec0 54bf 9fbe
000003e0: 35af af3f 9bb4 6540 04b9 2740 48bc 19c0
000003f0: e083 4a3f f946 a1bc 68a3 30bc 41bc 063f
-0.51485866 -0.8399431 -0.107311875 -0.57625103 -0.21805264 0.07383075 1.3044349 0.14190796
1.065705 -1.0296892 -0.016773244 -0.80420375 0.47966757 -0.81682146 -0.1164835 -0.41474506
0.6559898 0.51119447 -0.65468174 -0.46133623 0.39398444 -0.20928505 0.30718067 -1.0735664
0.15573229 0.8001213 -1.2124337 -0.19414751 -0.4624835 0.40060338 0.07512141 0.23773378
0.015794098 0.76167685 -0.4398051 -0.0054758415 0.36481458 1.3959022 -0.014924719 -0.042190243
0.85117865 1.2460171 0.034345765 -0.115633436 0.9345868 1.0978307 0.030271627 -0.0012004167
0.45742735 -0.47878623 2.5049996 0.12216884 2.4594324 -2.660717 2.2376692 -4.6361623
-1.6017733 0.064075194 0.10164479 -1.191347 0.091025546 0.13761955 -0.17139627 0.0015678918
0.69708186 0.24002296 0.24291657 -0.031327654 0.3516694 0.48867154 0.08762284 -0.047965806
0.34755734 0.48907417 -0.0037543266 0.05404562 0.4443467 -2.2437785 0.35660926 0.54801345
-0.025177697 -7.8726473 3.0055037 -6.066284 0.73246473 -0.021471862 -0.027171608 1.1770868
0.036894582 -0.114548415 0.11811709 0.028113004 0.25420257 -0.101372354 0.09607414 0.013786132
0.02439489 -0.17982915 -0.036567055 0.1019348 0.08824545 0.13091956 -0.03588115 0.081774585
0.25261018 -0.49248633 0.09857798 -0.11930059 -0.86699694 0.40944073 3.5884645 -12.5285
-5.1069403 -0.18109454 -0.00093350187 -2.4051104 0.033337343 0.6653905 0.07398854 -0.035337776
-0.48259068 0.0367387 0.027568154 -0.04867532 -0.064465314 0.19129038 -0.017706484 0.026495928
0.20554014 0.10402844 -0.025582729 0.0014832575 0.38809493 0.20559895 0.8563815 1.4946662
-0.47482887 4.0738354 -7.270718 1.305206 0.20561948 0.05238167 0.011682259 0.36208892
0.040124014 0.056856718 -0.06819661 0.022281026 -0.06953356 0.19028243 0.05827864 -0.004372402
0.12019896 0.082260214 -0.00882431 0.013225855 0.3824689 0.045490768 -0.0065821665 0.017503116
0.5080288 4.7845163 -13.96771 -0.32432172 -0.5183083 0.97842395 -3.2304227 0.9076431
0.51903677 0.032110646 0.010496076 0.16258293 0.044246882 0.049908556 0.022928424 0.0014598601
-0.1306593 0.2601067 0.08305628 -0.0061013475 -0.32694852 0.39227656 -0.0074121077 0.06670765
-0.3470787 0.4517777 -0.006073143 -0.023914106 -0.55926174 0.07717435 0.075153425 -0.47518244
0.8164111 -13.101551 -0.2802681 -0.121423304 3.0997221 -4.0195427 -0.054696273 0.954702
-0.013541257 1.7759817 6.0311146 -0.15052165 -1.002925 0.66342974 -0.45463455 0.18828404
0.7282434 0.65458477 -0.24780925 0.032250855 0.500538 0.1377595 -0.082997195 -0.06280518
0.29175034 0.19361585 -0.62659883 -0.38512623 -0.2545402 -0.89263177 -0.050578848 0.9647645
2.2216756 -0.39462027 0.041133687 1.3241975 0.12643586 -0.4948515 0.10018589 -0.15830645
0.6843736 -0.7366116 -0.006529191 -0.030677583 -0.3813639 0.28525862 -0.01667047 0.04958727
-0.037185136 0.68389994 0.11422025 -0.060306713 0.35868752 -1.0161462 -3.721509 -0.3120066
1.3725344 3.5891483 2.6206675 -2.4021168 0.79107475 -0.019687163 -0.010781147 0.52631

network.0.bias f4 [28]
00000000: 3c41 31c1 93d3 9a3f 69d7 f2c0 dbf5 8a3f
00000010: 5f01 3abf eb17 76c0 548f 31c1 2fba 68c1
00000020: 9b63 2cc1 da6a 54c0 55c2 95c0 74a8 5bbe
00000030: 6315 8fc0 496c 96c0 677d 7ac0 2730 43c1
00000040: cf49 6fc0 2ecd 8ac0 146f f8c0 579c 33c1
00000050: 3103 1ebf 7eba 303f 379e 92c0 61d3 e1c0
00000060: 7cad 2140 26e3 22c1 d800 2bc0 dd34 f0c0
-11.078426 1.2095817 -7.588795 1.0856279 -0.7265834 -3.8452098 -11.097492 -14.545455
-10.774318 -3.3190217 -4.679972 -0.21450979 -4.4713607 -4.7007184 -3.913904 -12.199256
-3.73888 -4.3375463 -7.7635593 -11.225669 -0.6172362 0.69034564 -4.5818133 -7.057053
2.5262136 -10.180456 -2.6719265 -7.506453

network.2.weight f4 [1, 28]
00000000: 7a16 a63d 7df6 0a3e fcbb 0dbe 530c 613e
00000010: 0a0a 623e fb5d 653e e545 703e 0567 1a3e
00000020: f0b1 2a3e 6276 8dbe 2e92 54be 2966 163e
00000030: 345a 37bc 21f8 a13d 9953 513e 05eb e73d
00000040: f390 c43e ff20 06be 6bab 003e 154d 12be
00000050: 3d09 c5be 99ec 45be f6da f6bd b0bc c5bd
00000060: f888 33be e5e8 3b3f b05d 25be 3990 0ebe
0.08109756 0.1357059 -0.13841242 0.21977358 0.22074142 0.22399132 0.23464163 0.15078361
0.1666944 -0.2762938 -0.20758888 0.14687409 -0.01119094 0.07908655 0.20442046 0.11324123
0.38391837 -0.13098525 0.12565391 -0.14287217 -0.3848361 -0.19328536 -0.12053482 -0.0965513
-0.17532718 0.73402244 -0.1614902 -0.13922204
