HPC/Major_project/logistic_regression/models/exp1/50.pth (torch, 4959 bytes, 3 tensors)

network.0.weight f4 [28, 28]
-0.51485866 -0.8399431 -0.107311875 -0.57625103 -0.21805264 0.07383075 1.3044349 0.14190796
1.065705 -1.0296892 -0.016773244 -0.80420375 0.47966757 -0.81682146 -0.1164835 -0.41474506
0.6559898 0.51119447 -0.65468174 -0.46133623 0.39398444 -0.20928505 0.30718067 -1.0735664
0.15573229 0.8001213 -1.2124337 -0.19414751 -0.46586636 0.4082736 0.082627825 0.24112536
0.014694456 0.7711653 -0.445458 -0.011669156 0.36005566 1.3989944 -0.022864046 -0.04405784
0.84518236 1.2435813 0.030500859 -0.117718436 0.93150824 1.0945703 0.024608487 0.0014992616
0.45905972 -0.47858065 2.5214853 0.123219095 2.47768 -2.6625228 2.23482 -4.6136055
-1.6089916 0.06598351 0.10431149 -1.1932044 0.08933666 0.1488397 -0.16977684 0.0018754437
0.69606596 0.24361922 0.26239538 -0.03135992 0.3496208 0.4902299 0.09573973 -0.03767339
0.3416758 0.49504524 -0.0022938775 0.048943 0.43194672 -2.2183526 0.35621858 0.5503528
-0.018266398 -7.875345 3.0062737 -6.072835 0.73010004 -0.021212373 -0.022835262 1.1646384
0.031564422 -0.1155333 0.116996236 0.033054635 0.25965405 -0.09411043 0.087630175 0.0078514675
0.025644176 -0.17949648 -0.03125528 0.09808423 0.08879153 0.122339055 -0.037743468 0.08862321
0.25675398 -0.5053036 0.068088405 -0.118477024 -0.87695754 0.4096728 3.579381 -12.532187
-5.1113825 -0.18248314 0.0031024325 -2.410261 0.026334304 0.66863877 0.07608595 -0.03256472
-0.48100972 0.035998743 0.025228433 -0.05812714 -0.06611251 0.18555224 -0.012401718 0.021594953
0.20185475 0.09755263 -0.022412233 0.0050551537 0.3933208 0.1966186 0.8316622 1.4917549
-0.47488984 4.079859 -7.2682886 1.3030262 0.20388263 0.05283562 0.010880175 0.34030753
0.03758961 0.063852645 -0.07245608 0.022624647 -0.07233082 0.20166817 0.054875337 -0.009588587
0.11640117 0.086828016 -0.0066432115 0.013101823 0.37965474 0.038022533 -0.0056941877 0.017941477
0.5061919 4.744305 -13.991377 -0.3278921 -0.5044702 0.95581335 -3.209749 0.9222046
0.5201563 0.029231787 0.009794055 0.15970236 0.046864036 0.056702826 0.017840033 -0.003839604
-0.1290543 0.26252455 0.07430414 -0.0046672686 -0.3289007 0.39769357 -0.011999703 0.061570007
-0.34680808 0.45444742 -0.008631523 -0.025077023 -0.56193477 0.069953695 0.0764047 -0.4785365
0.81504005 -13.104136 -0.2779473 -0.12224904 3.1071405 -4.0361433 -0.04699628 0.9631114
-0.007553711 1.7844564 6.026598 -0.15005544 -1.0155632 0.67499894 -0.44828835 0.18647277
0.72660035 0.65462464 -0.24815205 0.03072029 0.49560273 0.14087915 -0.081104465 -0.057970196
0.28684017 0.18590319 -0.6196168 -0.38785174 -0.24758494 -0.8753161 -0.05046577 0.9606936
2.216411 -0.40549862 0.045366865 1.3262719 0.13206205 -0.48586652 0.097315826 -0.15334201
0.68396264 -0.71968126 -0.0038436987 -0.031164924 -0.37933332 0.28613657 -0.014157946 0.052314606
-0.048226506 0.68222284 0.1172003 -0.061463762 0.35949242 -0.99288636 -3.7480047 -0.3127615
1.3712304 3.5846884 2.625218 -2.3950548 0.7890676 -0.020619607 -0.01154292 0.5316383
00000000: c7cd 03bf 8306 57bf 54c6 dbbd 3085 13bf
00000010: 3149 5fbe 9434 973d b9f7 a63f 5250 113e
00000020: 0569 883f dbcc 83bf 0b68 89bc 4ce0 4dbf
00000030: fd96 f53e 361b 51bf e78e eebd 7759 d4be
00000040: f3ee 273f a4dd 023f 3999 27bf 4334 ecbe
00000050: 54b8 c93e d24e 56be c946 9d3e a06a 89bf
00000060: 4978 1f3e c0d4 4c3f 0731 9bbf 9bce 46be
00000070: 0986 eebe 3d09 d13e c738 a93d 91e9 763e
00000080: 04c1 703c 176b 453f 1213 e4be fd2f 3fbc
00000090: 3759 b83e 4012 b33f 614d bbbc fe75 34bd
000000a0: df5d 583f ac2d 9f3f f0dc f93c 5d16 f1bd
000000b0: 5377 6e3f e11a 8c3f bd97 c93c df82 c43a
000000c0: e009 eb3e 8608 f5be 0460 2140 4b5a fc3d
000000d0: 4f92 1e40 c666 2ac0 4a07 0f40 a8a2 93c0
000000e0: 70f3 cdbf 5d22 873d 43a1 d53d ecba 98bf
000000f0: 24f6 b63d 6f69 183e fbd9 2dbe 73d1 f53a
00000100: 6131 323f 5177 793e b058 863e 4273 00bd
00000110: 7f01 b33e 6aff fa3e 3113 c43d 6a4f 1abd
00000120: 21f0 ae3e 9276 fd3e e154 16bb 7578 483d
00000130: 1f28 dd3e 7df9 0dc0 4862 b63e ece3 0c3f
00000140: 6aa3 95bc d402 fcc0 ca66 4040 aa54 c2c0
00000150: d6e7 3a3f 92c5 adbc 0411 bbbc df12 953f
00000160: b249 013d b99c ecbd b99b ef3d 4c64 073d
00000170: 60f1 843e f8bc c0bd 7377 b33d 71a3 003c
00000180: bc13 d23c edcd 37be 8905 00bd 63e0 c83d
00000190: 55d8 b53d e68c fa3d e598 1abd 1680 b53d
000001a0: 4275 833e 945b 01bf ef71 8b3d 15a4 f2bd
000001b0: 4a80 60bf a2c0 d13e 9414 6540 d783 48c1
000001c0: 7290 a3c0 dcdc 3abe 2e52 4b3b b741 1ac0
000001d0: 0abb d73c e92b 2b3f f3d2 9b3d 9562 05bd
000001e0: e846 f6be 6b73 133d dcab ce3c b916 6ebd
000001f0: ff65 87bd 6801 3e3e 9330 4bbc e6e7 b03c
00000200: 03b3 4e3e acc9 c73d dc99 b7bc b4a5 a53b
00000210: 5861 c93e 6356 493e d0e7 543f d3f1 be3f
00000220: c324 f3be 348e 8240 d295 e8c0 90c9 a63f
00000230: 9cc6 503e 2a6a 583d c342 323c ca3c ae3e
00000240: 90f7 193d 2dc5 823d da63 94bd 5357 b93c
00000250: 2e22 94bd 1a82 4e3e f6c4 603d 7319 1dbc
00000260: bd63 ee3d e3d2 b13d 4caf d9bb 07a9 563c
00000270: 1b62 c23e 84bd 1b3d 4f96 babb 01fa 923c
00000280: cb95 013f 59d1 9740 aedc 5fc1 79e1 a7be
00000290: f624 01bf 2fb0 743f 876c 4dc0 9a15 6c3f
000002a0: f728 053f 8077 ef3c 3e77 203c 0489 233e
000002b0: 81f4 3f3d 3941 683d 4325 923c dea1 7bbb
000002c0: cf26 04be 9e69 863e c52c 983d e3ef 98bb
000002d0: ac65 a8be 7e9e cb3e 679a 44bc d530 7c3d
000002e0: d490 b1be 55ad e83e 3b6b 0dbc 546e cdbc
000002f0: f5da 0fbf e243 8f3d 117a 9c3d bc02 f5be
00000300: 77a6 503f 8baa 51c1 1c4f 8ebe b45d fabd
00000310: 64db 4640 1628 81c0 2c7f 40bd 788e 763f
00000320: 1f85 f7bb 1169 e43f e4d9 c040 22a8 19be
00000330: fafd 81bf bbcc 2c3f 0d86 e5be b8f2 3e3e
00000340: 7b02 3a3f 7b95 273f 921b 7ebe 1ea9 fb3c
00000350: a4bf fd3e a042 103e 191a a6bd 2872 6dbd
00000360: b7dc 923e 685d 3e3e 359f 1ebf 8194 c6be
00000370: e886 7dbe b714 60bf 32b5 4ebd 04f0 753f
00000380: aed9 0d40 849d cfbe 9bd2 393d 47c3 a93f
00000390: 463b 073e 7fc3 f8be 854d c73d b005 1dbe
000003a0: 2d18 2f3f 083d 38bf 90e6 7bbb 954d ffbc
000003b0: fa37 c2be 7e80 923e bbf6 67bc d747 563d
000003c0: 2889 45bd 28a6 2e3f b606 f03d 6dc1 7bbd
000003d0: 640f b83e cd2d 7ebf 4fdf 6fc0 4622 a0be
000003e0: 7a84 af3f 896b 6540 9203 2840 9448 19c0
000003f0: 5600 4a3f 73ea a8bc 841e 3dbc 7319 083f

network.0.bias f4 [28]
-11.078426 1.216186 -7.58276 1.0762931 -0.7296717 -3.8277364 -11.092903 -14.53966
-10.777406 -3.3182042 -4.667264 -0.21100606 -4.4713607 -4.6799564 -3.9013224 -12.193231
-3.7220616 -4.3311834 -7.7576394 -11.206554 -0.6147899 0.7319834 -4.5179076 -7.050089
2.5259423 -10.177558 -2.6706023 -7.5090175
00000000: 3c41 31c1 fcab 9b3f f8a5 f2c0 f9c3 893f
00000010: c4cb 3abf a2f9 74c0 887c 31c1 73a2 68c1
00000020: 4170 2cc1 755d 54c0 3a5a 95c0 f911 58be
00000030: 6315 8fc0 34c2 95c0 44af 79c0 7917 43c1
00000040: 4236 6ec0 0e99 8ac0 953e f8c0 0c4e 33c1
00000050: df62 1dbf 4463 3b3f b392 90c0 549a e1c0
00000060: 0aa9 2140 47d7 22c1 26eb 2ac0 df49 f0c0

network.2.weight f4 [1, 28]
0.08109756 0.13746226 -0.13804197 0.2187877 0.22440194 0.2221553 0.2325647 0.1498136
0.1665454 -0.2773418 -0.2085856 0.1447952 -0.01119094 0.07325967 0.20617689 0.11121532
0.3852031 -0.12933962 0.12610705 -0.14127156 -0.38587767 -0.1982253 -0.11908956 -0.09640096
-0.17524238 0.74488926 -0.16131777 -0.1366769
00000000: 7a16 a63d e8c2 0c3e e05a 0dbe e209 603e
00000010: 9fc9 653e ae7c 633e 7125 6e3e bd68 193e
00000020: e18a 2a3e bfff 8dbe 7797 55be 3145 143e
00000030: 345a 37bc 2a09 963d 0920 533e dcc4 e33d
00000040: 5739 c53e 9b71 04be 3522 013e 7ea9 10be
00000050: c291 c5be 93fb 4abe 3ae5 f3bd de6d c5bd
00000060: bd72 33be 10b1 3e3f 7c30 25be 07f5 0bbe
