HPC/Major_project/logistic_regression/models/exp1/6.pth (torch, 28367 bytes, 7 tensors)

network.0.weight f4 [56, 28]
00000000: b0c0 06bf 382d cabd 412c d13f b02e 2ac0
00000010: 561b 7a3f 3af6 2a3f dc3e febe f920 a0be
00000020: 3293 8ac0 5add 1fc0 7885 4940 b32f e13e
00000030: 201a 153f 5f4a 0dc0 03fa babc 7096 093e
00000040: 45cd 053f 867d dabf 9204 10c0 a702 f9bf
00000050: 81b1 c4be 5ceb 25c0 9b95 e53f 166b d5bd
00000060: 7656 673f cfc4 e13f 45cb f0be 21e9 3a3f
00000070: d78c 523f 864e a33f f2e6 90bf 05f3 5640
00000080: 68b5 473f 01e4 8f3f 8966 42c0 4731 39be
00000090: adda c6bf 6225 f3be 8774 82c0 48d7 133e
000000a0: 9a2b c33f 404b 2cbf 0de3 e9bf 6da8 843c
000000b0: e532 453d 346f 7bbf 2504 c2bf e7c9 d3bd
000000c0: 7eee c33f fa52 6cbe 144e 9abf 3459 06c0
000000d0: ab66 8f3e da16 a83f f8d9 e8bc c1ba b73f
000000e0: a48a 8d40 74ff ee3d 91ec 743d 34b2 4640
000000f0: 35f8 7b3c b8a8 91c0 8815 4d3f 9194 c6be
00000100: 5744 bb3d 65a8 1141 a7de b93d 1e0f 263e
00000110: 3c00 6840 2998 93bf 5514 58be c765 8d3c
00000120: c1d5 eabe a35e a7bf fe02 443e 410d 863e
00000130: 62d7 a7bf 7180 23bf 673c f43f 77f9 acbf
00000140: 0727 7b3f ad98 26c0 d0e4 52bf a0e3 803f
00000150: 07c3 3c40 4e13 803e ab68 223e 55aa c63f
00000160: aaf2 eebe 17d4 4041 38fd 6d3e 6b39 08be
00000170: b9a7 2b40 1d4b b4c0 d646 08be b1f6 1dbe
00000180: d450 2bbf e998 36c0 b4ac 223e c9e3 8cbe
00000190: d351 23bf 37ef fabf 7308 cb3d 14f9 0bbf
000001a0: 3e7f 61bf 3f94 083f 408b eb3f 1b4d f3bf
000001b0: 82a1 a63f d5b0 fbbf e873 b53e c2c7 a9bc
000001c0: d413 22c1 c7a6 1dbe bdd3 71be dcf5 d3c0
000001d0: 8dd4 0cbc 5f02 c03f 1e3e 95bd 9de6 12be
000001e0: b524 4abf 844d 5c3f 6519 2c3e da53 e23d
000001f0: 6845 b6be 5cc6 2f3f e986 e13d 6cd6 993e
00000200: 7a57 6c3e 4be0 163f 8920 6bbe 1003 d2bd
00000210: cdce f93e a1a4 303e 1649 0e40 358c 4a40
00000220: af4f b3be 189f dc40 2ee6 52c1 059d 1b40
00000230: 1da9 c83d affc e13e 88de 743e 5819 09c0
00000240: c50a f53d 738c 2640 c0f6 cd3f b634 14be
00000250: 7b96 7cc0 caea ae3e d683 b3bd 4ec0 013d
00000260: 70cf 7cbf 7cfe ca3f 1b59 34bf dee7 483f
00000270: 48b3 753e d673 933f 4da9 8cbf e061 04bf
00000280: 605a 4a3f c4e1 72c0 252e 09c0 d18e 92bf
00000290: 7994 1a40 c32d 75bf d474 b7bf 2390 f040
000002a0: 0291 b5c0 e4fb b4bf 6d55 b5be 960e ecbf
000002b0: f50e 5fbe 76af 01c1 b327 be40 24b2 403c
000002c0: 25cf 0740 f057 9ec0 30df 49c0 fbd8 173d
000002d0: 826d 9a3f 4f97 10c0 9dd7 0dbf b3a3 193d
000002e0: 33f1 7c3f ac22 b0bf cf25 55be 9841 24bd
000002f0: 69fc c83e 16e5 8abf 999c 4540 394f 303f
00000300: 97db 153f 17a7 e43f a18d 6bc0 14f2 a5bf
00000310: 322b 20bf f29a 68be d8d5 bdbe 5480 14c0
00000320: ee61 70be ba2a b640 10b9 90bf 511d 2bbe
00000330: d704 323f 5677 c13f ec4b 443f b84e 783e
00000340: 1a1e 1840 54eb e13f f971 debe 798c d1be
00000350: 3d46 f53f c8e1 933f be84 183d 6b4a 3b3e
00000360: 07c0 ac3e 2111 24c0 8a72 39bf 760b 013f
00000370: 8039 51c0 afc3 11c1 b3ec 9640 9f1d 283e
00000380: babe f3bf 5fcb 3a3e aa4c 50bf 7e4c 79bf
00000390: 7ac2 153e f706 8540 6099 833f 95e9 943f
000003a0: 496f 98c0 b848 e5bf 544c 30c0 c9d9 18bf
000003b0: 66dc 2140 8a21 72c0 3749 58be 8c10 0d3f
000003c0: 5757 893f ac94 8cc0 9fd5 953f d3d4 373d
000003d0: 0265 b23f 4bb9 fa3e e018 283f c67f 843f
000003e0: fe1d a9bf cf6f a040 4fa0 1ac0 5a51 b0bf
000003f0: 317d bd3f 8c41 f73f cd3d 833f fda1 a23f
-0.5263777 -0.09871906 1.634163 -2.6590996 0.9769796 0.6678196 -0.49657333 -0.31275156
-4.330468 -2.4978852 3.1487713 0.43981704 0.5824299 -2.2076643 -0.022824293 0.13436294
0.5226634 -1.7069557 -2.250279 -1.9453934 -0.38416675 -2.5924902 1.7936281 -0.10420816
0.90366304 1.7638186 -0.47030082 0.73011976 0.82246155 1.2758338 -1.1320479 3.3585827
0.7801118 1.1241456 -3.0375082 -0.18085204 -1.5535485 -0.47489458 -4.0767245 0.14437592
1.5247681 -0.6730232 -1.8272415 0.016193593 0.04814424 -0.9821656 -1.5157515 -0.10341244
1.5307157 -0.23078528 -1.2055078 -2.0991945 0.28008017 1.3131974 -0.028424248 1.4353868
4.423174 0.116698176 0.05979592 3.1046267 0.015379001 -4.5518456 0.8011098 -0.38785222
0.09143894 9.103612 0.09075671 0.16216704 3.6250143 -1.153081 -0.21101506 0.017260445
-0.45866206 -1.3075756 0.19141766 0.26181987 -1.3112605 -0.6386786 1.9080933 -1.3513631
0.98106426 -2.6030686 -0.8238039 1.0069466 2.9494035 0.25014728 0.1586024 1.5520731
-0.46669513 12.05178 0.23241127 -0.13303153 2.682112 -5.634169 -0.13308272 -0.15426137
-0.6692021 -2.853083 0.15886194 -0.27517536 -0.6379673 -1.9604253 0.09913721 -0.5467694
-0.8808478 0.53351206 1.8401871 -1.9007906 1.3018038 -1.966334 0.35439992 -0.020725135
-10.129841 -0.15395652 -0.23615928 -6.623762 -0.008595598 1.5000724 -0.072872385 -0.14345784
-0.7896226 0.8605578 0.16806562 0.1105115 -0.35599828 0.6866205 0.1101206 0.30046403
0.23080245 0.58935994 -0.2296163 -0.102544904 0.4879059 0.17250301 2.2232108 3.1648076
-0.3502173 6.8944206 -13.181196 2.4314587 0.09797881 0.44138095 0.23913014 -2.1421719
0.11964945 2.6023223 1.6090927 -0.14473233 -3.9466846 0.34163505 -0.0876538 0.031677537
-0.98754025 1.5858912 -0.70448464 0.784788 0.23994172 1.1519725 -1.0989166 -0.51711845
0.7904415 -3.7950296 -2.1434414 -1.1449834 2.415312 -0.9577295 -1.4332528 7.517595
-5.673951 -1.4139371 -0.35416737 -1.8441951 -0.2178305 -8.105337 5.942346 0.011761222
2.122018 -4.9482346 -3.1542473 0.037072163 1.2064669 -2.2592351 -0.55407125 0.03750963
0.9880554 -1.3760581 -0.20815204 -0.040101618 0.39255074 -1.0851161 3.087683 0.68870884
0.5853819 1.7863492 -3.6805193 -1.2964501 -0.6256591 -0.22715357 -0.37077212 -2.3203325
-0.23474857 5.6927156 -1.1306477 -0.16710402 0.69538635 1.5114543 0.7667835 0.24248779
2.3768373 1.7649941 -0.4344633 -0.40927485 1.916206 1.1553278 0.037235968 0.18290107
0.33740255 -2.5635455 -0.724404 0.50408113 -3.2691345 -9.110274 4.716394 0.1641755
-1.904258 0.18241642 -0.8136698 -0.9738234 0.14624968 4.1571 1.0281181 1.1633784
-4.7635846 -1.7912817 -2.7546587 -0.59707314 2.529077 -3.783297 -0.21121679 0.55103374
1.0729779 -4.3931484 1.1705817 0.0448807 1.3937075 0.48969492 0.65662956 1.0351493
-1.3212278 5.0136485 -2.4160345 -1.3774827 1.480383 1.9316878 1.0253235 1.2705685

network.0.bias f4 [56]
00000000: 8d7d dcc0 2386 aac0 28f6 b0c0 0354 27bf
00000010: 69fc 84bf d894 08c1 6893 83c0 2b2f 08c1
00000020: e0e4 02c1 d55d c8c0 0dac aac0 2054 8ac0
00000030: b54e 5cbf 1d6e dac0 dad2 6940 889e 12c1
00000040: 0001 1cc1 407a 6cc1 c14f b7c0 2047 833f
00000050: 5a15 b4c0 72c4 c4bf 43ad cd3f 9cb1 6640
00000060: c78b 37c1 54af b4c0 748e 6140 e5d5 c6c0
00000070: 6bfb 83c0 35d5 4fc1 b828 55c0 bbb5 79c1
00000080: 0fe7 bdc0 b3b4 ebc0 1b79 43c1 118f 19c1
00000090: 5468 a5c0 9550 0dc0 ef25 0740 53c0 46c1
000000a0: 8b39 ecc0 4dc1 8a3f 9e0e 47c1 f22c 2ac1
000000b0: 286e 92c0 e939 86bf 05d1 4cc0 e20d a3c0
000000c0: 7da1 12c1 c692 66c0 9217 45c0 2d04 24c1
000000d0: aaa9 b03f 3b8d 99c0 3e38 79c0 9dd3 1fc1
-6.890326 -5.328874 -5.5300484 -0.65362567 -1.038953 -8.536339 -4.111744 -8.511516
-8.180878 -6.261454 -5.3335023 -4.322769 -0.860576 -6.8259416 3.6534944 -9.163704
-9.750244 -14.779846 -5.7284856 1.0256081 -5.6276064 -1.537245 1.60685 3.6045904
-11.471625 -5.6464024 3.5243196 -6.21361 -4.1244407 -12.9895525 -3.3306103 -15.606868
-5.9344554 -7.365808 -12.217067 -9.597428 -5.1689854 -2.2080433 2.1116903 -12.421954
-7.3820243 1.0840241 -12.441069 -10.635973 -4.575947 -1.0486423 -3.2002575 -5.0954447
-9.164426 -3.6027083 -3.0795636 -10.2510195 1.3801777 -4.79849 -3.8940578 -9.989163

network.2.weight f4 [56, 56]
00000000: 5937 c03e 63c2 03c0 50c2 8abf 84be b3bf
00000010: e26a d8bf 5b1c 68bf bcff 38c0 5be1 26bf
00000020: 11d5 9cbe 8cc8 46be b7e6 89be c9e9 343d
00000030: f000 cd3d 6f62 16c0 6aaa 1ec0 75d8 ccbf
00000040: 683c e2bf 1a45 11bf 820a 67bf 616c cfbf
00000050: 2bef c0bf d971 99bf 426e efbf cce7 acbf
00000060: ad71 323d 562c 52c0 041a bfbf 2f82 c3bf
00000070: ad97 0ac0 17f1 debf 97bf fbbf 8d43 d7be
00000080: f9d8 acbf 741c 10c0 8ad1 01be 9483 f2bd
00000090: 9335 d3bf 6b7e 0fc0 d17f e5bf c834 923f
000000a0: 20e2 08bf 9cb8 d4bf 54ed 9d3c dc3e 7bbe
000000b0: 690e febf e6b9 a4bf 0523 e1bf 525f 90bf
000000c0: 2e79 febf 7820 bcbf b553 9cbf 3461 d2be
000000d0: 8515 f0bf b17f 5fbe e7a7 89bf ec38 a0bf
000000e0: cc8b e2be 5c9d 5fbe 6a25 06be 281b 47be
000000f0: ef49 b6ba c247 08bf 69de 28bf 135e 8fbe
00000100: 20e1 08be 1991 fbbe 4e7c 6d3b ff1a 10bf
00000110: 383c 9bbe 6520 753d b066 23be 0fc4 1bbf
00000120: 0d60 adbe b1ab f7be 9560 f9be 8b06 f9be
00000130: a662 18bd 7130 bcbe f153 7bbe 493c 9bbe
00000140: 90ea b1be b21b 6cbe 426f 2fbe 5bdc 0c3e
00000150: d7dc 31be e48d 09bf bc6b 24be 5330 99be
00000160: 42e9 cbbe 25b4 82be 92e1 08bf 9e6b 8bbe
00000170: e3a3 02bf 6459 07bf c56b a9be b6ce 93be
00000180: e5f5 c9be d154 eabd de14 34be 1095 fabe
00000190: f9b1 24be 4ade 57be ce94 e7be 0e29 84bd
000001a0: 11d8 14bf 4811 393d be40 49be 8a78 ddbe
000001b0: 45f4 09bd f9cf afbe 3b9d 09bf 6801 a6bd
000001c0: 4e00 10bf dd4f 9bbe 6089 eabe aaae 09bf
000001d0: f31c 98be ea96 d5be 2ef7 91be 8235 ccbe
000001e0: db6b 6dbe d577 d7be 6c05 0abf 4874 37be
000001f0: 8234 dcbd 0f56 febe 5445 c4be d031 d3be
00000200: 5931 96be 5160 0cbf ef95 15be bfef f2be
00000210: 6e73 e2be 8ea5 5cbe cde4 84be 340c c8be
00000220: b046 0fbe 5f2a 82be 4051 5ebe e500 15bf
00000230: 0fc0 83be e467 8dbe 9752 40be 36fd 6cbe
00000240: 7a08 32be b085 5cbd b3cb c7be 65c2 ffbe
00000250: 4164 c4be e5d7 a8be 6ed9 b1be f5d6 1ebf
00000260: 7c2c aabe 0c4b d8be 0fce 90be 55af 51be
00000270: 2874 96be 55ed 12be cc2c 9dbe fead 8ebe
00000280: 11c0 01bf e16b aabe 7ab0 b8be 0e66 1cbe
00000290: 669d c6be 7443 f7be 8317 b4be 62f5 9ebe
000002a0: adde 70be a751 34bd 8848 0fbf 814a eebe
000002b0: 3d65 f7be 2aa3 2cbe 0c78 47be db28 a1be
000002c0: 71e5 03be 7ee2 bdbe 8202 67be 1bdb 58be
000002d0: 4eb6 f4bb 8194 50bd 9ec1 c7be 1576 28be
000002e0: 932a 38be 9e92 8dbe 3a1b 84be 2687 bcbe
000002f0: dfb6 99be 8f9a e8bd 6ef6 2cbe a4de 90be
00000300: 09a8 82be bf61 efbe 108f 62be f4a3 15bf
00000310: c946 7cbe 1e29 a7be e825 c1be 4368 5fbe
00000320: fdb4 51be 47a3 66bd 3cd9 12be 9a9d 9dbe
00000330: f311 c0be 4586 cebe b040 4abe 6886 33be
00000340: c5a6 77be 79f3 58be c3be 85be 3b47 ecbe
00000350: 444c 0dbf 3fc8 323d 56bb 19be 8564 1cbf
00000360: 240b c0be cd1b 83be 981b 0fbe a64f 3b3c
00000370: 4c85 b3be 1a61 91be 03d7 713d 5fa3 19bf
00000380: ab0c fabd 3585 cdbf ad29 e8bf 9680 e2bf
00000390: be36 ccbf cf67 d1bf 6dab 00c0 5fbc e3bf
000003a0: 331f 04c0 b986 8e3f 8b1f cabf 9252 d2bf
000003b0: 6eca 91bf 0593 f3bf 97a2 eabf 92a3 0fc0
000003c0: 90cf 21c0 1ad2 db3e 16bf 133e ec62 02c0
000003d0: c1e7 8d3f 64b2 29c0 74b6 2ac0 1fb6 5ec0
000003e0: 6908 f8bf 17ff c6bf 3958 01c0 c53d 73bf
000003f0: b154 90bf d37b 563e 5ac0 52bf 5d1a cdbf
0.37542227 -2.0587394 -1.084055 -1.4042516 -1.6907618 -0.90668267 -2.8906088 -0.65187615
-0.30631307 -0.1941244 -0.26933834 0.044168267 0.100099444 -2.349758 -2.4791512 -1.6003557
-1.7674685 -0.56746066 -0.9025041 -1.620495 -1.5072988 -1.1987869 -1.8705523 -1.3508239
0.04356544 -3.283956 -1.4929814 -1.5274104 -2.1655076 -1.7417325 -1.9667844 -0.42043725
-1.3503715 -2.2517366 -0.12677589 -0.11841503 -1.6500725 -2.242091 -1.7929631 1.1422358
-0.5347004 -1.6618838 0.019278206 -0.24535698 -1.9848148 -1.2869232 -1.7588812 -1.127909
-1.9880731 -1.4697409 -1.2213045 -0.41089785 -1.8756567 -0.21826054 -1.0754365 -1.2517371
-0.44247282 -0.21837372 -0.1310021 -0.19443953 -0.0013907532 -0.53234494 -0.6596437 -0.2800146
-0.13367128 -0.49134138 0.0036237421 -0.5629119 -0.3031938 0.059845347 -0.15957141 -0.60846037
-0.33862343 -0.48373178 -0.487065 -0.48637804 -0.037203453 -0.36755708 -0.2454374 -0.3031943
-0.3474927 -0.2305744 -0.17132285 0.13755934 -0.173694 -0.5373213 -0.16056722 -0.2991968
-0.398264 -0.25528064 -0.53469193 -0.27230543 -0.5103132 -0.52870774 -0.33090034 -0.28868645
-0.39445415 -0.11441959 -0.17586085 -0.4894185 -0.16083516 -0.2108089 -0.45230716 -0.06453143
-0.5814219 0.045182496 -0.19653603 -0.43256027 -0.03368022 -0.34338358 -0.5375554 -0.08105737
-0.56250465 -0.30334368 -0.45807934 -0.5378214 -0.29709587 -0.417167 -0.28508896 -0.39884573
-0.23185675 -0.42083612 -0.53914523 -0.17915452 -0.107522026 -0.49675032 -0.38334143 -0.4124894
-0.29334524 -0.5483447 -0.14607976 -0.47448537 -0.4422869 -0.21547529 -0.2595581 -0.3907181
-0.13991809 -0.25422952 -0.21710682 -0.5820449 -0.25732467 -0.27618325 -0.18781506 -0.23143467
-0.17386046 -0.05383843 -0.39022598 -0.49953 -0.38357738 -0.32977214 -0.34736198 -0.6204675
-0.33237064 -0.42244756 -0.2828221 -0.2047704 -0.29385495 -0.14348347 -0.3069824 -0.2786712
-0.50683695 -0.3328543 -0.3607214 -0.15273306 -0.3879196 -0.4829365 -0.35174188 -0.31046587
-0.23522444 -0.044023182 -0.5597005 -0.46541217 -0.48319426 -0.16859117 -0.19479388 -0.31476483
-0.12880494 -0.37086862 -0.2255955 -0.21177332 -0.0074680215 -0.050922874 -0.39014906 -0.16451295
-0.17984991 -0.27650923 -0.25802022 -0.3682186 -0.30022332 -0.11357605 -0.1689088 -0.2829486
-0.25518826 -0.46754262 -0.22124887 -0.584533 -0.24636377 -0.32648557 -0.37724233 -0.21817116
-0.20479198 -0.056308057 -0.14340681 -0.30784303 -0.37513694 -0.40336815 -0.19751239 -0.1753174
-0.24184711 -0.21186627 -0.26122102 -0.46148095 -0.551945 0.043648 -0.15012869 -0.6109088
-0.375085 -0.25607148 -0.1397537 0.011432564 -0.35062635 -0.28394395 0.05904294 -0.6001491
-0.122094475 -1.6056277 -1.8137718 -1.7695491 -1.5954206 -1.6359805 -2.010463 -1.7791861
-2.0644042 1.1134864 -1.5790876 -1.6431448 -1.1389902 -1.9029242 -1.8330868 -2.2443585
-2.5282936 0.42933732 0.14428362 -2.0372877 1.1086351 -2.651513 -2.667386 -3.4798658
-1.9377567 -1.5546597 -2.0210097 -0.9501613 -1.1275846 0.20945673 -0.82324755 -1.602367

network.2.bias f4 [56]
00000000: 2af4 1ec0 3635 a5be 1193 a6be c93f 9cbe
00000010: fbd5 51c0 8b0c c2be afdc acbe e837 45be
00000020: 03ce b5be d4ca aabe 7ec9 b6be 3cc9 a5be
00000030: c4f8 7abe 5398 39be 2e50 a3be da6f 5dbe
00000040: 353d acbe 4752 abbe 6461 a7be 2f95 1cbe
00000050: 7696 3fbe 55b3 b6be d56a 98be 8bd0 20be
00000060: c352 a4be 301d 31c0 521a bcbe d4e2 e5be
00000070: dc59 93be 1b30 9bbe 38b2 d4be 31dc d1be
00000080: 4999 88be d216 85be 5687 7fbe e056 afbe
00000090: 2326 d1be 08f0 02bf a834 eabe c0f0 66bf
000000a0: 5dae 0341 76d5 00bf 5c90 57be 07d4 26bf
000000b0: c452 1ebf c828 52be 33f5 aebe e736 3fc0
000000c0: 9f20 37c0 7acc 4cbe 5f17 55be 1d0f 30bf
000000d0: 5f17 b3be 5740 a040 73df bfbe 743d 94be
-2.4836526 -0.3226716 -0.32534078 -0.30517414 -3.2786853 -0.37900195 -0.33762118 -0.19259608
-0.35508737 -0.3335787 -0.357006 -0.32380092 -0.24508959 -0.18124513 -0.3189711 -0.21624699
-0.33640447 -0.3346121 -0.3269149 -0.15291284 -0.1870974 -0.35683694 -0.29769006 -0.15704553
-0.32094392 -2.7674065 -0.3673883 -0.4489962 -0.28779495 -0.3031014 -0.4154222 -0.40988305
-0.26679447 -0.25993973 -0.2495397 -0.34245968 -0.40849409 -0.5114751 -0.457433 -0.90211105
8.230069 -0.50325716 -0.21051162 -0.6516728 -0.6184504 -0.2052337 -0.34171447 -2.987726
-2.861366 -0.19999877 -0.20809697 -0.6877306 -0.34978768 5.007854 -0.37475166 -0.28953135

network.4.weight f4 [28, 56]
00000000: 536c d2bd 449a 963e b802 0e3f 59d1 223e
00000010: 9a0b afbe 5bcf afbe a60f ce3d f099 b5be
00000020: 3e4a 933e c212 86be 4a23 5bbd 3afa 0fbf
00000030: 6cc6 be3e d301 4fbd 3046 e6be b490 793d
00000040: 5453 76be 2add 0d3f 3d4d 3ebe 7f93 993e
00000050: d7b3 383e 8ff5 9d3d 9db5 dbbd c848 a0be
00000060: a805 6abe f17a 98bf 5808 ea3d f335 debe
00000070: c3aa 043f cf1e e7bc 82ce 83bd b4f8 adbe
00000080: d0cc c6be e41a d9be 6563 e7bd 885e 703e
00000090: 4e0d e1be 0291 8c3c a4e7 eebd 453a 9a3e
000000a0: 733b d3be daa0 04bf 9589 89be cb4e 0ebf
000000b0: f5ab 71be 36c9 91be bf70 82be 1517 a5be
000000c0: 5127 14bd 10d8 723e 36a8 b83b 0536 a7be
000000d0: ae79 41be 357f 47bf 7288 70be 8e1f 14bd
000000e0: 8a2b 34be defb 033e 3641 c3be 70eb d93d
000000f0: 4001 abbe 8395 a83e 7041 f43c a729 1f3e
00000100: 3dfc 9f3c 0862 823e 7bc0 abbd 7f40 833e
00000110: 47db 4ebe f2c5 9bbd e2a6 9dbd f187 c33c
00000120: 9928 da3e 8ad1 00bf 5dce 9f3c 0ad3 0fbe
00000130: 87bb 6f3e 1748 b8bd 4290 cb3d f10c 893d
00000140: d343 153d 7304 b43d 678c 75be 25f5 a8bf
00000150: 770d a03d 54e5 873d bfef 7a3e 8307 b53c
00000160: 6008 96bd df30 ff3d 41d1 763c 5fa6 34bd
00000170: 8180 90be abfb 0fbe c0ae 613e ec79 2dbe
00000180: e62f d0bf 800d 973e ac6c 07be 5305 b2be
00000190: 1d39 453e a225 ddbe 6a81 813e 87eb cb3f
000001a0: 4f9c b3be b220 bcbe b442 eebd 3f0e f7bc
000001b0: d617 abbd 22ac a9bf 5f5a 54be 3054 8ebd
000001c0: 50a9 f13e 9114 8cbe f448 8abd 5764 45be
000001d0: d99e edbe a3a8 e9bd 21cd c9bd c302 91be
000001e0: 6d2a 86be 95cb 17bf 9d52 8fbe b036 a73e
000001f0: 745b 27bf d020 93be d507 00be 2c3b abbe
00000200: 1c79 6a3b 2fc1 cfbd 9265 adbe da17 1dbe
00000210: 7177 a2be d286 94be 4562 733d 9bd6 803c
00000220: 828a 16bc 0cbe ffbe d9ce dabe 203c ccbe
00000230: fee2 00bf 5e17 b8be c360 f63e 2a42 803d
00000240: 9716 913d 39b2 1bbf 9042 c4be 3f08 98be
00000250: d525 ebbe 489d 9bbe 0437 b9be 4730 e8bd
00000260: 0ab9 f1be 3d0b 4c3e 9c6e 86bd 0686 99be
00000270: c7c4 07bc 9bec af3c 417e 753d f42d 88bd
00000280: 3787 dfbe 5b9a 0cbe 6218 babe ef03 d1be
00000290: b0df 37bd a8de 9ebe 7ee1 47bc 2279 a1be
000002a0: 26ad 0abf f2c3 cabd dd74 b83e 6be1 6abd
000002b0: 313b a3be 4414 a9bc 44da aebe 54a7 a73d
000002c0: a145 1cbe 3426 edbe 0b1b 9ebd 9e9f a5bd
000002d0: 9fd5 ec3c 99bf 89be 1b0e 78bd be0f 4c3d
000002e0: da77 b8be 841c 913d 3e7c a93a fe0f 85be
000002f0: 09e1 0e3d b320 debe 5b07 ccbe 40bd b13d
00000300: 19c3 7fbe 73bd ccbe 3cc9 afbe 5ab2 99bf
00000310: 5773 25be 6616 b4bd 605b fabe 9b78 14be
00000320: ab71 4abd 130a c9bd 3e87 a0be 236d 64be
00000330: 329b 61bd 7c5a 4abe ff93 23be df07 c23d
00000340: c110 a9be f268 10bd b1d1 6a3d 2dce 82bc
00000350: 6c9d a0be c51b a5be 54ad 0dbf 6d02 01be
00000360: 2142 be3e 02e8 5d3e f7bf ef3d b399 99be
00000370: 7cc5 d1be 0315 1bbf 61a5 f33d 7cc5 acbc
00000380: 1539 73bd 699d 1fbd 25db f83e 17c7 38be
00000390: 7bec babf a631 693e ca24 813e 041e 80bd
000003a0: ca74 153d b0fc 2a3d 517e c63e e80a 7a3d
000003b0: 3b90 63be 4f66 893c 1020 713e 20c2 dd3d
000003c0: b643 c2be 83c7 8a3e 1ae4 ab3c ae68 36be
000003d0: 3f53 023d cea8 833e f251 71bd 22e4 283e
000003e0: 4664 3e3e cca0 53be 6ecf 743d 0ce8 eebb
000003f0: 8845 3a3d 498d 3a3e 78b1 87bd f482 183e
-0.102745675 0.2941457 0.554729 0.15900172 -0.3418854 -0.34337887 0.100615785 -0.35469007
0.2876758 -0.26186186 -0.05350045 -0.5624119 0.3726076 -0.05053885 -0.44975424 0.060929015
-0.24055225 0.55415595 -0.18584152 0.29995343 0.18037353 0.07712852 -0.10727999 -0.31305528
-0.2285372 -1.1912519 0.11427373 -0.43400535 0.5182306 -0.028212933 -0.064358726 -0.33978808
-0.38828135 -0.42403328 -0.11298255 0.23473561 -0.43955463 0.017158989 -0.11665276 0.3012258
-0.41256294 -0.5180794 -0.2686278 -0.5558898 -0.23600753 -0.28473824 -0.25476643 -0.32244173
-0.036170308 0.23715234 0.0056352867 -0.326584 -0.18894073 -0.7792848 -0.2348955 -0.036162905
-0.17594734 0.12889048 -0.3813569 0.10640609 -0.3339939 0.32926568 0.02981636 0.15543233
0.019529456 0.25465417 -0.08386322 0.25635144 -0.20200835 -0.076061144 -0.07697846 0.023868533
0.426091 -0.5031973 0.019507581 -0.14045349 0.2341138 -0.08998125 0.09939624 0.066919215
0.036441635 0.08789911 -0.2397934 -1.3199812 0.07815068 0.06635538 0.24505518 0.022098308
-0.07325816 0.12460493 0.015064538 -0.044103976 -0.2822304 -0.14060847 0.22039318 -0.16941041
-1.6264617 0.29502487 -0.13225049 -0.34769687 0.19260068 -0.43192774 0.25294048 1.5931252
-0.35080191 -0.36743695 -0.11633816 -0.03015816 -0.08354156 -1.3255656 -0.20737599 -0.06949651
0.47199488 -0.2735944 -0.06752196 -0.19276558 -0.46410254 -0.11409118 -0.09853578 -0.2832242
-0.26204243 -0.59295017 -0.27992716 0.3265891 -0.6537392 -0.2873597 -0.12502988 -0.33443582
0.0035777753 -0.10144269 -0.33866554 -0.1534113 -0.31731752 -0.2900911 0.05941989 0.015727332
-0.009188296 -0.49949682 -0.42735937 -0.39889622 -0.5034636 -0.35955328 0.48120698 0.0626262
0.07084387 -0.6081882 -0.38332033 -0.2969379 -0.459273 -0.30393434 -0.36174786 -0.11337333
-0.47211486 0.19926162 -0.06564066 -0.29985064 -0.0082866615 0.021475127 0.05993486 -0.0664939
-0.43657848 -0.13730757 -0.36346728 -0.40823314 -0.04489106 -0.31029248 -0.012199758 -0.3153773
-0.54170454 -0.09900655 0.3602666 -0.05734388 -0.31881097 -0.020639546 -0.34150898 0.08186212
-0.15260936 -0.4631821 -0.07720002 -0.08087085 0.028910456 -0.2690399 -0.060560327 0.0498197
-0.3602894 0.07085517 0.0012930704 -0.25988764 0.03488258 -0.43384323 -0.39849362 0.08678675
-0.24976768 -0.39988288 -0.34333217 -1.2007554 -0.1615728 -0.08793335 -0.4889784 -0.14499132
-0.04942481 -0.09816375 -0.31353182 -0.22307257 -0.055079646 -0.1976108 -0.15974425 0.094741575
-0.33020595 -0.035256334 0.057328884 -0.015967453 -0.31370103 -0.3224775 -0.553426 -0.12598582
0.37159827 0.21670535 0.11706536 -0.30000076 -0.4097098 -0.60578936 0.11896778 -0.021090262
-0.05938061 -0.038968477 0.48604694 -0.18044697 -1.4603418 0.22772846 0.2522338 -0.06255725
0.03648833 0.041744888 0.38768247 0.061045557 -0.22222988 0.016772417 0.23547387 0.10828042
-0.37942284 0.2710534 0.02098279 -0.1781337 0.03181767 0.25714725 -0.05891604 0.16493276
0.18592939 -0.20666808 0.059768133 -0.0072908457 0.045476466 0.18217959 -0.06625646 0.14893705

network.4.bias f4 [28]
00000000: e84f 8ebe b171 43bf 8a1a 5cbe 1d46 bfbe
00000010: 34a7 b6bd 8b36 03c0 142d 0bc0 65be 50be
00000020: c751 afbe fab4 acbe 7b1f 39be 7e24 4bbe
00000030: 1f9c b0bf cc82 0541 e9e7 2fbf 3675 94be
00000040: f9cc 9bbe 6abf 72be 680f a0be ee67 1ec0
00000050: cbd6 55be 910b 39bf f6d4 9bbf c847 d0be
00000060: df22 70bf 4dbd 99be 3e44 87be d507 17bf
-0.2779534 -0.76345354 -0.21494499 -0.3735818 -0.0891861 -2.050204 -2.1746264 -0.2038513
-0.3424208 -0.33731824 -0.18078415 -0.1983814 -1.3797644 8.344433 -0.6871324 -0.28995675
-0.3042982 -0.23705831 -0.31261754 -2.4750934 -0.20882718 -0.72283274 -1.2174366 -0.40679765
-0.9380321 -0.30027238 -0.26419252 -0.58996326

network.6.weight f4 [1, 28]
00000000: 8935 913e 67a7 b03f c0a3 81bc bfdc afbd
00000010: 63bc 8bbe 2393 dfbf 5fdd 8dbf cbb6 2b3e
00000020: cc3f 903e f6f2 a3bd c706 d13e 1122 81bd
00000030: 017a 9d3f 56f9 4ebe efdd 5e3e 4eb2 283e
00000040: 61fd 91bd ea95 46bd 754e 11be a95a 69be
00000050: fcfb 3f3e 386f 8d3f b7ab b4bf 8819 c73f
00000060: e2da aabf 15b3 313e 3ef9 203b 2b37 0bbf
0.28361157 1.3801087 -0.015825152 -0.08587026 -0.27292165 -1.7466778 -1.1083182 0.16768949
0.28173673 -0.080053255 0.40825483 -0.06305326 1.2302858 -0.20212302 0.21764348 0.16474268
-0.07128406 -0.048482813 -0.14190085 -0.2278849 0.18748468 1.1049566 -1.4114903 1.5554667
-1.3348048 0.1735347 0.0024562622 -0.54381055
