HPC/Major_project/logistic_regression/models/exp1/6.pth (torch, 4895 bytes, 3 tensors)

network.0.weight f4 [28, 28]
-0.9916933 2.7394295 -0.19905372 -1.1406257 -0.16021672 0.096041046 -3.1846805 -0.06100642
1.7644699 -3.4129207 1.2480779 -0.19646695 0.5843682 -1.6467377 0.0068011964 0.13782507
0.40992764 -1.581261 0.66179395 -0.0028485078 0.65606874 -1.0241787 1.162797 -0.37152246
0.025813967 1.4883697 -2.3906512 -0.90578055 0.4937672 0.24830574 -0.13175733 0.21270888
0.04519588 1.8201672 0.3123809 0.025817994 -0.42953178 1.1069877 -0.45587286 -0.04333252
0.66700697 0.84866947 -0.28936702 -0.65847206 0.9782193 0.7547493 -0.5171577 -0.12367375
0.47091648 -1.125824 0.68806976 -0.48113644 0.4421986 -2.5127323 2.4705315 -2.6872942
0.55528635 0.05637652 -0.011707644 0.24477951 -0.08007212 -0.008428659 0.07298853 -0.017564628
0.57232165 0.14543219 0.05479661 -0.061389163 0.5372749 0.05280423 0.061600856 0.08412382
0.67252207 0.013356848 -0.08544522 -0.089925446 0.37603524 -0.43659583 0.5986845 -0.59997874
0.31469268 -11.86265 0.116573475 -0.29050377 0.71625835 -0.032319676 -0.01868469 0.62254494
-0.14172684 0.6354568 -0.022972085 -0.0036915173 0.4871374 0.06567044 -0.06278993 0.13602906
0.31035492 0.15030026 -0.0061092265 0.1554767 0.23512429 0.42642236 0.026660066 0.18225183
0.30284375 -0.6792621 1.5629582 -0.13313723 0.19650215 0.2849482 2.7863111 -11.407477
-4.411879 -0.08158843 -0.088324584 -2.423895 -0.3258369 -0.303486 -0.30201688 -0.0035960397
-0.9791273 1.544169 0.052232828 -0.1907367 0.19902736 1.1168513 -0.0029275883 0.089910485
0.41709316 0.64820886 -0.007586412 -0.020391833 0.2890174 -1.3833241 2.439724 1.5433029
1.4361885 1.9755888 -6.4264617 0.88841003 0.24078554 0.11958754 -0.04264267 0.1426896
-0.1708929 -0.052027207 -0.17569092 -0.009128237 0.016736245 0.11615814 -0.019681467 -0.095253885
0.06078629 -0.13719389 0.19133037 -0.13760844 0.27034461 -0.18535444 0.00028716866 -0.02911922
0.41673297 5.315545 -11.863862 -0.58818287 -0.44751853 1.2646359 -3.3024025 0.08658095
0.83357584 -0.117052644 0.018771991 0.43041512 0.16748318 -0.31519386 0.12442876 0.21656787
-0.03230641 0.3890064 0.1946854 -0.4009566 -0.12807165 0.22871548 -0.2912113 -0.055589173
-0.29610097 0.06360317 -0.08349662 -0.34516236 -0.30693695 0.18299888 -0.102109626 -0.8225983
1.1375353 -11.081628 -0.18017921 0.032732 2.1282833 1.5224261 -0.47013587 0.5377024
0.2713999 0.48015293 -4.8859215 0.62589276 0.69747907 -0.049088717 0.48114035 0.30226988
1.3372508 0.59992707 0.90562725 0.27061373 0.30748332 -0.13835019 -0.17850581 0.11349813
0.4228516 -0.38958067 -1.17943 -0.6346904 -0.70969546 -0.07516777 -1.547064 1.6574963
1.8366641 0.39947438 0.107716784 0.5589605 -0.09000121 -1.3014882 0.4026119 -0.008265643
0.35251427 -0.6662308 0.10962612 -0.00023542903 -0.020564206 0.24406166 -0.10158305 0.11773054
-0.43411574 0.44480285 -0.11238672 -0.21630268 0.8614928 -0.39485455 -2.840329 -0.38004366
0.5566833 2.7772548 2.433977 -2.2314544 -2.1805387 -0.36825323 -0.20916094 -1.4556154
00000000: 9ddf 7dbf d052 2f40 bdd4 4bbe 0600 92bf
00000010: da0f 24be 2bb1 c43d ced1 4bc0 dee1 79bd
00000020: 26da e13f 4b6d 5ac0 04c1 9f3f a22e 49be
00000030: 2899 153f 4dc8 d2bf 92dc de3b 0422 0d3e
00000040: 09e2 d13e c366 cabf 546b 293f 08ae 3abb
00000050: 1ff4 273f 4a18 83bf 88d6 943f 3138 bebe
00000060: d077 d33c e682 be3f 6e00 19c0 3ce1 67bf
00000070: 0ecf fc3e dc43 7e3e 65eb 06be 5bd0 593e
00000080: 511f 393d 3dfb e83f 64f0 9f3e 4280 d33c
00000090: 97eb dbbe c6b1 8d3f 2b68 e9be 717d 31bd
000000a0: f8c0 2a3f 6742 593f ea27 94be a091 28bf
000000b0: 946c 7a3f 4037 413f 7264 04bf aa48 fdbd
000000c0: f71b f13e 001b 90bf 5725 303f 8457 f6be
000000d0: db67 e23e 9bd0 20c0 301d 1e40 a1fc 2bc0
000000e0: 3f27 0e3f 11eb 663d 6bd1 3fbc 7ba7 7a3e
000000f0: dafc a3bd 5c18 0abc 037b 953d b2e3 8fbc
00000100: ac83 123f 2dec 143e 6972 603d 3473 7bbd
00000110: d98a 093f 4049 583d 2e51 7c3d 1c49 ac3d
00000120: 682a 2c3f aed6 5a3c e7fd aebd d52a b8bd
00000130: b187 c03e 7d89 dfbe 6343 193f 3598 19bf
00000140: 661f a13e 6acd 3dc1 13be ee3d e9bc 94be
00000150: b55c 373f a361 04bd a310 99bc 1b5f 1f3f
00000160: d720 11be 4cad 223f f42f bcbc 62ed 71bb
00000170: 136a f93e 397e 863d 0298 80bd 344b 0b3e
00000180: d7e6 9e3e 50e8 193e e82f c8bb 4935 1f3e
00000190: 6cc4 703e 0854 da3e 3666 da3c 39a0 3a3e
000001a0: 560e 9b3e 1fe4 2dbf 040f c83f 2055 08be
000001b0: dc37 493e bbe4 913e ec52 3240 0785 36c1
000001c0: 1d2e 8dc0 d617 a7bd 85e3 b4bd 1821 1bc0
000001d0: 18d4 a6be 8462 9bbe f5a1 9abe 89ab 6bbb
000001e0: 16a8 7abf 54a7 c53f 17f2 553d 7b50 43be
000001f0: d4cd 4b3e fcf4 8e3f c8dc 3fbb fd22 b83d
00000200: 3c8d d53e 04f1 253f 7097 f8bb c60c a7bc
00000210: 17fa 933e c410 b1bf 7024 1c40 f38a c53f
00000220: 06d5 b73f 18e0 fc3f 93a5 cdc0 d76e 633f
00000230: 7c90 763e 50ea f43d 15aa 2ebd 391d 123e
00000240: 8cfe 2ebe 7b1a 55bd 52e8 33be 9a8e 15bc
00000250: 731a 893c 52e4 ed3d 073b a1bc 7814 c3bd
00000260: 0bfb 783d 8e7c 0cbe 1cec 433e 3ae9 0cbe
00000270: 9c6a 8a3e 8ecd 3dbe 208f 9639 6e8b eebc
00000280: 065e d53e f218 aa40 61d2 3dc1 2793 16bf
00000290: 2621 e5be 97df a13f 905a 53c0 5a51 b13d
000002a0: 3a65 553f 4cb9 efbd b8c7 993c 5f5f dc3e
000002b0: b680 2b3e 1761 a1be 81d4 fe3d f8c3 5d3e
000002c0: ba53 04bd d92b c73e 9c5b 473e 2f4a cdbe
000002d0: 3725 03be 6434 6a3e a619 95be 79b1 63bd
000002e0: 8c9a 97be 6142 823d 4700 abbd 1fb9 b0be
000002f0: d726 9dbe 0f64 3b3e da1e d1bd cd95 52bf
00000300: c29a 913f 594e 31c1 e680 38be fd11 063d
00000310: cb35 0840 dcde c23f a6b5 f0be dda6 093f
00000320: edf4 8a3e 9bd6 f53e 7859 9cc0 823a 203f
00000330: fd8d 323f 4011 49bd 0758 f63e 1ec3 9a3e
00000340: 092b ab3f d294 193f 30d7 673f e28d 8a3e
00000350: 746e 9d3e acab 0dbe 3aca 36be b571 e83d
00000360: 0180 d83e 1e77 c7be 90f7 96bf 127b 22bf
00000370: 9aae 35bf 8ff1 99bd 3106 c6bf d728 d43f
00000380: cf17 eb3f e887 cc3e 9e9a dc3d 0918 0f3f
00000390: 8e52 b8bd 2a97 a6bf 2623 ce3e 9f6c 07bc
000003a0: c07c b43e 1a8e 2abf a983 e03d 80dd 76b9
000003b0: 4476 a8bc 4deb 793e c60a d0bd b61c f13d
000003c0: 6b44 debe 33bd e33e 022b e6bd 737e 5dbe
000003d0: cb8a 5c3f 602a cabe f3c7 35c0 1595 c2be
000003e0: cc82 0e3f 8bbe 3140 47c6 1b40 26d0 0ec0
000003f0: f28d 0bc0 b08b bcbe 492e 56be 9b51 babf

network.0.bias f4 [28]
-11.50295 -5.1516085 -3.6420245 1.6806626 -1.6304607 -4.033977 -10.597622 -12.773505
-10.728043 -6.4851837 -4.18507 -1.1420703 -3.4992764 -7.986829 -4.448051 -8.215237
-5.3490634 -5.605353 -7.719557 -7.1747465 -1.173658 -2.9590175 -11.0253935 -7.343677
1.9503603 -4.838439 -2.730865 -6.5262146
00000000: 150c 38c1 fad9 a4c0 ee16 69c0 f41f d73f
00000010: f0b2 d0bf 5716 81c0 dc8f 29c1 4760 4cc1
00000020: 10a6 2bc1 a086 cfc0 18ec 85c0 5c2f 92bf
00000030: 25f4 5fc0 1a94 ffc0 6f56 8ec0 9c71 03c1
00000040: 872b abc0 0d5f b3c0 9c06 f7c0 8697 e5c0
00000050: 6d3a 96bf 8b60 3dc0 0368 30c1 67ff eac0
00000060: 68a5 f93f 7ed4 9ac0 7ec6 2ec0 c0d6 d0c0

network.2.weight f4 [1, 28]
0.13071805 0.1649614 -0.24220452 0.20237981 0.104043044 0.2164388 0.2819955 0.0808627
0.1081797 -0.15493555 -0.20954984 0.103294596 -0.016781183 0.11466144 0.20709328 -0.09118163
0.34374997 -0.045081016 0.14661679 -0.14719076 -0.27394912 -0.119033165 -0.18039177 -0.10169781
-0.18295892 0.42493656 -0.09740965 -0.16001011
00000000: f4da 053e a4eb 283e 7604 78be a73c 4f3e
00000010: 8514 d53d 22a2 5d3e b761 903e 589b a53d
00000020: 528d dd3d 6da7 1ebe 3c94 56be 1e8c d33d
00000030: b178 89bc 9ed3 ea3d 4310 543e 6fbd babd
00000040: ffff af3e dfa6 38bd b622 163e 2db9 16be
00000050: 0f43 8cbe a9c7 f3bd 9fb8 38be f146 d0bd
00000060: 9559 3bbe 4991 d93e b67e c7bd b1d9 23be
