HPC/Major_project/logistic_regression/models/exp1/60.pth (torch, 28367 bytes, 7 tensors)

network.0.weight f4 [56, 28]
00000000: b45f 00be 2a8d cfbf 93d8 c43f bcc7 463f
00000010: a20b ecbd 338e e23e 161e 1a3f 86b4 a7bf
00000020: 34f2 04c1 4ee8 dfc0 4a36 e6bf 7416 a53e
00000030: 4d31 7d40 7752 2ac0 ee38 1940 8ea1 e5bd
00000040: 38f2 923f 7f27 2ac0 a1fb 3d3f db2a 73bf
00000050: 56b7 263e 4c0d 78c0 0005 d73d 89e4 0cc0
00000060: dbfd b040 8f66 f240 7489 25c1 157b fb40
00000070: 2849 7040 a3e6 c940 0134 233f 6fd2 2940
00000080: b2df 09be 04d5 5abf 5544 5e3f 91ef ae3e
00000090: 1003 a93f 69d4 8640 983f 58c1 2212 9d3e
000000a0: b719 84c0 f91a a53f 380b 853f 223c a73e
000000b0: 27fb a43c 556e eebd 3a2c 4f3f 3481 2b3d
000000c0: dace 983e fcef 9f3f 79da 04c0 4b5f a8bf
000000d0: 674d 9d3f 56cb 34c0 97ef cf3e f156 7f3f
000000e0: 96bc 0541 3dab 63c0 cc1e 92be b14b d740
000000f0: 6bad 8fbe 03c1 3ec1 ee85 fe3e fa71 a53b
00000100: 0bb7 80bf 04d6 4d41 823a 6640 3e7f 673e
00000110: ed73 9140 632b 7ec0 9fff 933e 56ee 093e
00000120: 1ad9 4fbc 96e4 05c0 ab96 65bf e4a8 033d
00000130: f597 4cbf 4944 60bf 030a 0140 352e 80c0
00000140: 985b 2240 b262 a0bf eab2 cebe 3a3b 0640
00000150: 8e50 b740 52b6 fcbf 8ea4 40bd 55d7 7f40
00000160: 6e14 efbe afd9 9941 1fa1 4740 58aa 3a3d
00000170: 6705 8c40 0458 f8c0 1d44 ccbf c148 183f
00000180: 1fb4 7b3f 4d6d 8ac0 4343 b03e a1a9 583e
00000190: a6da 17be a9bb 67c0 bbb6 343e 6c7b 91bd
000001a0: 1e8e 813c f72a 983e 6235 0640 7e21 55c0
000001b0: 626b cf3f 8da0 08c0 30d7 41c0 b31d 3840
000001c0: f813 6cc1 c0c5 d1bf 166a bb3c 5ecb 11c1
000001d0: c0f7 c3bd 99e5 7a3f 0152 2b3e 7b4b 94bb
000001e0: a45d 96bf f6e5 473f ccd8 0e3f 92aa 36be
000001f0: c6cb 823d 5a0f 7f3e 8533 373e c92c 583e
00000200: e10c 513f 12fc db3d 1fb4 253e 7f85 bdbd
00000210: a30e 8e3f 03b2 0c40 7b42 ee3f 190f a340
00000220: afbd 5dbf 9541 5841 99ef c3c1 cea9 6440
00000230: 1fdc 503f 972c a33c fc21 3d3e 37c6 0bc0
00000240: 05ab a3bf c86f cb40 d77b eb3f e1b2 403e
00000250: a0d3 85c0 e27e a740 ae82 5ebf a699 0f3f
00000260: 8cba dfbe 47c7 9a40 6655 2c3e 3f11 a43f
00000270: 2289 f93f 7cee ce3f 3e27 cfbf 0de4 84bd
00000280: c60d debf cadb b7c0 8f3e e5be 907c 1fc0
00000290: bb18 0941 ccbd eac0 5024 4cc0 ee20 eb40
000002a0: 4d37 08c1 7683 c4bf c25a cdbe dee0 39c0
000002b0: dee1 77be 6ccf 45c1 2a41 3141 a74e 29bc
000002c0: ceec 1040 7458 00c1 f2bd ccc0 b305 60bc
000002d0: 49c7 bc3f 2adb 7dc0 d05c 96bf c2e5 25be
000002e0: efc4 5c3f 8f6d 35c0 6c59 63bf a624 303e
000002f0: b9f5 4c3f 0625 84bf 168f ba40 0bd3 c13f
00000300: cad8 c83e 4a48 5340 b02a b2c0 9e11 19c0
00000310: ee46 703f 79cc ee3e 255c 4dbe 82b8 e03f
00000320: e6ac 66be 2463 2f41 9b5f 183e 955e 3d3f
00000330: dc11 3b40 4a9f 5340 eca8 82bf b312 d03e
00000340: b575 3640 9dbf 1740 af44 823e 1be8 3ebf
00000350: f928 3440 82f7 7540 2e6b f7be b1b3 aa3e
00000360: c9d8 1340 11b4 e1bf 5abb 8c3d e5d1 4abe
00000370: 57e1 91c0 f68d 68c1 5a2a d240 22df 1fc0
00000380: f3f0 22c0 d07a 5d3d bffa 003c 8a71 f4bf
00000390: 7909 c63e 7f50 1541 ca0a ee3e 8bd7 0dbc
000003a0: 0134 d4c0 fc29 7fbf 951b 53c0 05f6 9cbd
000003b0: 14cb 2440 a790 0cc1 5e57 a93e 6ce3 41bf
000003c0: 97cb 2cbd 8503 00c1 3b51 6a3e 7f3d c73d
000003d0: dd0b 22bf 808b 5340 4f56 b2bf c7cd 8f3f
000003e0: ed9d d8bf ea9f e940 b1c4 b2c0 4d7c fabc
000003f0: 9a36 6340 74a7 d23d 644d ddbe 4e6e 7840
-0.12536508 -1.6214955 1.5378593 0.7764852 -0.11525656 0.44249114 0.6020216 -1.3101966
-8.309132 -6.9971075 -1.7985318 0.32243693 3.956134 -2.6612833 2.3940997 -0.11212455
1.1480169 -2.6586607 0.7421208 -0.9498727 0.16280875 -3.8758116 0.104990005 -2.2014487
5.530988 7.5750194 -10.346058 7.8587747 3.754465 6.309404 0.63751227 2.6534688
-0.13464239 -0.85481286 0.86823016 0.3416715 1.320406 4.213429 -13.515526 0.30677897
-4.128139 1.2898856 1.0394049 0.32663065 0.02013929 -0.11642138 0.8092686 0.041871265
0.29845315 1.2495112 -2.0758345 -1.3154081 1.2289246 -2.8249106 0.4061248 0.9974204
8.3585415 -3.5573266 -0.2853912 6.7279897 -0.28061995 -11.922122 0.49711555 0.0050489875
-1.005586 12.86475 3.597321 0.22607133 4.545401 -3.971398 0.2890596 0.13469824
-0.012686038 -2.0920768 -0.89683026 0.03214349 -0.7991937 -0.87604195 2.016236 -4.0056405
2.5368404 -1.253012 -0.40370876 2.097365 5.7285833 -1.974314 -0.04703193 3.9975178
-0.46695274 19.23129 3.119209 0.04557261 4.3756595 -7.760744 -1.5958287 0.59486014
0.9832172 -4.3258424 0.34426317 0.21158458 -0.14829502 -3.6208289 0.17647831 -0.07103619
0.015814837 0.2972028 2.0970082 -3.3301692 1.6204646 -2.1347992 -3.028759 2.8768127
-14.754875 -1.6388474 0.022877734 -9.11215 -0.09568739 0.9800659 0.16730501 -0.0045255995
-1.1747327 0.7808527 0.55799556 -0.17838505 0.06386523 0.249082 0.17890747 0.21110834
0.81660277 0.10741438 0.16181992 -0.09253978 1.1098217 2.198365 1.8614038 5.095593
-0.8661756 13.516011 -24.491991 3.572864 0.8158588 0.019918723 0.18469995 -2.183973
-1.2786566 6.357395 1.8397168 0.18818237 -4.182083 5.2342386 -0.8691815 0.56093824
-0.4369701 4.836826 0.16829452 1.2817763 1.9494975 1.616653 -1.6183851 -0.0648881
-1.7347953 -5.7455797 -0.4477429 -2.4919777 8.568538 -7.3356686 -3.1897163 7.3477697
-8.513501 -1.5352619 -0.40108305 -2.9043498 -0.24207255 -12.36314 11.078409 -0.010333694
2.2644534 -8.021595 -6.3981867 -0.013673234 1.4748317 -3.9665017 -1.1747074 -0.16200927
0.86237997 -2.834812 -0.8880832 0.1720148 0.80062443 -1.0323799 5.8299665 1.514253
0.39227897 3.3012872 -5.567711 -2.3917003 0.9385823 0.46640375 -0.20054682 1.7556307
-0.22526893 10.961704 0.1488022 0.73972446 2.922965 3.3065972 -1.0207801 0.40639266
2.8509343 2.3710701 0.25443026 -0.74572915 2.8150008 3.8432317 -0.4832396 0.3334022
2.3101065 -1.7633077 0.06871672 -0.19806631 -4.5587573 -14.534658 6.56767 -2.497994
-2.5459564 0.0540722 0.0078722825 -1.9097149 0.38679102 9.332152 0.46492606 -0.0086573465
-6.631348 -0.9967344 -3.2985585 -0.07664112 2.574895 -8.7853155 0.33074468 -0.75737643
-0.042186346 -8.000859 0.2288255 0.09728526 -0.6329935 3.3053894 -1.3932589 1.1234673
-1.6923195 7.3007708 -5.58651 -0.03057685 3.5502076 0.102858454 -0.43223107 3.8817325

network.0.bias f4 [56]
00000000: 09a3 95c1 f411 40c1 28ce 32c1 2713 c83f
00000010: d8de 1cc0 3108 32c1 25ae a4c0 4ad9 a0c1
00000020: 8d83 d3c1 123b 80c1 d8c2 10c1 10dc 72c1
00000030: e9d9 843f 4fa8 3dc1 a25b b740 e2cf a2c1
00000040: 285f 2bc1 82cc cdc1 6d25 06c1 18a0 e43f
00000050: b09a 0ac1 d8a2 02c0 9f96 4ac0 fbe7 f740
00000060: f1df a6c1 5d69 1bc1 d6ca 6440 032b 83c1
00000070: 9c93 b8c0 0712 92c1 dda5 39c0 ce2b dcc1
00000080: 7d03 1dc1 ceac 95c1 c004 89c1 1480 83c1
00000090: 38d3 08c1 189d 0fc0 ef16 7c40 5381 d3c1
000000a0: dadd 35c1 12a0 60c0 1c44 9fc1 3aa2 84c1
000000b0: 8076 49c1 4a7f 86c1 12dc c3c0 289c 25c1
000000c0: 7b22 70c1 c1f1 cdc0 305b 9cc0 ba25 98c1
000000d0: 4b49 d43f 09c1 91c0 6902 5cc1 0b22 90c1
-18.704607 -12.004383 -11.175331 1.5630845 -2.4511013 -11.127 -5.146258 -20.106098
-26.439234 -16.028843 -9.047569 -15.178726 1.0379001 -11.853591 5.7299356 -20.351505
-10.7107315 -25.724857 -8.384137 1.7861357 -8.6627655 -2.0411892 -3.1654432 7.747068
-20.859346 -9.713223 3.5748801 -16.396002 -5.7680187 -18.258802 -2.9007485 -27.521389
-9.813352 -18.709377 -17.12732 -16.437538 -8.551567 -2.2439632 3.9388998 -26.438147
-11.366663 -3.50977 -19.908257 -16.579212 -12.591431 -16.812153 -6.120614 -10.350624
-15.008418 -6.435761 -4.8861313 -19.018421 1.6584867 -4.554814 -13.750588 -18.016623

network.2.weight f4 [56, 56]
00000000: 5937 c03e 63c2 03c0 50c2 8abf 84be b3bf
00000010: e26a d8bf 5b1c 68bf bcff 38c0 5be1 26bf
00000020: 11d5 9cbe 8cc8 46be b7e6 89be c9e9 343d
00000030: f000 cd3d 6f62 16c0 6aaa 1ec0 75d8 ccbf
00000040: 683c e2bf 1a45 11bf 820a 67bf 616c cfbf
00000050: 2bef c0bf d971 99bf 426e efbf cce7 acbf
00000060: ad71 323d 562c 52c0 041a bfbf 2f82 c3bf
00000070: ad97 0ac0 17f1 debf 97bf fbbf 8d43 d7be
00000080: f9d8 acbf 741c 10c0 8ad1 01be 9483 f2bd
00000090: 9335 d3bf 6b7e 0fc0 d17f e5bf c834 923f
000000a0: 20e2 08bf 9cb8 d4bf 54ed 9d3c dc3e 7bbe
000000b0: 690e febf e6b9 a4bf 0523 e1bf 525f 90bf
000000c0: 2e79 febf 7820 bcbf b553 9cbf 3461 d2be
000000d0: 8515 f0bf b17f 5fbe e7a7 89bf ec38 a0bf
000000e0: cc8b e2be 5c9d 5fbe 6a25 06be 1664 a7be
000000f0: ef49 b6ba c247 08bf 69de 28bf 135e 8fbe
00000100: 20e1 08be 1991 fbbe 4e7c 6d3b ff1a 10bf
00000110: 383c 9bbe 6520 753d b066 23be 0fc4 1bbf
00000120: 0d60 adbe b1ab f7be 9560 f9be 8b06 f9be
00000130: a662 18bd 7130 bcbe f153 7bbe 493c 9bbe
00000140: 90ea b1be b21b 6cbe 426f 2fbe db50 91be
00000150: d7dc 31be e48d 09bf bc6b 24be 5330 99be
00000160: 42e9 cbbe 25b4 82be 92e1 08bf 9e6b 8bbe
00000170: e3a3 02bf 6459 07bf c56b a9be b6ce 93be
00000180: e5f5 c9be 12b1 d5be de14 34be 1095 fabe
00000190: f9b1 24be 4ade 57be ce94 e7be 0e29 84bd
000001a0: 11d8 14bf 4811 393d be40 49be 8a78 ddbe
000001b0: 45f4 09bd f9cf afbe 3b9d 09bf 6801 a6bd
000001c0: 4e00 10bf dd4f 9bbe 6089 eabe aaae 09bf
000001d0: f31c 98be ea96 d5be 2ef7 91be 8235 ccbe
000001e0: db6b 6dbe d577 d7be 6c05 0abf 4874 37be
000001f0: 8234 dcbd 0f56 febe 5445 c4be d031 d3be
00000200: 5931 96be 5160 0cbf ef95 15be bfef f2be
00000210: 6e73 e2be 8ea5 5cbe cde4 84be 340c c8be
00000220: b046 0fbe 5f2a 82be 4051 5ebe e500 15bf
00000230: 0fc0 83be e467 8dbe 9752 40be 36fd 6cbe
00000240: 7a08 32be b085 5cbd b3cb c7be 65c2 ffbe
00000250: 4164 c4be e5d7 a8be 6ed9 b1be f5d6 1ebf
00000260: 7c2c aabe 0c4b d8be 0fce 90be 55af 51be
00000270: 2874 96be 55ed 12be cc2c 9dbe fead 8ebe
00000280: 11c0 01bf e16b aabe 7ab0 b8be 0e66 1cbe
00000290: 669d c6be 7443 f7be 8317 b4be 62f5 9ebe
000002a0: adde 70be a751 34bd 8848 0fbf 814a eebe
000002b0: 3d65 f7be 2aa3 2cbe 0c78 47be db28 a1be
000002c0: 71e5 03be 7ee2 bdbe 8202 67be 1bdb 58be
000002d0: 1eb6 f4bb 8194 50bd 9ec1 c7be 1576 28be
000002e0: 932a 38be 9e92 8dbe 3a1b 84be 2687 bcbe
000002f0: dfb6 99be 8f9a e8bd 6ef6 2cbe a4de 90be
00000300: 09a8 82be bf61 efbe 108f 62be f4a3 15bf
00000310: c946 7cbe 1e29 a7be e825 c1be 4368 5fbe
00000320: fdb4 51be 47a3 66bd 3cd9 12be 9a9d 9dbe
00000330: f311 c0be 4586 cebe b040 4abe 6886 33be
00000340: c5a6 77be 79f3 58be c3be 85be 3b47 ecbe
00000350: 444c 0dbf 48c8 323d 56bb 19be 8564 1cbf
00000360: 240b c0be cd1b 83be 981b 0fbe a64f 3b3c
00000370: 4c85 b3be 1a61 91be 03d7 713d 5fa3 19bf
00000380: e13a 0bc0 3585 cdbf f1a1 dcbf c4dd 22c0
00000390: 8815 d0bf 7b6e 4bc0 b3ca f3bf cb9f f2bf
000003a0: 331f 04c0 fa0d e3be 8b1f cabf f8f5 25c0
000003b0: 49a8 2dc0 bb12 4dc0 2818 61c0 727a a6c0
000003c0: a943 87c0 1ad2 db3e 174e a43e 3f1a 5dc0
000003d0: c1e7 8d3f a646 29c0 65e9 b7c0 1fb6 5ec0
000003e0: eb7e 5ec0 d40d 37c0 37ca 00c0 c53d 73bf
000003f0: 010a 27c0 c04c 9abf cf5e b5bf 5d1a cdbf
0.37542227 -2.0587394 -1.084055 -1.4042516 -1.6907618 -0.90668267 -2.8906088 -0.65187615
-0.30631307 -0.1941244 -0.26933834 0.044168267 0.100099444 -2.349758 -2.4791512 -1.6003557
-1.7674685 -0.56746066 -0.9025041 -1.620495 -1.5072988 -1.1987869 -1.8705523 -1.3508239
0.04356544 -3.283956 -1.4929814 -1.5274104 -2.1655076 -1.7417325 -1.9667844 -0.42043725
-1.3503715 -2.2517366 -0.12677589 -0.11841503 -1.6500725 -2.242091 -1.7929631 1.1422358
-0.5347004 -1.6618838 0.019278206 -0.24535698 -1.9848148 -1.2869232 -1.7588812 -1.127909
-1.9880731 -1.4697409 -1.2213045 -0.41089785 -1.8756567 -0.21826054 -1.0754365 -1.2517371
-0.44247282 -0.21837372 -0.1310021 -0.32693547 -0.0013907532 -0.53234494 -0.6596437 -0.2800146
-0.13367128 -0.49134138 0.0036237421 -0.5629119 -0.3031938 0.059845347 -0.15957141 -0.60846037
-0.33862343 -0.48373178 -0.487065 -0.48637804 -0.037203453 -0.36755708 -0.2454374 -0.3031943
-0.3474927 -0.2305744 -0.17132285 -0.28382 -0.173694 -0.5373213 -0.16056722 -0.2991968
-0.398264 -0.25528064 -0.53469193 -0.27230543 -0.5103132 -0.52870774 -0.33090034 -0.28868645
-0.39445415 -0.41736656 -0.17586085 -0.4894185 -0.16083516 -0.2108089 -0.45230716 -0.06453143
-0.5814219 0.045182496 -0.19653603 -0.43256027 -0.03368022 -0.34338358 -0.5375554 -0.08105737
-0.56250465 -0.30334368 -0.45807934 -0.5378214 -0.29709587 -0.417167 -0.28508896 -0.39884573
-0.23185675 -0.42083612 -0.53914523 -0.17915452 -0.107522026 -0.49675032 -0.38334143 -0.4124894
-0.29334524 -0.5483447 -0.14607976 -0.47448537 -0.4422869 -0.21547529 -0.2595581 -0.3907181
-0.13991809 -0.25422952 -0.21710682 -0.5820449 -0.25732467 -0.27618325 -0.18781506 -0.23143467
-0.17386046 -0.05383843 -0.39022598 -0.49953 -0.38357738 -0.32977214 -0.34736198 -0.6204675
-0.33237064 -0.42244756 -0.2828221 -0.2047704 -0.29385495 -0.14348347 -0.3069824 -0.2786712
-0.50683695 -0.3328543 -0.3607214 -0.15273306 -0.3879196 -0.4829365 -0.35174188 -0.31046587
-0.23522444 -0.044023182 -0.5597005 -0.46541217 -0.48319426 -0.16859117 -0.19479388 -0.31476483
-0.12880494 -0.37086862 -0.2255955 -0.21177332 -0.007467999 -0.050922874 -0.39014906 -0.16451295
-0.17984991 -0.27650923 -0.25802022 -0.3682186 -0.30022332 -0.11357605 -0.1689088 -0.2829486
-0.25518826 -0.46754262 -0.22124887 -0.584533 -0.24636377 -0.32648557 -0.37724233 -0.21817116
-0.20479198 -0.056308057 -0.14340681 -0.30784303 -0.37513694 -0.40336815 -0.19751239 -0.1753174
-0.24184711 -0.21186627 -0.26122102 -0.46148095 -0.551945 0.043648034 -0.15012869 -0.6109088
-0.375085 -0.25607148 -0.1397537 0.011432564 -0.35062635 -0.28394395 0.05904294 -0.6001491
-2.1754687 -1.6056277 -1.723692 -2.5447855 -1.6256571 -3.1786182 -1.9046234 -1.8955015
-2.0644042 -0.443466 -1.5790876 -2.5931377 -2.7133963 -3.2042682 -3.5170994 -5.202447
-4.2270093 0.42933732 0.32090828 -3.454727 1.1086351 -2.644937 -5.7472405 -3.4798658
-3.4764965 -2.860219 -2.0123422 -0.9501613 -2.6099856 -1.2054672 -1.4169558 -1.602367

network.2.bias f4 [56]
00000000: 2af4 1ec0 e80f c9be 1193 a6be c93f 9cbe
00000010: 2f97 e9c0 8b0c c2be afdc acbe e837 45be
00000020: 03ce b5be 60df 8dbf 7ec9 b6be 3cc9 a5be
00000030: 7752 e4bf f6c0 a2be 2e50 a3be da6f 5dbe
00000040: 353d acbe 4752 abbe 6461 a7be 7b31 3fc0
00000050: 858e 47be 55b3 b6be 3214 eebf 6f23 31be
00000060: c352 a4be e83d 8fc0 521a bcbe 8d81 5abe
00000070: bc0b f5be 1b30 9bbe 38b2 d4be 31dc d1be
00000080: 4999 88be d216 85be 5687 7fbe e056 afbe
00000090: 2326 d1be 08f0 02bf a834 eabe c0f0 66bf
000000a0: 72a8 0542 76d5 00bf 5c90 57be 07d4 26bf
000000b0: c452 1ebf 2345 77bf 33f5 aebe a032 5fc0
000000c0: 6dc3 29c0 7acc 4cbe 5f17 55be 1d0f 30bf
000000d0: 5f17 b3be 187a 0641 73df bfbe a32c aabe
-2.4836526 -0.39269948 -0.32534078 -0.30517414 -7.299705 -0.37900195 -0.33762118 -0.19259608
-0.35508737 -1.1083794 -0.357006 -0.32380092 -1.7837666 -0.31787843 -0.3189711 -0.21624699
-0.33640447 -0.3346121 -0.3269149 -2.987395 -0.1948796 -0.35683694 -1.8599913 -0.17298673
-0.32094392 -4.476307 -0.3673883 -0.21338482 -0.47860515 -0.3031014 -0.4154222 -0.40988305
-0.26679447 -0.25993973 -0.2495397 -0.34245968 -0.40849409 -0.5114751 -0.457433 -0.90211105
33.414497 -0.50325716 -0.21051162 -0.6516728 -0.6184504 -0.9658987 -0.34171447 -3.487465
-2.6525528 -0.19999877 -0.20809697 -0.6877306 -0.34978768 8.404808 -0.37475166 -0.3323718

network.4.weight f4 [28, 56]
00000000: 536c d2bd 449a 963e b802 0e3f 59d1 223e
00000010: 9a0b afbe 5bcf afbe a60f ce3d f099 b5be
00000020: 3e4a 933e c212 86be 4a23 5bbd 3afa 0fbf
00000030: 228c 9bbf d301 4fbd 3046 e6be b490 793d
00000040: 5453 76be 2add 0d3f 3d4d 3ebe 95fe b4be
00000050: d7b3 383e 8ff5 9d3d 9db5 dbbd c848 a0be
00000060: a805 6abe f17a 98bf 5808 ea3d f335 debe
00000070: c3aa 043f cf1e e7bc 82ce 83bd b4f8 adbe
00000080: d0cc c6be e41a d9be 6563 e7bd 885e 703e
00000090: 4e0d e1be 0291 8c3c a4e7 eebd 453a 9a3e
000000a0: 733b d3be daa0 04bf 9589 89be cb4e 0ebf
000000b0: f5ab 71be 36c9 91be bf70 82be 1517 a5be
000000c0: 5127 14bd 10d8 723e 36a8 b83b 0536 a7be
000000d0: ae79 41be 915a 16c0 7288 70be 8e1f 14bd
000000e0: 8a2b 34be defb 033e 3641 c3be 70eb d93d
000000f0: 4001 abbe 8395 a83e 7041 f43c a729 1f3e
00000100: 3dfc 9f3c 0862 823e 7bc0 abbd 7f40 833e
00000110: 47db 4ebe f2c5 9bbd e2a6 9dbd f187 c33c
00000120: 9928 da3e 8ad1 00bf 5dce 9f3c 0ad3 0fbe
00000130: 87bb 6f3e 1748 b8bd 11f3 d73f f10c 893d
00000140: d343 153d 3e0c c0bf 678c 75be 46a0 9ebe
00000150: 770d a03d 54e5 873d bfef 7a3e 8307 b53c
00000160: 6008 96bd df30 ff3d 41d1 763c 5fa6 34bd
00000170: 8180 90be abfb 0fbe c0ae 613e ec79 2dbe
00000180: 88e4 77be 800d 973e ac6c 07be 5305 b2be
00000190: 1d39 453e a225 ddbe 6a81 813e cc3c 5140
000001a0: 4f9c b3be b220 bcbe b442 eebd 3f0e f7bc
000001b0: d617 abbd e9b7 34bf 5f5a 54be 3054 8ebd
000001c0: 50a9 f13e 9114 8cbe f448 8abd 5764 45be
000001d0: d99e edbe a3a8 e9bd 21cd c9bd c302 91be
000001e0: 6d2a 86be 95cb 17bf 9d52 8fbe b036 a73e
000001f0: 745b 27bf d020 93be d507 00be 2c3b abbe
00000200: 1c79 6a3b 2fc1 cfbd 9265 adbe da17 1dbe
00000210: 7177 a2be d286 94be fa4d c3bf 9bd6 803c
00000220: 828a 16bc 0cbe ffbe d9ce dabe 203c ccbe
00000230: fee2 00bf 5e17 b8be c360 f63e 2a42 803d
00000240: 9716 913d 39b2 1bbf 9042 c4be 3f08 98be
00000250: d525 ebbe 489d 9bbe 0437 b9be 4730 e8bd
00000260: 0ab9 f1be 3d0b 4c3e 9c6e 86bd 0686 99be
00000270: c7c4 07bc 9bec af3c 417e 753d f42d 88bd
00000280: 3787 dfbe 5b9a 0cbe 6218 babe ef03 d1be
00000290: b0df 37bd d908 94be 7ee1 47bc 2279 a1be
000002a0: 26ad 0abf f2c3 cabd dd74 b83e 6be1 6abd
000002b0: 313b a3be 4414 a9bc 44da aebe 54a7 a73d
000002c0: a145 1cbe 3426 edbe 0b1b 9ebd 9e9f a5bd
000002d0: 9fd5 ec3c 99bf 89be 1b0e 78bd be0f 4c3d
000002e0: da77 b8be 841c 913d 3e7c a93a fe0f 85be
000002f0: 09e1 0e3d b320 debe 5b07 ccbe 40bd b13d
00000300: 19c3 7fbe 73bd ccbe 3cc9 afbe 5ab2 99bf
00000310: 5773 25be 6616 b4bd 605b fabe 9b78 14be
00000320: ab71 4abd 130a c9bd 3e87 a0be 236d 64be
00000330: 329b 61bd 7c5a 4abe ff93 23be df07 c23d
00000340: 6a60 f4bf f268 10bd b1d1 6a3d 2dce 82bc
00000350: 6c9d a0be c51b a5be 54ad 0dbf 6d02 01be
00000360: fafd 9abf 02e8 5d3e f7bf ef3d b399 99be
00000370: 7cc5 d1be 0315 1bbf 61a5 f33d 7cc5 acbc
00000380: 1539 73bd 699d 1fbd 25db f83e 17c7 38be
00000390: 7bec babf a631 693e ca24 813e 041e 80bd
000003a0: ca74 153d b0fc 2a3d 517e c63e e80a 7a3d
000003b0: 3b90 63be 4f66 893c 1020 713e 20c2 dd3d
000003c0: b643 c2be 83c7 8a3e 1ae4 ab3c ae68 36be
000003d0: 3f53 023d cea8 833e f251 71bd 22e4 283e
000003e0: 4664 3e3e cca0 53be 6ecf 743d 72bc 8bbe
000003f0: 8845 3a3d 498d 3a3e 78b1 87bd f482 183e
-0.102745675 0.2941457 0.554729 0.15900172 -0.3418854 -0.34337887 0.100615785 -0.35469007
0.2876758 -0.26186186 -0.05350045 -0.5624119 -1.215214 -0.05053885 -0.44975424 0.060929015
-0.24055225 0.55415595 -0.18584152 -0.3535048 0.18037353 0.07712852 -0.10727999 -0.31305528
-0.2285372 -1.1912519 0.11427373 -0.43400535 0.5182306 -0.028212933 -0.064358726 -0.33978808
-0.38828135 -0.42403328 -0.11298255 0.23473561 -0.43955463 0.017158989 -0.11665276 0.3012258
-0.41256294 -0.5180794 -0.2686278 -0.5558898 -0.23600753 -0.28473824 -0.25476643 -0.32244173
-0.036170308 0.23715234 0.0056352867 -0.326584 -0.18894073 -2.3492777 -0.2348955 -0.036162905
-0.17594734 0.12889048 -0.3813569 0.10640609 -0.3339939 0.32926568 0.02981636 0.15543233
0.019529456 0.25465417 -0.08386322 0.25635144 -0.20200835 -0.076061144 -0.07697846 0.023868533
0.426091 -0.5031973 0.019507581 -0.14045349 0.2341138 -0.08998125 1.6871053 0.066919215
0.036441635 -1.5003736 -0.2397934 -0.30981654 0.07815068 0.06635538 0.24505518 0.022098308
-0.07325816 0.12460493 0.015064538 -0.044103976 -0.2822304 -0.14060847 0.22039318 -0.16941041
-0.24208272 0.29502487 -0.13225049 -0.34769687 0.19260068 -0.43192774 0.25294048 3.2693357
-0.35080191 -0.36743695 -0.11633816 -0.03015816 -0.08354156 -0.70593125 -0.20737599 -0.06949651
0.47199488 -0.2735944 -0.06752196 -0.19276558 -0.46410254 -0.11409118 -0.09853578 -0.2832242
-0.26204243 -0.59295017 -0.27992716 0.3265891 -0.6537392 -0.2873597 -0.12502988 -0.33443582
0.0035777753 -0.10144269 -0.33866554 -0.1534113 -0.31731752 -0.2900911 -1.5258172 0.015727332
-0.009188296 -0.49949682 -0.42735937 -0.39889622 -0.5034636 -0.35955328 0.48120698 0.0626262
0.07084387 -0.6081882 -0.38332033 -0.2969379 -0.459273 -0.30393434 -0.36174786 -0.11337333
-0.47211486 0.19926162 -0.06564066 -0.29985064 -0.0082866615 0.021475127 0.05993486 -0.0664939
-0.43657848 -0.13730757 -0.36346728 -0.40823314 -0.04489106 -0.28913 -0.012199758 -0.3153773
-0.54170454 -0.09900655 0.3602666 -0.05734388 -0.31881097 -0.020639546 -0.34150898 0.08186212
-0.15260936 -0.4631821 -0.07720002 -0.08087085 0.028910456 -0.2690399 -0.060560327 0.0498197
-0.3602894 0.07085517 0.0012930704 -0.25988764 0.03488258 -0.43384323 -0.39849362 0.08678675
-0.24976768 -0.39988288 -0.34333217 -1.2007554 -0.1615728 -0.08793335 -0.4889784 -0.14499132
-0.04942481 -0.09816375 -0.31353182 -0.22307257 -0.055079646 -0.1976108 -0.15974425 0.094741575
-1.9091923 -0.035256334 0.057328884 -0.015967453 -0.31370103 -0.3224775 -0.553426 -0.12598582
-1.2108757 0.21670535 0.11706536 -0.30000076 -0.4097098 -0.60578936 0.11896778 -0.021090262
-0.05938061 -0.038968477 0.48604694 -0.18044697 -1.4603418 0.22772846 0.2522338 -0.06255725
0.03648833 0.041744888 0.38768247 0.061045557 -0.22222988 0.016772417 0.23547387 0.10828042
-0.37942284 0.2710534 0.02098279 -0.1781337 0.03181767 0.25714725 -0.05891604 0.16493276
0.18592939 -0.20666808 0.059768133 -0.2729221 0.045476466 0.18217959 -0.06625646 0.14893705

network.4.bias f4 [28]
00000000: b83e fbbf 50de 2ac0 4266 99be b499 afbf
00000010: c656 15be 8b36 03c0 142d 0bc0 7cd0 47bf
00000020: 163c 25c0 4e06 36bf 07bb 92bf 1c1c 17bf
00000030: 20ec 3dc0 b549 5541 07c2 20c0 857c 03c0
00000040: a84a d9bf edeb 3cc0 1fd1 dabf ee67 1ec0
00000050: 8edc 9fbf 910b 39bf 407a 53c0 711e febf
00000060: da52 83c0 21b7 02c0 7d6e 77bf 3344 6bc0
-1.9628515 -2.6698189 -0.2996083 -1.3718781 -0.14583883 -2.050204 -2.1746264 -0.78052497
-2.5817924 -0.7110337 -1.1463326 -0.59027267 -2.967537 13.330495 -2.5118425 -2.054475
-1.6975908 -2.9518998 -1.7095069 -2.4750934 -1.2489183 -0.72283274 -3.3043365 -1.985304
-4.1038637 -2.0424273 -0.96652967 -3.6760375

network.6.weight f4 [1, 28]
00000000: 6a4a 73be 8d35 5d3f fa63 4b3f 8a74 c7bc
00000010: 5261 87be 2393 dfbf 5fdd 8dbf b2ed d13f
00000020: d51b 7bbe 6d43 a13f edcb d23f 80a6 ab3f
00000030: 9315 b7be 13f6 43be 8092 8b3f e1af af3d
00000040: ab73 283f 0fd1 ac3f f3cf 4f3f a95a 69be
00000050: 4a11 e03f 386f 8d3f a6f1 c33d 38c0 963e
00000060: 302e 9cbf 8d9a 99bf 894b 2c3e 67f7 c3be
-0.23758855 0.86409837 0.7944943 -0.024347562 -0.26441437 -1.7466778 -1.1083182 1.6400664
-0.24522336 1.2598702 1.6468483 1.3410187 -0.35758647 -0.19136839 1.0904083 0.08578468
0.65801495 1.35013 0.8117668 -0.2278849 1.7505276 1.1049566 0.09567575 0.29443526
-1.2201595 -1.200029 0.1682569 -0.3827469
