HPC/Major_project/logistic_regression/models/exp1/70.pth (torch, 28367 bytes, 7 tensors)

network.0.weight f4 [56, 28]
00000000: 917c 09be 274e dcbf 4da7 c23f 94dc 363f
00000010: 57a8 b4bd 4445 d43e 2689 253f b0c9 adbf
00000020: 88fd 04c1 2e67 dec0 9e16 f1bf 23af ac3e
00000030: 92b9 8140 c3d2 26c0 0223 1c40 1be0 febd
00000040: 97c5 843f 88b4 29c0 9e5d 423f c23b 83bf
00000050: 8964 413d ea33 76c0 d663 af3c 0889 0bc0
00000060: 68af b040 327a f240 8148 25c1 311b fd40
00000070: 1696 6c40 b952 c940 25ea 1b3f a97f 2840
00000080: ed59 03be f2a4 58bf b839 713f 62af a53e
00000090: a1ea ab3f 8920 8540 fdd2 58c1 d2f7 823e
000000a0: 954e 82c0 8955 aa3f e0f7 873f 4f27 b63e
000000b0: e7ec 013c 61d8 edbd c03d 553f 7618 943c
000000c0: 09ef 933e 29b5 9c3f 8b15 05c0 da85 a1bf
000000d0: a09f 9f3f d339 35c0 d585 d43e 0c5c 773f
000000e0: 2da0 0541 220a 64c0 1cc4 bbbe 756e d740
000000f0: aaf2 79be fdb4 3ec1 9a9f 083f e857 db3c
00000100: 0328 82bf 290a 4e41 0e5d 6440 6647 553e
00000110: b006 9240 61dc 7fc0 eeb8 933e 8706 093e
00000120: 6ccd 583c a270 05c0 dcd5 5cbf 7d0c bd3d
00000130: 758c 51bf ed32 6ebf 1c74 fb3f 9998 80c0
00000140: 0cab 1f40 dc95 a7bf 6214 d8be 1ca4 0340
00000150: c6cb b840 41fb febf df9e 72bd ae13 8140
00000160: 926d f5be 09ba 9941 698f 4d40 5593 043d
00000170: 059d 8b40 3076 f6c0 7d12 cebf ed38 133f
00000180: af82 773f 84d1 8ac0 50b3 ba3e fa5a 053e
00000190: 8bf6 29be d991 67c0 1411 6a3e 9d6b f5bc
000001a0: e1ad 223d d668 5b3e 4b89 0240 6e28 5ac0
000001b0: dbfa cf3f 5b10 08c0 4ddb 3fc0 df62 3940
000001c0: d1d8 6bc1 b547 d6bf 44c4 e33c d70a 11c1
000001d0: 6a7d bdbd c2a1 763f 57af 183e f439 77bc
000001e0: 97b7 94bf c3f1 463f ca48 103f 9b2e 14be
000001f0: c7c4 843d 76c0 843e 5a74 173e 6ea3 413e
00000200: 8f36 503f 24ca e43d 3646 423e 76d3 e1bd
00000210: fa4f 8a3f 2e51 0f40 8779 ef3f df6a a440
00000220: a391 5bbf 1f7e 5841 4b02 c4c1 61ca 6140
00000230: e5e0 443f 1957 783d 3a6a 343e 7461 06c0
00000240: e604 abbf fa4d cb40 4ae0 ed3f 29d3 203e
00000250: 8c78 85c0 fc56 aa40 c275 5bbf 1254 133f
00000260: 74f3 c7be 1332 9940 fb29 1b3e 7fc6 aa3f
00000270: d5e0 f03f e9a3 d13f c003 d5bf 3a3b c6bc
00000280: 9b8b dabf be5c b8c0 8376 d0be 485d 1fc0
00000290: 8375 0a41 80fa e7c0 af52 4dc0 91c4 ea40
000002a0: 4cef 07c1 4b63 c4bf 21e6 cbbe e68d 38c0
000002b0: 50ce 7bbe 3af9 45c1 d2fe 3141 ed20 b2bb
000002c0: 35e4 1040 dd0b 00c1 9613 ccc0 2415 f3bc
000002d0: d457 ba3f de3f 7dc0 69c3 92bf 60ce 11be
000002e0: 6dc3 593f 2957 37c0 b4ed 69bf a40b 043e
000002f0: 80a2 4f3f f5f0 86bf bb57 b940 9a55 c03f
00000300: 09d4 e33e ecff 5140 6ac0 b1c0 b49c 15c0
00000310: 754b 7c3f 375a ea3e bbbb 4fbe 4292 e53f
00000320: 21e1 4cbe 64b7 2f41 a73d 3d3e 0387 473f
00000330: b45c 3740 3eae 5640 317b 7fbf 5def b63e
00000340: a34e 3740 32c2 1740 2006 7f3e c777 2abf
00000350: 9151 3540 cd1b 7640 3b5c 0ebf eab0 a13e
00000360: 0c21 1840 4d66 dbbf 7249 a43d a144 3dbe
00000370: 2cc0 90c0 95c4 68c1 8177 d240 291c 21c0
00000380: 3700 25c0 f10d cc3d 9b21 4e3d fe98 f4bf
00000390: 61ed eb3e 5b18 1441 8528 fc3e 7d34 5c3d
000003a0: d2c5 d4c0 aaa6 8abf 159f 4fc0 4d18 86bd
000003b0: ed4a 2540 b704 0cc1 fef5 c73e 8049 34bf
000003c0: 68aa 22bd 9f28 fec0 84d5 913e f0e6 8b3d
000003d0: 0af1 1dbf 2f4a 5540 21d4 abbf b77f 863f
000003e0: ba74 d4bf 2d9c e940 75bc b4c0 369e 05bd
000003f0: f333 6340 82d2 fa3d 0977 e3be 54c3 7a40
-0.13426425 -1.721135 1.5207306 0.71430326 -0.08821171 0.41459095 0.64662397 -1.3577175
-8.311897 -6.950095 -1.8835027 0.3372737 4.0539026 -2.6066139 2.4396367 -0.124450885
1.03728 -2.6516438 0.759241 -1.0252612 0.04721502 -3.8469186 0.02140991 -2.1802387
5.521412 7.5774164 -10.330201 7.9095693 3.6966605 6.291348 0.6090415 2.6327918
-0.12827273 -0.84626687 0.94228697 0.3236037 1.3430978 4.1602216 -13.551511 0.25579697
-4.0720925 1.3307353 1.062252 0.35576865 0.007930017 -0.116135366 0.8329735 0.01807807
0.28893307 1.2242786 -2.0794399 -1.2618973 1.2470589 -2.8316543 0.41508356 0.9662483
8.351605 -3.5631185 -0.36673057 6.7322335 -0.24408975 -11.919187 0.5336853 0.026775315
-1.0168461 12.8774805 3.5681796 0.20828018 4.5633163 -3.9978259 0.28852028 0.13381396
0.01323257 -2.0849996 -0.86263824 0.092308976 -0.81854945 -0.93046457 1.9644809 -4.0186276
2.4948149 -1.3092608 -0.4220305 2.0568914 5.7748747 -1.9920427 -0.059233543 4.0336523
-0.47935158 19.215837 3.211878 0.03236707 4.3629174 -7.701927 -1.6099392 0.57508737
0.9668378 -4.3380756 0.3646493 0.13022986 -0.16597955 -3.6182768 0.22858077 -0.02995854
0.039716605 0.2142671 2.0396297 -3.4087176 1.624843 -2.1259983 -2.99776 2.8966596
-14.740434 -1.6740633 0.027803548 -9.065146 -0.092524365 0.9634057 0.14910637 -0.015089501
-1.1618527 0.7771265 0.5636107 -0.14470904 0.06482845 0.25928086 0.14790478 0.1891
0.8133325 0.11171368 0.18972096 -0.11026661 1.0805657 2.2393298 1.8708962 5.138046
-0.857691 13.530791 -24.50112 3.5279772 0.7690566 0.060629938 0.17618647 -2.099698
-1.336087 6.3532686 1.8584073 0.15705551 -4.170965 5.323118 -0.8572656 0.57550156
-0.39052927 4.7873626 0.15152733 1.3341826 1.8818613 1.6378146 -1.664177 -0.024198163
-1.7073854 -5.761321 -0.40715417 -2.4900684 8.653689 -7.2493286 -3.2081716 7.336495
-8.495922 -1.5342802 -0.39824012 -2.8836608 -0.2459042 -12.373346 11.124712 -0.005436054
2.2639287 -8.002896 -6.377391 -0.029673167 1.4558053 -3.9570231 -1.1465884 -0.14238882
0.8506382 -2.8646948 -0.9137833 0.12895066 0.8110733 -1.0542284 5.7919593 1.5026124
0.44497707 3.2812452 -5.554738 -2.3376894 0.9855264 0.45771953 -0.20286457 1.7935259
-0.20007755 10.982273 0.1848055 0.77940387 2.8650331 3.354385 -0.9979735 0.35729495
2.8641746 2.3712277 0.2490468 -0.66589016 2.8331034 3.8454468 -0.5560948 0.31580287
2.377017 -1.7140595 0.08021821 -0.18483211 -4.5234585 -14.547994 6.577088 -2.5173438
-2.578138 0.099635966 0.050325017 -1.910919 0.46079543 9.255946 0.49249664 0.053760994
-6.649148 -1.0832112 -3.2440846 -0.06547604 2.582698 -8.751151 0.39054865 -0.7042465
-0.039713293 -7.9424586 0.28483212 0.06831157 -0.6169592 3.3326528 -1.3424112 1.0507725
-1.6598122 7.3003144 -5.648005 -0.032621585 3.5500457 0.122471824 -0.44426754 3.918172

network.0.bias f4 [56]
00000000: ce68 95c1 e012 40c1 088c 32c1 d8ac c83f
00000010: 848b 1cc0 4ffb 30c1 96dd a4c0 b684 a0c1
00000020: 810e d4c1 50dd 7ec1 8095 10c1 f707 73c1
00000030: 7714 6e3f 7376 3dc1 580a b740 6602 a3c1
00000040: 3275 2ac1 43a8 cdc1 fb63 06c1 c67f d33f
00000050: df39 0ac1 7b2d fdbf 2412 4cc0 a0d2 fa40
00000060: 81ef a6c1 1601 1bc1 c8d3 5f40 8e2f 83c1
00000070: 9a5d b6c0 4781 91c1 b9b3 33c0 952a dcc1
00000080: 3ff6 1cc1 6b1d 96c1 9ea4 88c1 88ac 83c1
00000090: 8a2c 09c1 c0e0 0fc0 97ee 7e40 a098 d3c1
000000a0: e990 35c1 c0de 61c0 3f98 9ec1 2684 84c1
000000b0: 9572 48c1 9167 86c1 40b5 c3c0 6b0b 25c1
000000c0: 1449 70c1 2f82 cac0 2a3f 9bc0 42e5 97c1
000000d0: d22c d83f 4aa0 90c0 8d49 5cc1 dbf2 8fc1
-18.676174 -12.004608 -11.159187 1.5677748 -2.4460154 -11.061355 -5.152049 -20.0648
-26.507082 -15.929031 -9.036499 -15.189445 0.92999977 -11.841418 5.7200127 -20.376171
-10.653612 -25.707159 -8.399409 1.6523368 -8.639129 -1.9779505 -3.1886072 7.838211
-20.866945 -9.687765 3.497301 -16.39822 -5.698926 -18.188124 -2.8078444 -27.520792
-9.810119 -18.764364 -17.08038 -16.459244 -8.573374 -2.2480927 3.9833124 -26.449524
-11.347878 -3.5292206 -19.824339 -16.564526 -12.527974 -16.80057 -6.1158752 -10.315288
-15.017841 -6.3283916 -4.8514605 -18.986942 1.6888678 -4.5195665 -13.767957 -17.993582

network.2.weight f4 [56, 56]
00000000: 5937 c03e 63c2 03c0 50c2 8abf 84be b3bf
00000010: e26a d8bf 5b1c 68bf bcff 38c0 5be1 26bf
00000020: 11d5 9cbe 8cc8 46be b7e6 89be c9e9 343d
00000030: f000 cd3d 6f62 16c0 6aaa 1ec0 75d8 ccbf
00000040: 683c e2bf 1a45 11bf 820a 67bf 616c cfbf
00000050: 2bef c0bf d971 99bf 426e efbf cce7 acbf
00000060: ad71 323d 562c 52c0 041a bfbf 2f82 c3bf
00000070: ad97 0ac0 17f1 debf 97bf fbbf 8d43 d7be
00000080: f9d8 acbf 741c 10c0 8ad1 01be 9483 f2bd
00000090: 9335 d3bf 6b7e 0fc0 d17f e5bf c834 923f
000000a0: 20e2 08bf 9cb8 d4bf 54ed 9d3c dc3e 7bbe
000000b0: 690e febf e6b9 a4bf 0523 e1bf 525f 90bf
000000c0: 2e79 febf 7820 bcbf b553 9cbf 3461 d2be
000000d0: 8515 f0bf b17f 5fbe e7a7 89bf ec38 a0bf
000000e0: cc8b e2be 5c9d 5fbe 6a25 06be 1664 a7be
000000f0: ef49 b6ba c247 08bf 69de 28bf 135e 8fbe
00000100: 20e1 08be 1991 fbbe 4e7c 6d3b ff1a 10bf
00000110: 383c 9bbe 6520 753d b066 23be 0fc4 1bbf
00000120: 0d60 adbe b1ab f7be 9560 f9be 8b06 f9be
00000130: a662 18bd 7130 bcbe f153 7bbe 493c 9bbe
00000140: 90ea b1be b21b 6cbe 426f 2fbe db50 91be
00000150: d7dc 31be e48d 09bf bc6b 24be 5330 99be
00000160: 42e9 cbbe 25b4 82be 92e1 08bf 9e6b 8bbe
00000170: e3a3 02bf 6459 07bf c56b a9be b6ce 93be
00000180: e5f5 c9be 12b1 d5be de14 34be 1095 fabe
00000190: f9b1 24be 4ade 57be ce94 e7be 0e29 84bd
000001a0: 11d8 14bf 4811 393d be40 49be 8a78 ddbe
000001b0: 45f4 09bd f9cf afbe 3b9d 09bf 6801 a6bd
000001c0: 4e00 10bf dd4f 9bbe 6089 eabe aaae 09bf
000001d0: f31c 98be ea96 d5be 2ef7 91be 8235 ccbe
000001e0: db6b 6dbe d577 d7be 6c05 0abf 4874 37be
000001f0: 8234 dcbd 0f56 febe 5445 c4be d031 d3be
00000200: 5931 96be 5160 0cbf ef95 15be bfef f2be
00000210: 6e73 e2be 8ea5 5cbe cde4 84be 340c c8be
00000220: b046 0fbe 5f2a 82be 4051 5ebe e500 15bf
00000230: 0fc0 83be e467 8dbe 9752 40be 36fd 6cbe
00000240: 7a08 32be b085 5cbd b3cb c7be 65c2 ffbe
00000250: 4164 c4be e5d7 a8be 6ed9 b1be f5d6 1ebf
00000260: 7c2c aabe 0c4b d8be 0fce 90be 55af 51be
00000270: 2874 96be 55ed 12be cc2c 9dbe fead 8ebe
00000280: 11c0 01bf e16b aabe 7ab0 b8be 0e66 1cbe
00000290: 669d c6be 7443 f7be 8317 b4be 62f5 9ebe
000002a0: adde 70be a751 34bd 8848 0fbf 814a eebe
000002b0: 3d65 f7be 2aa3 2cbe 0c78 47be db28 a1be
000002c0: 71e5 03be 7ee2 bdbe 8202 67be 1bdb 58be
000002d0: 1eb6 f4bb 8194 50bd 9ec1 c7be 1576 28be
000002e0: 932a 38be 9e92 8dbe 3a1b 84be 2687 bcbe
000002f0: dfb6 99be 8f9a e8bd 6ef6 2cbe a4de 90be
00000300: 09a8 82be bf61 efbe 108f 62be f4a3 15bf
00000310: c946 7cbe 1e29 a7be e825 c1be 4368 5fbe
00000320: fdb4 51be 47a3 66bd 3cd9 12be 9a9d 9dbe
00000330: f311 c0be 4586 cebe b040 4abe 6886 33be
00000340: c5a6 77be 79f3 58be c3be 85be 3b47 ecbe
00000350: 444c 0dbf 48c8 323d 56bb 19be 8564 1cbf
00000360: 240b c0be cd1b 83be 981b 0fbe a64f 3b3c
00000370: 4c85 b3be 1a61 91be 03d7 713d 5fa3 19bf
00000380: e13a 0bc0 3585 cdbf f1a1 dcbf c4dd 22c0
00000390: 8815 d0bf 7b6e 4bc0 b3ca f3bf cb9f f2bf
000003a0: 331f 04c0 fa0d e3be 8b1f cabf f8f5 25c0
000003b0: 49a8 2dc0 bb12 4dc0 2818 61c0 727a a6c0
000003c0: a943 87c0 1ad2 db3e 174e a43e 3f1a 5dc0
000003d0: c1e7 8d3f a646 29c0 65e9 b7c0 1fb6 5ec0
000003e0: eb7e 5ec0 d40d 37c0 37ca 00c0 c53d 73bf
000003f0: 010a 27c0 c04c 9abf cf5e b5bf 5d1a cdbf
0.37542227 -2.0587394 -1.084055 -1.4042516 -1.6907618 -0.90668267 -2.8906088 -0.65187615
-0.30631307 -0.1941244 -0.26933834 0.044168267 0.100099444 -2.349758 -2.4791512 -1.6003557
-1.7674685 -0.56746066 -0.9025041 -1.620495 -1.5072988 -1.1987869 -1.8705523 -1.3508239
0.04356544 -3.283956 -1.4929814 -1.5274104 -2.1655076 -1.7417325 -1.9667844 -0.42043725
-1.3503715 -2.2517366 -0.12677589 -0.11841503 -1.6500725 -2.242091 -1.7929631 1.1422358
-0.5347004 -1.6618838 0.019278206 -0.24535698 -1.9848148 -1.2869232 -1.7588812 -1.127909
-1.9880731 -1.4697409 -1.2213045 -0.41089785 -1.8756567 -0.21826054 -1.0754365 -1.2517371
-0.44247282 -0.21837372 -0.1310021 -0.32693547 -0.0013907532 -0.53234494 -0.6596437 -0.2800146
-0.13367128 -0.49134138 0.0036237421 -0.5629119 -0.3031938 0.059845347 -0.15957141 -0.60846037
-0.33862343 -0.48373178 -0.487065 -0.48637804 -0.037203453 -0.36755708 -0.2454374 -0.3031943
-0.3474927 -0.2305744 -0.17132285 -0.28382 -0.173694 -0.5373213 -0.16056722 -0.2991968
-0.398264 -0.25528064 -0.53469193 -0.27230543 -0.5103132 -0.52870774 -0.33090034 -0.28868645
-0.39445415 -0.41736656 -0.17586085 -0.4894185 -0.16083516 -0.2108089 -0.45230716 -0.06453143
-0.5814219 0.045182496 -0.19653603 -0.43256027 -0.03368022 -0.34338358 -0.5375554 -0.08105737
-0.56250465 -0.30334368 -0.45807934 -0.5378214 -0.29709587 -0.417167 -0.28508896 -0.39884573
-0.23185675 -0.42083612 -0.53914523 -0.17915452 -0.107522026 -0.49675032 -0.38334143 -0.4124894
-0.29334524 -0.5483447 -0.14607976 -0.47448537 -0.4422869 -0.21547529 -0.2595581 -0.3907181
-0.13991809 -0.25422952 -0.21710682 -0.5820449 -0.25732467 -0.27618325 -0.18781506 -0.23143467
-0.17386046 -0.05383843 -0.39022598 -0.49953 -0.38357738 -0.32977214 -0.34736198 -0.6204675
-0.33237064 -0.42244756 -0.2828221 -0.2047704 -0.29385495 -0.14348347 -0.3069824 -0.2786712
-0.50683695 -0.3328543 -0.3607214 -0.15273306 -0.3879196 -0.4829365 -0.35174188 -0.31046587
-0.23522444 -0.044023182 -0.5597005 -0.46541217 -0.48319426 -0.16859117 -0.19479388 -0.31476483
-0.12880494 -0.37086862 -0.2255955 -0.21177332 -0.007467999 -0.050922874 -0.39014906 -0.16451295
-0.17984991 -0.27650923 -0.25802022 -0.3682186 -0.30022332 -0.11357605 -0.1689088 -0.2829486
-0.25518826 -0.46754262 -0.22124887 -0.584533 -0.24636377 -0.32648557 -0.37724233 -0.21817116
-0.20479198 -0.056308057 -0.14340681 -0.30784303 -0.37513694 -0.40336815 -0.19751239 -0.1753174
-0.24184711 -0.21186627 -0.26122102 -0.46148095 -0.551945 0.043648034 -0.15012869 -0.6109088
-0.375085 -0.25607148 -0.1397537 0.011432564 -0.35062635 -0.28394395 0.05904294 -0.6001491
-2.1754687 -1.6056277 -1.723692 -2.5447855 -1.6256571 -3.1786182 -1.9046234 -1.8955015
-2.0644042 -0.443466 -1.5790876 -2.5931377 -2.7133963 -3.2042682 -3.5170994 -5.202447
-4.2270093 0.42933732 0.32090828 -3.454727 1.1086351 -2.644937 -5.7472405 -3.4798658
-3.4764965 -2.860219 -2.0123422 -0.9501613 -2.6099856 -1.2054672 -1.4169558 -1.602367

network.2.bias f4 [56]
00000000: 2af4 1ec0 e80f c9be 1193 a6be c93f 9cbe
00000010: 2f97 e9c0 8b0c c2be afdc acbe e837 45be
00000020: 03ce b5be 60df 8dbf 7ec9 b6be 3cc9 a5be
00000030: 7752 e4bf f6c0 a2be 2e50 a3be da6f 5dbe
00000040: 353d acbe 4752 abbe 6461 a7be 7b31 3fc0
00000050: 858e 47be 55b3 b6be 3214 eebf 6f23 31be
00000060: c352 a4be 0da5 8ec0 521a bcbe 26f4 cbbe
00000070: bc0b f5be 1b30 9bbe 38b2 d4be 31dc d1be
00000080: 4999 88be d216 85be 5687 7fbe e056 afbe
00000090: 2326 d1be 08f0 02bf a834 eabe c0f0 66bf
000000a0: 4ee8 0542 76d5 00bf 5c90 57be 07d4 26bf
000000b0: c452 1ebf 2345 77bf 33f5 aebe a032 5fc0
000000c0: 0a1a 28c0 7acc 4cbe 5f17 55be 1d0f 30bf
000000d0: 5f17 b3be f707 0841 73df bfbe a32c aabe
-2.4836526 -0.39269948 -0.32534078 -0.30517414 -7.299705 -0.37900195 -0.33762118 -0.19259608
-0.35508737 -1.1083794 -0.357006 -0.32380092 -1.7837666 -0.31787843 -0.3189711 -0.21624699
-0.33640447 -0.3346121 -0.3269149 -2.987395 -0.1948796 -0.35683694 -1.8599913 -0.17298673
-0.32094392 -4.457648 -0.3673883 -0.39834708 -0.47860515 -0.3031014 -0.4154222 -0.40988305
-0.26679447 -0.25993973 -0.2495397 -0.34245968 -0.40849409 -0.5114751 -0.457433 -0.90211105
33.47686 -0.50325716 -0.21051162 -0.6516728 -0.6184504 -0.9658987 -0.34171447 -3.487465
-2.6265893 -0.19999877 -0.20809697 -0.6877306 -0.34978768 8.501945 -0.37475166 -0.3323718

network.4.weight f4 [28, 56]
00000000: 536c d2bd 449a 963e b802 0e3f 59d1 223e
00000010: 9a0b afbe 5bcf afbe a60f ce3d f099 b5be
00000020: 3e4a 933e c212 86be 4a23 5bbd 3afa 0fbf
00000030: 228c 9bbf d301 4fbd 3046 e6be b490 793d
00000040: 5453 76be 2add 0d3f 3d4d 3ebe 95fe b4be
00000050: d7b3 383e 8ff5 9d3d 9db5 dbbd c848 a0be
00000060: a805 6abe f17a 98bf 5808 ea3d f335 debe
00000070: c3aa 043f cf1e e7bc 82ce 83bd b4f8 adbe
00000080: d0cc c6be e41a d9be 6563 e7bd 885e 703e
00000090: 4e0d e1be 0291 8c3c a4e7 eebd 453a 9a3e
000000a0: 733b d3be daa0 04bf 9589 89be cb4e 0ebf
000000b0: f5ab 71be 36c9 91be bf70 82be 1517 a5be
000000c0: 5127 14bd 10d8 723e 36a8 b83b 0536 a7be
000000d0: ae79 41be 915a 16c0 7288 70be 8e1f 14bd
000000e0: 8a2b 34be defb 033e 3641 c3be 70eb d93d
000000f0: 4001 abbe 8395 a83e 7041 f43c a729 1f3e
00000100: 3dfc 9f3c 0862 823e 7bc0 abbd 7f40 833e
00000110: 47db 4ebe f2c5 9bbd e2a6 9dbd f187 c33c
00000120: 9928 da3e 8ad1 00bf 5dce 9f3c 0ad3 0fbe
00000130: 87bb 6f3e 1748 b8bd 11f3 d73f f10c 893d
00000140: d343 153d 3e0c c0bf 678c 75be 46a0 9ebe
00000150: 770d a03d 54e5 873d bfef 7a3e 8307 b53c
00000160: 6008 96bd df30 ff3d 41d1 763c 5fa6 34bd
00000170: 8180 90be abfb 0fbe c0ae 613e ec79 2dbe
00000180: 88e4 77be 800d 973e ac6c 07be 5305 b2be
00000190: 1d39 453e a225 ddbe 6a81 813e cc3c 5140
000001a0: 4f9c b3be b220 bcbe b442 eebd 3f0e f7bc
000001b0: d617 abbd e9b7 34bf 5f5a 54be 3054 8ebd
000001c0: 50a9 f13e 9114 8cbe f448 8abd 5764 45be
000001d0: d99e edbe a3a8 e9bd 21cd c9bd c302 91be
000001e0: 6d2a 86be 95cb 17bf 9d52 8fbe b036 a73e
000001f0: 745b 27bf d020 93be d507 00be 2c3b abbe
00000200: 1c79 6a3b 2fc1 cfbd 9265 adbe da17 1dbe
00000210: 7177 a2be d286 94be fa4d c3bf 9bd6 803c
00000220: 828a 16bc 0cbe ffbe d9ce dabe 203c ccbe
00000230: fee2 00bf 5e17 b8be c360 f63e 2a42 803d
00000240: 9716 913d 39b2 1bbf 9042 c4be 3f08 98be
00000250: d525 ebbe 489d 9bbe 0437 b9be 4730 e8bd
00000260: 0ab9 f1be 3d0b 4c3e 9c6e 86bd 0686 99be
00000270: c7c4 07bc 9bec af3c 417e 753d f42d 88bd
00000280: 3787 dfbe 5b9a 0cbe 6218 babe ef03 d1be
00000290: b0df 37bd d908 94be 7ee1 47bc 2279 a1be
000002a0: 26ad 0abf f2c3 cabd dd74 b83e 6be1 6abd
000002b0: 313b a3be 4414 a9bc 44da aebe 54a7 a73d
000002c0: a145 1cbe 3426 edbe 0b1b 9ebd 9e9f a5bd
000002d0: 9fd5 ec3c 99bf 89be 1b0e 78bd be0f 4c3d
000002e0: da77 b8be 841c 913d 3e7c a93a fe0f 85be
000002f0: 09e1 0e3d b320 debe 5b07 ccbe 40bd b13d
00000300: 19c3 7fbe 73bd ccbe 3cc9 afbe 5ab2 99bf
00000310: 5773 25be 6616 b4bd 605b fabe 9b78 14be
00000320: ab71 4abd 130a c9bd 3e87 a0be 236d 64be
00000330: 329b 61bd 7c5a 4abe ff93 23be df07 c23d
00000340: 6a60 f4bf f268 10bd b1d1 6a3d 2dce 82bc
00000350: 6c9d a0be c51b a5be 54ad 0dbf 6d02 01be
00000360: fafd 9abf 02e8 5d3e f7bf ef3d b399 99be
00000370: 7cc5 d1be 0315 1bbf 61a5 f33d 7cc5 acbc
00000380: 1539 73bd 699d 1fbd 25db f83e 17c7 38be
00000390: 7bec babf a631 693e ca24 813e 041e 80bd
000003a0: ca74 153d b0fc 2a3d 517e c63e e80a 7a3d
000003b0: 3b90 63be 4f66 893c 1020 713e 20c2 dd3d
000003c0: b643 c2be 83c7 8a3e 1ae4 ab3c ae68 36be
000003d0: 3f53 023d cea8 833e f251 71bd 22e4 283e
000003e0: 4664 3e3e cca0 53be 6ecf 743d 72bc 8bbe
000003f0: 8845 3a3d 498d 3a3e 78b1 87bd f482 183e
-0.102745675 0.2941457 0.554729 0.15900172 -0.3418854 -0.34337887 0.100615785 -0.35469007
0.2876758 -0.26186186 -0.05350045 -0.5624119 -1.215214 -0.05053885 -0.44975424 0.060929015
-0.24055225 0.55415595 -0.18584152 -0.3535048 0.18037353 0.07712852 -0.10727999 -0.31305528
-0.2285372 -1.1912519 0.11427373 -0.43400535 0.5182306 -0.028212933 -0.064358726 -0.33978808
-0.38828135 -0.42403328 -0.11298255 0.23473561 -0.43955463 0.017158989 -0.11665276 0.3012258
-0.41256294 -0.5180794 -0.2686278 -0.5558898 -0.23600753 -0.28473824 -0.25476643 -0.32244173
-0.036170308 0.23715234 0.0056352867 -0.326584 -0.18894073 -2.3492777 -0.2348955 -0.036162905
-0.17594734 0.12889048 -0.3813569 0.10640609 -0.3339939 0.32926568 0.02981636 0.15543233
0.019529456 0.25465417 -0.08386322 0.25635144 -0.20200835 -0.076061144 -0.07697846 0.023868533
0.426091 -0.5031973 0.019507581 -0.14045349 0.2341138 -0.08998125 1.6871053 0.066919215
0.036441635 -1.5003736 -0.2397934 -0.30981654 0.07815068 0.06635538 0.24505518 0.022098308
-0.07325816 0.12460493 0.015064538 -0.044103976 -0.2822304 -0.14060847 0.22039318 -0.16941041
-0.24208272 0.29502487 -0.13225049 -0.34769687 0.19260068 -0.43192774 0.25294048 3.2693357
-0.35080191 -0.36743695 -0.11633816 -0.03015816 -0.08354156 -0.70593125 -0.20737599 -0.06949651
0.47199488 -0.2735944 -0.06752196 -0.19276558 -0.46410254 -0.11409118 -0.09853578 -0.2832242
-0.26204243 -0.59295017 -0.27992716 0.3265891 -0.6537392 -0.2873597 -0.12502988 -0.33443582
0.0035777753 -0.10144269 -0.33866554 -0.1534113 -0.31731752 -0.2900911 -1.5258172 0.015727332
-0.009188296 -0.49949682 -0.42735937 -0.39889622 -0.5034636 -0.35955328 0.48120698 0.0626262
0.07084387 -0.6081882 -0.38332033 -0.2969379 -0.459273 -0.30393434 -0.36174786 -0.11337333
-0.47211486 0.19926162 -0.06564066 -0.29985064 -0.0082866615 0.021475127 0.05993486 -0.0664939
-0.43657848 -0.13730757 -0.36346728 -0.40823314 -0.04489106 -0.28913 -0.012199758 -0.3153773
-0.54170454 -0.09900655 0.3602666 -0.05734388 -0.31881097 -0.020639546 -0.34150898 0.08186212
-0.15260936 -0.4631821 -0.07720002 -0.08087085 0.028910456 -0.2690399 -0.060560327 0.0498197
-0.3602894 0.07085517 0.0012930704 -0.25988764 0.03488258 -0.43384323 -0.39849362 0.08678675
-0.24976768 -0.39988288 -0.34333217 -1.2007554 -0.1615728 -0.08793335 -0.4889784 -0.14499132
-0.04942481 -0.09816375 -0.31353182 -0.22307257 -0.055079646 -0.1976108 -0.15974425 0.094741575
-1.9091923 -0.035256334 0.057328884 -0.015967453 -0.31370103 -0.3224775 -0.553426 -0.12598582
-1.2108757 0.21670535 0.11706536 -0.30000076 -0.4097098 -0.60578936 0.11896778 -0.021090262
-0.05938061 -0.038968477 0.48604694 -0.18044697 -1.4603418 0.22772846 0.2522338 -0.06255725
0.03648833 0.041744888 0.38768247 0.061045557 -0.22222988 0.016772417 0.23547387 0.10828042
-0.37942284 0.2710534 0.02098279 -0.1781337 0.03181767 0.25714725 -0.05891604 0.16493276
0.18592939 -0.20666808 0.059768133 -0.2729221 0.045476466 0.18217959 -0.06625646 0.14893705

network.4.bias f4 [28]
00000000: b83e fbbf 50de 2ac0 4266 99be b499 afbf
00000010: c656 15be 8b36 03c0 142d 0bc0 7cd0 47bf
00000020: 163c 25c0 4e06 36bf 07bb 92bf 1c1c 17bf
00000030: 20ec 3dc0 2599 5541 07c2 20c0 857c 03c0
00000040: a84a d9bf edeb 3cc0 1fd1 dabf ee67 1ec0
00000050: 8edc 9fbf 910b 39bf 411b 51c0 711e febf
00000060: da52 83c0 21b7 02c0 7d6e 77bf 3344 6bc0
-1.9628515 -2.6698189 -0.2996083 -1.3718781 -0.14583883 -2.050204 -2.1746264 -0.78052497
-2.5817924 -0.7110337 -1.1463326 -0.59027267 -2.967537 13.349889 -2.5118425 -2.054475
-1.6975908 -2.9518998 -1.7095069 -2.4750934 -1.2489183 -0.72283274 -3.2672884 -1.985304
-4.1038637 -2.0424273 -0.96652967 -3.6760375

network.6.weight f4 [1, 28]
00000000: 6a4a 73be 8d35 5d3f fa63 4b3f 8a74 c7bc
00000010: 5261 87be 2393 dfbf 5fdd 8dbf b2ed d13f
00000020: d51b 7bbe 6d43 a13f edcb d23f 80a6 ab3f
00000030: 9315 b7be f5cb 48be 8092 8b3f e1af af3d
00000040: ab73 283f 0fd1 ac3f f3cf 4f3f a95a 69be
00000050: 4a11 e03f 386f 8d3f ab98 b13e 38c0 963e
00000060: 302e 9cbf 8d9a 99bf 894b 2c3e 67f7 c3be
-0.23758855 0.86409837 0.7944943 -0.024347562 -0.26441437 -1.7466778 -1.1083182 1.6400664
-0.24522336 1.2598702 1.6468483 1.3410187 -0.35758647 -0.19609053 1.0904083 0.08578468
0.65801495 1.35013 0.8117668 -0.2278849 1.7505276 1.1049566 0.3468679 0.29443526
-1.2201595 -1.200029 0.1682569 -0.3827469
