HPC/Major_project/logistic_regression/models/exp1/74.pth (torch, 4959 bytes, 3 tensors)

network.0.weight f4 [28, 28]
000000 c7 cd 03 bf 83 06 57 bf 54 c6 db bd 30 85 13 bf
       -0.51485866 -0.8399431 -0.107311875 -0.57625103
000010 31 49 5f be 94 34 97 3d b9 f7 a6 3f 52 50 11 3e
       -0.21805264 0.07383075 1.3044349 0.14190796
000020 05 69 88 3f db cc 83 bf 0b 68 89 bc 4c e0 4d bf
       1.065705 -1.0296892 -0.016773244 -0.80420375
000030 fd 96 f5 3e 36 1b 51 bf e7 8e ee bd 77 59 d4 be
       0.47966757 -0.81682146 -0.1164835 -0.41474506
000040 f3 ee 27 3f a4 dd 02 3f 39 99 27 bf 43 34 ec be
       0.6559898 0.51119447 -0.65468174 -0.46133623
000050 54 b8 c9 3e d2 4e 56 be c9 46 9d 3e a0 6a 89 bf
       0.39398444 -0.20928505 0.30718067 -1.0735664
000060 49 78 1f 3e c0 d4 4c 3f 07 31 9b bf 9b ce 46 be
       0.15573229 0.8001213 -1.2124337 -0.19414751
000070 b1 60 f1 be aa df d3 3e 2e 9f a4 3d e2 31 76 3e
       -0.47144082 0.4138158 0.080381736 0.24042466
000080 3c 6a 8f 3c ee de 44 3f b9 a3 e4 be 3a 58 56 bc
       0.017506711 0.76902664 -0.4465616 -0.013082558
000090 a4 f9 b7 3e f6 e4 b1 3f d6 88 af bc 69 72 2b bd
       0.35932648 1.3897998 -0.021427553 -0.041857157
0000a0 33 c8 56 3f fe 9b 9e 3f 58 b3 f7 3c 8a 91 e8 bd
       0.8389923 1.2391355 0.030236885 -0.113558844
0000b0 00 0e 6f 3f 2a 91 8c 3f 89 60 c8 3c 3e 17 a0 3a
       0.9338074 1.09818 0.024460094 0.0012213958
0000c0 1c 11 ec 3e a2 a5 f3 be 55 51 22 40 ab 5f 01 3e
       0.46106803 -0.47587305 2.536214 0.1263415
0000d0 16 10 1f 40 95 7c 2a c0 d1 8e 0e 40 db 52 93 c0
       2.4853568 -2.663854 2.2274668 -4.603864
0000e0 a3 07 ce bf 43 53 86 3d ad fc d4 3d e4 f3 99 bf
       -1.609608 0.0655885 0.103997566 -1.2027555
0000f0 cc 4c bd 3d 55 17 1c 3e f7 e6 2d be 12 34 6c 3b
       0.092431635 0.15243275 -0.16982637 0.0036041779
000100 8b 93 32 3f b9 fa 7b 3e 8d 68 85 3e 33 d9 e5 bc
       0.6975638 0.24607362 0.26056328 -0.02805767
000110 94 88 b0 3e 5a 89 fa 3e ea 54 bd 3d 4d 85 33 bd
       0.344792 0.48932916 0.09244712 -0.043828297
000120 84 82 ac 3e a7 3b fc 3e a9 72 dc ba 61 40 53 3d
       0.33693326 0.4926426 -0.0016818839 0.05157507
000130 27 98 d8 3e cc 05 0d c0 af 49 b5 3e 24 33 0d 3f
       0.42303583 -2.2034788 0.3540778 0.5515616
000140 60 b2 77 bc 94 2f fc c0 af 4b 40 40 32 8d c2 c0
       -0.0151182115 -7.880808 3.0046194 -6.0797358
000150 c2 cc 3a 3f a3 34 a8 bc 98 49 ba bc d8 8f 94 3f
       0.72968686 -0.020532912 -0.02274017 1.1606398
000160 b3 fb 08 3d 45 be e9 bd 9d 71 f1 3d a2 07 13 3d
       0.033443164 -0.11413244 0.11789248 0.03589595
000170 93 70 84 3e 92 f8 b9 bd e9 1f b6 3d 67 dd 0f 3c
       0.25867137 -0.09080614 0.08892805 0.008780814
000180 c1 d2 fc 3c d5 93 33 be 14 40 eb bc 62 c2 c9 3d
       0.030862214 -0.17536862 -0.028717078 0.09851529
000190 ec b8 be 3d a5 ab f9 3d 44 7e 23 bd 9d 59 ba 3d
       0.09312615 0.12190942 -0.03991534 0.090991236
0001a0 53 e1 85 3e 9d 23 03 bf b2 44 37 3d 53 09 f2 bd
       0.2614847 -0.51226217 0.044743247 -0.11818185
0001b0 d7 fe 61 bf 43 ab d1 3e b5 86 64 40 72 96 48 c1
       -0.8827948 0.40950975 3.5707219 -12.53673
0001c0 40 98 a3 c0 78 64 3b be 09 be 85 3b 7f 82 1a c0
       -5.112335 -0.18300045 0.004081492 -2.4142148
0001d0 65 d2 f4 3c dd b6 2b 3f cd ce 99 3d 22 51 0e bd
       0.02988548 0.670759 0.07510147 -0.034745343
0001e0 7c e1 f5 be f6 aa 09 3d 7c 51 cf 3c a3 79 7c bd
       -0.48023593 0.033610307 0.02530741 -0.06163944
0001f0 c6 2d 83 bd 4e fe 3d 3e 94 c7 67 bc 27 31 95 3c
       -0.06405215 0.18554041 -0.014146704 0.018211914
000200 05 df 50 3e 11 e5 cd 3d 24 1f ad bc 2d eb 65 3b
       0.20397575 0.100534566 -0.021133013 0.0035082803
000210 61 09 ca 3e 5e 2a 43 3e 3d ed 50 3f fd bd be 3f
       0.3946028 0.1905913 0.81611997 1.490173
000220 d7 f9 f3 be 8e b6 82 40 70 6d e8 c0 58 c1 a6 3f
       -0.4765155 4.0847845 -7.263359 1.3027754
000230 25 57 50 3e 26 9a 50 3d c1 fb 34 3c 73 6c ac 3e
       0.20345743 0.050928257 0.011046351 0.3367649
000240 40 a4 1d 3d 0a b8 98 3d e9 d7 94 bd 40 38 97 3c
       0.03848672 0.07456978 -0.07267744 0.01845944
000250 ab 35 9a bd 00 9a 50 3e b6 63 6a 3d 9e 22 dd bb
       -0.075297676 0.20371246 0.057223998 -0.0067485115
000260 65 a9 e9 3d d4 41 b9 3d b4 d2 dd bb 6e 44 73 3c
       0.114092626 0.09045759 -0.0067695025 0.014847858
000270 b1 01 c1 3e 74 be 27 3d 76 30 4c bc ec 9e 84 3c
       0.37696603 0.040953115 -0.012462726 0.016189061
000280 9e ab 01 3f fe c4 96 40 c3 2d 60 c1 b8 fa a8 be
       0.5065249 4.711547 -14.011172 -0.33003783
000290 9f d0 fd be 8f 84 6f 3f fa 90 4c c0 aa 77 6e 3f
       -0.49573228 0.93561643 -3.1963487 0.9315134
0002a0 da cd 05 3f be 72 d5 3c bf e9 03 3c f9 a8 27 3e
       0.5226723 0.02605569 0.008051335 0.16373052
0002b0 9b 8e 35 3d 69 c7 80 3d cc c6 95 3c b5 e8 72 bb
       0.044325452 0.062880345 0.01828327 -0.0037064974
0002c0 3e 12 09 be b2 17 84 3e b2 e6 a4 3d 2d e4 08 bc
       -0.13385865 0.25799328 0.08051814 -0.008355183
0002d0 b8 84 a7 be 5a c0 cb 3e 6a a5 14 bc 38 cc 86 3d
       -0.32718444 0.3979519 -0.009072641 0.065819204
0002e0 2e cb b1 be e4 46 ea 3e 41 1e e6 bb e4 0a f2 bc
       -0.34725326 0.4575721 -0.0070226495 -0.029546209
0002f0 1f ab 0f bf 4b 18 8f 3d 52 81 a6 3d 9b aa f3 be
       -0.56120485 0.069870554 0.08130135 -0.475911
000300 a3 a2 4f 3f 4c b9 51 c1 40 13 8e be 13 79 f8 bd
       0.8110754 -13.1077385 -0.27749062 -0.12132468
000310 77 0b 47 40 6a 9a 81 c0 cf b1 42 bd 99 91 79 3f
       3.1100748 -4.0500994 -0.047532853 0.9748779
000320 8b 2d 12 bc 0e 35 e5 3f 24 d1 c0 40 0b c0 14 be
       -0.008921991 1.7906816 6.02553 -0.14526384
000330 46 b6 83 bf 56 34 2d 3f 83 ed e3 be 19 f7 3e 3e
       -1.029 0.67657983 -0.44517145 0.18648948
000340 60 c0 38 3f f1 42 27 3f ee 2f 7e be 75 7b 07 3d
       0.7216854 0.6533652 -0.24822971 0.033076722
000350 42 d9 fe 3e ae 09 17 3e 1f 22 a6 bd b5 e9 65 bd
       0.4977513 0.14749786 -0.08111977 -0.056131084
000360 d5 4a 93 3e 99 6f 3c 3e bb c6 1c bf 8d a9 c6 be
       0.2876803 0.18401946 -0.6124074 -0.38801232
000370 5a 1c 80 be 56 70 5e bf 39 73 64 bd 1a 63 74 3f
       -0.2502163 -0.8689016 -0.055773947 0.95463717
000380 92 b9 0d 40 40 07 d2 be 10 48 42 3d eb 48 aa 3f
       2.2144513 -0.41021156 0.047432005 1.3303503
000390 9e 89 0b 3e c6 33 f6 be cb e3 bd 3d 87 b7 1c be
       0.13626716 -0.48086375 0.09271964 -0.15304385
0003a0 c3 e3 30 3f 23 00 36 bf 18 ba bd bb 16 ad d6 bc
       0.69097537 -0.7109396 -0.0057900064 -0.02620558
0003b0 24 64 c5 be 4f c1 91 3e eb e0 62 bc 43 e8 4c 3d
       -0.38552964 0.28467795 -0.01384757 0.05002619
0003c0 7c d9 5d bd ba 30 2f 3f da d5 ef 3d c1 1c 6f bd
       -0.054162487 0.68433726 0.11710711 -0.05837703
0003d0 84 aa b5 3e 55 45 7a bf 51 8d 71 c0 34 b2 9c be
       0.35481656 -0.9776204 -3.7742503 -0.30604708
0003e0 f5 c3 af 3f 3f 38 65 40 a4 4b 28 40 8c f8 18 c0
       1.3731676 3.581558 2.6296167 -2.39017
0003f0 c4 91 49 3f f9 f5 80 bc c4 78 0c bc b5 5e 07 3f
       0.78738046 -0.015742289 -0.008573715 0.52878886

network.0.bias f4 [28]
000000 3c 41 31 c1 85 d2 9c 3f 17 64 f2 c0 e8 52 89 3f
       -11.078426 1.2251745 -7.574718 1.0728426
000010 54 89 3b bf c2 de 73 c0 27 68 31 c1 06 8f 68 c1
       -0.7325642 -3.810471 -11.087928 -14.534918
000020 e9 66 2c c1 fa 5a 54 c0 e3 0a 95 c0 97 ad 55 be
       -10.775125 -3.3180528 -4.657579 -0.20867
000030 63 15 8f c0 3a 4f 95 c0 81 27 79 c0 80 f7 42 c1
       -4.4713607 -4.665921 -3.8930361 -12.185425
000040 5e 86 6d c0 3c 6c 8a c0 1b 08 f8 c0 ba 01 33 c1
       -3.7113261 -4.325712 -7.7509894 -11.187922
000050 3c bb 1c bf cd bb 43 3f 18 fa 8e c0 84 58 e1 c0
       -0.61223197 0.76458436 -4.468029 -7.042055
000060 ab a9 21 40 28 d6 22 c1 12 c7 2a c0 2b 46 f0 c0
       2.5259807 -10.177284 -2.6684003 -7.5085654

network.2.weight f4 [1, 28]
000000 7a 16 a6 3d cb 6e 0d 3e 1f 06 0e be 39 0e 62 3e
       0.08109756 0.13811795 -0.13869523 0.22075738
000010 a1 96 65 3e 7d ea 62 3e eb ad 6d 3e 81 4e 1b 3e
       0.22420742 0.22159763 0.23210876 0.15166666
000020 84 2c 2c 3e 01 5f 8e be 2e 86 55 be 63 82 14 3e
       0.16813856 -0.27806857 -0.20851967 0.14502864
000030 34 5a 37 bc 6a e8 95 3d 1c e9 52 3e 61 0d e4 3d
       -0.01119094 0.0731972 0.20596737 0.11135364
000040 81 07 c6 3e 43 23 03 be 44 1c 00 3e 70 6e 12 be
       0.386776 -0.1280642 0.12510782 -0.14299941
000050 10 6d c6 be 52 c5 4d be ff f5 f1 bd 90 1a c9 bd
       -0.38755083 -0.20094803 -0.11814498 -0.098195195
000060 e2 71 33 be 80 fc 40 3f 06 55 26 be 77 16 0e be
       -0.17523912 0.75385284 -0.16243371 -0.13875757
