HPC/Major_project/logistic_regression/models/exp1/80.pth (torch, 4959 bytes, 3 tensors)

network.0.weight f4 [28, 28]
0	0xbf03cdc7	-0.51485866
1	0xbf570683	-0.8399431
2	0xbddbc654	-0.107311875
3	0xbf138530	-0.57625103
4	0xbe5f4931	-0.21805264
5	0x3d973494	0.07383075
6	0x3fa6f7b9	1.3044349
7	0x3e115052	0.14190796
8	0x3f886905	1.065705
9	0xbf83ccdb	-1.0296892
10	0xbc89680b	-0.016773244
11	0xbf4de04c	-0.80420375
12	0x3ef596fd	0.47966757
13	0xbf511b36	-0.81682146
14	0xbdee8ee7	-0.1164835
15	0xbed45977	-0.41474506
16	0x3f27eef3	0.6559898
17	0x3f02dda4	0.51119447
18	0xbf279939	-0.65468174
19	0xbeec3443	-0.46133623
20	0x3ec9b854	0.39398444
21	0xbe564ed2	-0.20928505
22	0x3e9d46c9	0.30718067
23	0xbf896aa0	-1.0735664
24	0x3e1f7849	0.15573229
25	0x3f4cd4c0	0.8001213
26	0xbf9b3107	-1.2124337
27	0xbe46ce9b	-0.19414751
28	0xbef17986	-0.47163028
29	0x3ed4952a	0.41520053
30	0x3da3cc34	0.07997933
31	0x3e76e399	0.24110259
32	0x3c927ab9	0.017880784
33	0x3f45195f	0.7699184
34	0xbee4aaec	-0.44661653
35	0xbc550889	-0.013002523
36	0x3eb7fade	0.35933584
37	0x3fb1e64b	1.3898405
38	0xbcae1f33	-0.021255111
39	0xbd2a9db1	-0.041654292
40	0x3f567c7a	0.83783686
41	0x3f9e7660	1.2379875
42	0x3cf35ded	0.029707873
43	0xbde84ef0	-0.11343181
44	0x3f6ef054	0.9333546
45	0x3f8c9030	1.0981503
46	0x3cc7c310	0.024385005
47	0x3b0506dc	0.0020298278
48	0x3eec2e93	0.46129283
49	0xbef4078a	-0.47662002
50	0x402270af	2.5381277
51	0x3e01f30c	0.12690371
52	0x401f33b4	2.4875307
53	0xc02a7d8c	-2.6639128
54	0x400e71a4	2.225686
55	0xc0934047	-4.6015964
56	0xbfce1856	-1.6101177
57	0x3d852a89	0.065022536
58	0x3dd54ebd	0.10415409
59	0xbf9a40ca	-1.2051022
60	0x3dbde10f	0.09271442
61	0x3e1d5731	0.15365292
62	0xbe2db9e2	-0.1696544
63	0x3b81f83d	0.00396636
64	0x3f328aab	0.6974284
65	0x3e7c4a5c	0.24637741
66	0x3e859064	0.26086724
67	0xbce30aa5	-0.027715037
68	0x3eb057bc	0.34441936
69	0x3efa6626	0.48906058
70	0x3dbc7ffb	0.09204098
71	0xbd3310f0	-0.043717325
72	0x3eabef8a	0.3358119
73	0x3efc4d72	0.49277836
74	0xbab51518	-0.001381549
75	0x3d52830d	0.05139451
76	0x3ed7d3f0	0.42153883
77	0xc00ccd59	-2.2000334
78	0x3eb55800	0.354187
79	0x3f0d514c	0.55202174
80	0xbc73f201	-0.014889241
81	0xc0fc33cb	-7.8813224
82	0x40404856	3.004415
83	0xc0c29a1a	-6.081311
84	0x3f3b00a9	0.7304788
85	0xbca73393	-0.020410335
86	0xbcba50e4	-0.02274365
87	0x3f947721	1.1598855
88	0x3d0c6073	0.03427167
89	0xbde8ad4f	-0.11361181
90	0x3df1f9bf	0.118152134
91	0x3d172040	0.03689599
92	0x3e848992	0.25886208
93	0xbdb6fbc7	-0.089347415
94	0x3db6a22f	0.08917653
95	0x3c12f03c	0.008968409
96	0x3d00e404	0.031467453
97	0xbe32c265	-0.17456968
98	0xbce7013b	-0.028198829
99	0x3dc93984	0.09825423
100	0x3dbfcd9f	0.09365391
101	0x3df800de	0.121095404
102	0xbd265b17	-0.040614214
103	0x3dbc62de	0.09198545
104	0x3e866a18	0.26252818
105	0xbf038be8	-0.51385355
106	0x3d1f4fbb	0.038894396
107	0xbdf21335	-0.1182007
108	0xbf623e80	-0.8837662
109	0x3ed1c6b4	0.4097191
110	0x406469ac	3.5689497
111	0xc14898dc	-12.537319
112	0xc0a393ae	-5.1117773
113	0xbe3b68b3	-0.18301658
114	0x3b840a47	0.0040295455
115	0xc01a87e9	-2.4145453
116	0x3cf805f2	0.030276272
117	0x3f2bfa8f	0.671792
118	0x3d991843	0.07475331
119	0xbd0cf214	-0.03441055
120	0xbef5c293	-0.4800001
121	0x3d0a86dd	0.033820022
122	0x3cd27e43	0.025694972
123	0xbd808dec	-0.062770694
124	0xbd83726e	-0.0641831
125	0x3e3dbc54	0.18528873
126	0xbc68f4a1	-0.01421848
127	0x3c929cfd	0.017897123
128	0x3e50e6f9	0.20400609
129	0x3dce2bf5	0.10066978
130	0xbcadda3a	-0.021222223
131	0x3b8154cb	0.0039468757
132	0x3eca786d	0.39545003
133	0x3e41dad8	0.18931139
134	0x3f4ff894	0.81238675
135	0x3fbec045	1.4902426
136	0xbef3e4f0	-0.47635603
137	0x4082c050	4.0859756
138	0xc0e862f2	-7.2620783
139	0x3fa6d966	1.3035095
140	0x3e5048ba	0.20340243
141	0x3d4f7bd6	0.05065521
142	0x3c332c90	0.0109359175
143	0x3eac374d	0.3363594
144	0x3d1f4429	0.038883362
145	0x3d9df34f	0.07712423
146	0xbd944b56	-0.07240932
147	0x3c98234b	0.018571516
148	0xbd9b1d9e	-0.075740084
149	0x3e52375c	0.2052893
150	0x3d6a6d4c	0.05723314
151	0xbbd14bc2	-0.006387205
152	0x3de80cf3	0.11330595
153	0x3dba9b72	0.0911168
154	0xbbdde4ca	-0.0067716585
155	0x3c7205b5	0.0147718685
156	0x3ec0ba9a	0.37642366
157	0x3d271056	0.040787064
158	0xbc67b8c5	-0.014143174
159	0x3c84fae5	0.016232917
160	0x3f01a6dd	0.5064524
161	0x409685e6	4.703845
162	0xc16044f4	-14.016834
163	0xbea951f2	-0.33070332
164	0xbefc2f88	-0.49255013
165	0x3f6e4101	0.9306794
166	0xc04c5d48	-3.1931934
167	0x3f6f12a4	0.9338782
168	0x3f060e46	0.5236553
169	0x3cd6abea	0.026205022
170	0x3bf68569	0.007523228
171	0x3e28934e	0.16462442
172	0x3d361d13	0.04446132
173	0x3d82e024	0.06390408
174	0x3c998aae	0.018742885
175	0xbb815eec	-0.003948083
176	0xbe09f974	-0.13474065
177	0x3e83a92a	0.25715
178	0x3da6a82c	0.08137545
179	0xbc0f2f20	-0.008739263
180	0xbea79211	-0.32728627
181	0x3ecbd0bb	0.39807686
182	0xbc161281	-0.009159685
183	0x3d85e401	0.06537629
184	0xbeb1b201	-0.3470612
185	0x3eea4b84	0.4576074
186	0xbbd68413	-0.006546506
187	0xbcf72aa4	-0.0301717
188	0xbf0fd548	-0.56184816
189	0x3d8e6613	0.06953063
190	0x3da6ee4b	0.081509195
191	0xbef3bda2	-0.47605616
192	0x3f4f7392	0.8103572
193	0xc151bf62	-13.109224
194	0xbe8e5604	-0.278
195	0xbdf897ff	-0.12138366
196	0x404723e6	3.111566
197	0xc081b0b7	-4.0528216
198	0xbd41dfbc	-0.04733251
199	0x3f7a3ecb	0.97752064
200	0xbc17a560	-0.009255737
201	0x3fe56adb	1.7923235
202	0x40c0ce25	6.025164
203	0xbe149776	-0.14510903
204	0xbf841242	-1.0318072
205	0x3f2d5810	0.677125
206	0xbee39a1a	-0.44453508
207	0x3e3ea010	0.18615746
208	0x3f38b37c	0.7214887
209	0x3f271d20	0.65278816
210	0xbe7e0f61	-0.24810554
211	0x3d088922	0.033333905
212	0x3eff1237	0.49818584
213	0x3e17ae67	0.14812623
214	0xbda5c04d	-0.08093319
215	0xbd652349	-0.055941854
216	0x3e93203b	0.28735527
217	0x3e3b8e4b	0.18315999
218	0xbf1c79df	-0.6112346
219	0xbec6c775	-0.3882405
220	0xbe80409a	-0.25049287
221	0xbf5e13e3	-0.86749095
222	0xbd685c74	-0.056728795
223	0x3f740f33	0.9533569
224	0x400db667	2.214258
225	0xbed243a2	-0.41067225
226	0x3d456c77	0.048199143
227	0x3faa6fbd	1.331535
228	0x3e0bbbd5	0.13645871
229	0xbef59456	-0.47964734
230	0x3dbc9ea1	0.092099436
231	0xbe1bf975	-0.15231879
232	0x3f315b0f	0.6927957
233	0xbf359378	-0.70928144
234	0xbbb0cfb7	-0.0053958553
235	0xbccffb0b	-0.025388261
236	0xbec5cec0	-0.386343
237	0x3e914928	0.28376126
238	0xbc4fe5d9	-0.012689077
239	0x3d4c57fa	0.04988859
240	0xbd637c5c	-0.05553852
241	0x3f2f0e06	0.68380773
242	0x3df08048	0.11743218
243	0xbd6efab3	-0.058344554
244	0x3eb4b63f	0.35295293
245	0xbf79916c	-0.9748752
246	0xc071e8f3	-3.779843
247	0xbe9c6f89	-0.30553845
248	0x3fafddf6	1.3739612
249	0x40653043	3.5810707
250	0x402860fa	2.630919
251	0xc018e319	-2.388861
252	0x3f494f67	0.78636783
253	0xbc7e6fe8	-0.01552961
254	0xbc07904d	-0.00827415
255	0x3f072fdd	0.5280741

network.0.bias f4 [28]
0	0xc131413c	-11.078426
1	0x3f9cff8b	1.2265486
2	0xc0f25877	-7.573299
3	0x3f893725	1.0719954
4	0xbf3bccfd	-0.7335966
5	0xc0738de1	-3.8055346
6	0xc1316094	-11.086079
7	0xc16889e0	-14.533661
8	0xc12c641f	-10.774444
9	0xc0545dd9	-3.318228
10	0xc094f7a7	-4.655231
11	0xbe552138	-0.20813453
12	0xc08f1563	-4.4713607
13	0xc09531b0	-4.6623154
14	0xc0790d39	-3.891432
15	0xc142f579	-12.18493
16	0xc06d5e49	-3.7088797
17	0xc08a5de9	-4.3239636
18	0xc0f7fa1d	-7.7492814
19	0xc132f811	-11.185563
20	0xbf1cac2b	-0.6120021
21	0x3f4521fd	0.77004987
22	0xc08ea455	-4.45756
23	0xc0e1520d	-7.041266
24	0x4021a8b7	2.5259225
25	0xc122d4d0	-10.176956
26	0xc02abb04	-2.6676645
27	0xc0f045c2	-7.5085154

network.2.weight f4 [1, 28]
0	0x3da6167a	0.08109756
1	0x3e0d0d23	0.13774543
2	0xbe0ddaff	-0.13853072
3	0x3e6211f3	0.2207716
4	0x3e650775	0.22366126
5	0x3e63edf1	0.22258736
6	0x3e6e5ecd	0.23278351
7	0x3e1beaa1	0.15226223
8	0x3e2cda37	0.16880117
9	0xbe8e2ddb	-0.2776936
10	0xbe55aa11	-0.20865656
11	0x3e14bdf9	0.14525594
12	0xbc375a34	-0.01119094
13	0x3d968cc5	0.073510684
14	0x3e52ddf6	0.20592484
15	0x3de30922	0.11085726
16	0x3ec642ae	0.38722748
17	0xbe041c3a	-0.12901393
18	0x3e005f54	0.12536365
19	0xbe112ba7	-0.14176808
20	0xbec6867d	-0.3877448
21	0xbe4d537c	-0.20051378
22	0xbdf2c644	-0.118542224
23	0xbdc7a6e5	-0.097486295
24	0xbe32ee3f	-0.17473696
25	0x3f4164a4	0.7554419
26	0xbe271a99	-0.1631874
27	0xbe0e2d11	-0.13884379
