HPC/Major_project/logistic_regression/models/exp1/84.pth (torch, 4959 bytes, 3 tensors)

network.0.weight f4 [28, 28]
00000000: c7cd 03bf 8306 57bf 54c6 dbbd 3085 13bf
00000010: 3149 5fbe 9434 973d b9f7 a63f 5250 113e
00000020: 0569 883f dbcc 83bf 0b68 89bc 4ce0 4dbf
00000030: fd96 f53e 361b 51bf e78e eebd 7759 d4be
00000040: f3ee 273f a4dd 023f 3999 27bf 4334 ecbe
00000050: 54b8 c93e d24e 56be c946 9d3e a06a 89bf
00000060: 4978 1f3e c0d4 4c3f 0731 9bbf 9bce 46be
00000070: 8d9c f1be 268e d43e 81d9 a33d 2a09 773e
00000080: dded 913c ec14 453f e6b9 e4be 5a03 55bc
00000090: 56fa b73e 78df b13f fa00 afbc da10 2abd
000000a0: e575 563f 8975 9e3f ce85 f23c a935 e8bd
000000b0: c8f7 6e3f 3c92 8c3f 52e7 c73c d163 023b
000000c0: b02e ec3e b7f8 f3be c976 2240 bf07 023e
000000d0: c136 1f40 eb7f 2ac0 4170 0e40 4e3e 93c0
000000e0: 3a16 cebf 6e44 853d 682f d53d 9249 9abf
000000f0: 8512 be3d f875 1d3e a0a1 2dbe b13f 823b
00000100: 6182 323f e06b 7c3e af9c 853e 8a9a e3bc
00000110: a349 b03e 4e65 fa3e e99d bc3d fd09 33bd
00000120: 53e0 ab3e a550 fc3e 2422 b6ba 7598 523d
00000130: 6fcf d73e 1bc9 0cc0 f649 b53e 624f 0d3f
00000140: ecb2 74bc ac34 fcc0 f746 4040 8b9b c2c0
00000150: 83f4 3a3f 3015 a8bc 2ac8 b9bc 8e78 943f
00000160: ac06 0c3d f5ee e8bd a5c9 f13d b146 173d
00000170: 209b 843e 6638 b7bd 3467 b63d 40b8 153c
00000180: 6d13 013d 19a5 32be 5971 e7bc 1b47 c93d
00000190: f31f c03d 18e4 f73d 205c 26bd b14c bc3d
000001a0: 2e66 863e 4d94 03bf bc09 1e3d 75d5 f1bd
000001b0: a23f 62bf 0ac6 d13e 3367 6440 2299 48c1
000001c0: ec94 a3c0 ad83 3bbe 940c 853b fb86 1ac0
000001d0: 8449 f73c 43f1 2b3f 55d9 983d 44f2 0cbd
000001e0: a3b6 f5be e957 093d 0cc8 d13c 7d79 80bd
000001f0: fd7b 83bd edaf 3d3e 414e 6abc 24b3 923c
00000200: 3404 513e 3223 ce3d e174 adbc c9a3 7d3b
00000210: 5878 ca3e c5c6 413e 52eb 4f3f bec2 be3f
00000220: 5ce6 f3be d2bf 8240 3763 e8c0 b2d6 a63f
00000230: 061a 503e c9f2 4e3d b140 343c 0c41 ac3e
00000240: c2f4 1e3d eb0f 9e3d dd5b 94bd 32f5 973c
00000250: 520f 9bbd f52e 523e 8434 6a3d c55e cabb
00000260: 6fec e73d 8bbd ba3d 6cac dfbb 4974 723c
00000270: c1c4 c03e d7eb 263d c0c9 68bc 643b 843c
00000280: d09f 013f 3981 9640 2446 60c1 b24c a9be
00000290: 5705 fcbe 8425 6e3f f458 4cc0 941f 6f3f
000002a0: 460e 063f 85ee d53c 389a f53b 4fc3 283e
000002b0: 8821 363d ba37 833d 5912 993c eb0f 81bb
000002c0: e8f9 09be d5a0 833e bba6 a63d 0494 0ebc
000002d0: ba8e a7be c4d8 cb3e 821f 17bc a5d6 853d
000002e0: efab b1be df55 ea3e ce5a d5bb 4ab4 f7bc
000002f0: cbda 0fbf 2e8b 8e3d 6f54 a73d f1bc f3be
00000300: 3479 4f3f 8dbf 51c1 6c45 8ebe 5a47 f8bd
00000310: 2a24 4740 15b3 81c0 fbc8 41bd 3b48 7a3f
00000320: 4871 17bc 386c e53f 83cd c040 ec8f 14be
00000330: 2219 84bf d055 2d3f e78c e3be 4b9d 3e3e
00000340: 3ab4 383f 4d19 273f e818 7ebe 309c 083d
00000350: ed1b ff3e 51c0 173e 76bb a5bd e518 65bd
00000360: 6b1f 933e 1590 3b3e f26e 1cbf 28c8 c6be
00000370: 6b47 80be 5d11 5ebf dda4 68bd 770a 743f
00000380: cbb3 0d40 1652 d2be 6885 453d 4c6d aa3f
00000390: f6b8 0b3e 04af f5be 6e87 bc3d bee4 1bbe
000003a0: 6553 313f 5e98 35bf 5708 b1bb 8475 cfbc
000003b0: 31df c5be 2b3c 913e f3cf 4ebc 9151 4c3d
000003c0: c672 63bd e909 2f3f b88c f03d 46fb 6ebd
000003d0: 8fbc b43e a678 79bf 5fef 71c0 6066 9cbe
000003e0: cfd7 af3f 6e2a 6540 d45d 2840 99e5 18c0
000003f0: 7156 493f 996a 7cbc 38cf 07bc 9525 073f
-0.51485866 -0.8399431 -0.107311875 -0.57625103 -0.21805264 0.07383075 1.3044349 0.14190796
1.065705 -1.0296892 -0.016773244 -0.80420375 0.47966757 -0.81682146 -0.1164835 -0.41474506
0.6559898 0.51119447 -0.65468174 -0.46133623 0.39398444 -0.20928505 0.30718067 -1.0735664
0.15573229 0.8001213 -1.2124337 -0.19414751 -0.4718975 0.415147 0.0800047 0.2412459
0.017813617 0.7698505 -0.4467308 -0.013001287 0.3593318 1.3896322 -0.02136277 -0.041519977
0.8377364 1.2379619 0.029604819 -0.1133836 0.93346834 1.0982127 0.024402294 0.001989592
0.4612937 -0.47650692 2.5385 0.12698267 2.487717 -2.6640575 2.2256014 -4.6013556
-1.6100533 0.065071926 0.10409433 -1.2053702 0.09280876 0.15377033 -0.16956186 0.0039748778
0.6973019 0.24650526 0.26096103 -0.02778365 0.3443118 0.48905414 0.092098065 -0.043710697
0.33569583 0.49280277 -0.0013895673 0.051414926 0.42150447 -2.1997745 0.3540799 0.55199254
-0.014935236 -7.8814297 3.0043314 -6.081487 0.73029345 -0.020517915 -0.022678453 1.159929
0.03418605 -0.113737024 0.11806039 0.03693265 0.258996 -0.08946304 0.08906403 0.009138167
0.031512666 -0.17445792 -0.02825229 0.098280154 0.09381094 0.12104052 -0.0406152 0.09194315
0.26249832 -0.51398164 0.038583502 -0.11808292 -0.88378346 0.40971404 3.5687988 -12.537386
-5.111929 -0.18311949 0.0040603373 -2.4144886 0.030186422 0.6716501 0.07463328 -0.03441073
-0.47990903 0.033531103 0.025608085 -0.06273172 -0.06420133 0.18524142 -0.014300884 0.017907687
0.2041176 0.10065307 -0.021173896 0.003870236 0.3954494 0.18923481 0.81218445 1.4903181
-0.47636688 4.0859156 -7.262111 1.303427 0.20322427 0.050524507 0.011001752 0.33643377
0.038807638 0.0771788 -0.07244084 0.018549535 -0.075712815 0.20525725 0.05717899 -0.006175848
0.11324393 0.09118184 -0.006825974 0.014798232 0.3765011 0.04075226 -0.014208257 0.0161416
0.5063448 4.7032743 -14.017124 -0.33066326 -0.49222824 0.93025994 -3.1929293 0.9340756
0.5236553 0.026114712 0.007495191 0.16480754 0.04446557 0.064071134 0.018685507 -0.003938665
-0.13474238 0.25708643 0.0813727 -0.008702282 -0.3272608 0.39813817 -0.009223821 0.06535081
-0.34701487 0.4576864 -0.006511069 -0.030237336 -0.56193227 0.0696014 0.08170401 -0.47605088
0.81044316 -13.109265 -0.2778734 -0.12122984 3.1115823 -4.0531106 -0.04731081 0.97766465
-0.009243317 1.7923651 6.025087 -0.14508027 -1.032017 0.67709064 -0.44443437 0.1861469
0.72150004 0.6527298 -0.24814188 0.033352077 0.49825993 0.14819457 -0.08092396 -0.055931944
0.28734908 0.18316682 -0.6110679 -0.38824582 -0.25054488 -0.86745244 -0.05679785 0.9532847
2.2140987 -0.41078252 0.04822293 1.3314605 0.13644776 -0.4798509 0.09205519 -0.15223977
0.69267875 -0.7093562 -0.0054026055 -0.02532459 -0.38646844 0.28366217 -0.012622821 0.049882475
-0.05552938 0.68374497 0.1174559 -0.0583451 0.3530011 -0.9744972 -3.780235 -0.30546856
1.3737735 3.5807147 2.6307268 -2.3890135 0.78647524 -0.015406274 -0.008289151 0.5279172

network.0.bias f4 [28]
00000000: 3c41 31c1 a909 9d3f 7457 f2c0 8137 893f
00000010: 0ecd 3bbf 4389 73c0 3760 31c1 c289 68c1
00000020: 4a65 2cc1 235f 54c0 a3f6 94c0 adf3 54be
00000030: 6315 8fc0 572f 95c0 a80b 79c0 abf4 42c1
00000040: 835c 6dc0 bc5e 8ac0 57f8 f7c0 c5f6 32c1
00000050: e0ab 1cbf a740 453f 239e 8ec0 9c50 e1c0
00000060: efa8 2140 aad4 22c1 cdbd 2ac0 d045 f0c0
-11.078426 1.2268573 -7.5731754 1.0720063 -0.73359764 -3.8052528 -11.08599 -14.533632
-10.774729 -3.3183067 -4.655107 -0.2079608 -4.4713607 -4.662029 -3.8913364 -12.184733
-3.7087715 -4.3240643 -7.749065 -11.185246 -0.6119976 0.77051777 -4.456804 -7.04109
2.525936 -10.17692 -2.6678345 -7.508522

network.2.weight f4 [1, 28]
00000000: 7a16 a63d 5441 0d3e 52f3 0dbe 561e 623e
00000010: 9410 653e d2cc 633e 7e4b 6e3e 5be6 1b3e
00000020: 5196 2c3e ed2f 8ebe 81a5 55be 35e0 143e
00000030: 345a 37bc 8e7d 963d 25ca 523e e733 e33d
00000040: 9226 c63e 60f2 03be 0b6f 003e 364e 11be
00000050: e39d c6be 5878 4dbe d6a3 f2bd 0bd6 c7bd
00000060: 200d 33be de6d 413f 5de8 26be 6c2e 0ebe
0.08109756 0.13794452 -0.1386235 0.22081885 0.22369605 0.22246101 0.23270985 0.15224592
0.16854216 -0.2777094 -0.20863916 0.14538653 -0.01119094 0.073481664 0.20584925 0.11093884
0.38701302 -0.12885427 0.1254236 -0.14189991 -0.38792333 -0.20065439 -0.118476555 -0.09757622
-0.17485476 0.7555827 -0.16299577 -0.13884896
