HPC/Major_project/logistic_regression/models/exp1/86.pth (torch, 28367 bytes, 7 tensors)

network.0.weight f4 [56, 28]
00000000: a1ee 28be c8bf dfbf 95c8 b83f 2542 2c3f
00000010: 6f7a bebd c91d bc3e abdf 303f 0229 b3bf
00000020: f7f9 05c1 8d0a dbc0 e50b f3bf d70e 993e
00000030: 81bd 8340 3790 22c0 c756 1d40 f21c 1abe
00000040: 35f5 6b3f 2a1c 29c0 d556 433f 4504 8abf
00000050: a8cc 2339 d9bf 70c0 8d30 77bd 7cea 0bc0
00000060: b634 b240 4b5e f240 0795 25c1 a07f ff40
00000070: 9331 6c40 ffbc c940 9027 163f fcc8 2740
00000080: a34b 05be 6125 52bf d097 773f 898c 9c3e
00000090: c442 b03f c015 8340 782e 59c1 cc35 683e
000000a0: 0e9e 81c0 5ff1 ae3f adc2 893f c363 b73e
000000b0: 7188 7e3c f31e cfbd 1725 573f 8073 483c
000000c0: 47fb 9f3e 6db8 9b3f 4821 03c0 7a7f a1bf
000000d0: 7571 a03f 94d9 36c0 9993 d83e 9b65 733f
000000e0: 37b5 0541 2be5 64c0 453c bfbe dfde d740
000000f0: a1d8 6dbe d1bb 3ec1 29c2 093f 7618 e83c
00000100: d354 7cbf 1bfb 4d41 fc92 6340 240a 403e
00000110: 402a 9240 9435 80c0 a3ed 973e 6164 0f3e
00000120: 9b09 a23b 5fd5 04c0 f40e 59bf d26b b83d
00000130: fa43 4fbf fba9 6fbf dcd3 fa3f 47a0 80c0
00000140: ebb8 1e40 bcd8 a5bf 2f9b bcbe efc6 0440
00000150: 9931 ba40 9a52 02c0 ddf9 a3bd 1fce 8240
00000160: 4fcb fcbe d795 9941 1361 5040 52b6 823b
00000170: 7ac9 8a40 42ec f5c0 a4d8 d0bf 7969 183f
00000180: 594b 773f 1669 8ac0 9ef5 bd3e d6ae 1b3e
00000190: cf5b 1abe 7b6e 67c0 1769 4e3e 5423 2fbd
000001a0: 7ea3 c23c 42f7 383e 6965 0140 7ee4 5cc0
000001b0: ee5b cc3f 3eba 06c0 dd64 3dc0 60aa 3940
000001c0: de77 6bc1 48c0 d4bf c6c2 ae3c 3962 10c1
000001d0: 08df bbbd 7097 723f 6501 143e b9a9 28bc
000001e0: 824b 96bf 412d 423f d272 193f 0d31 1abe
000001f0: b905 5e3d 04be 7d3e b68a 2b3e edbe 433e
00000200: d90f 503f 0382 ee3d 89be 4e3e fe84 f1bd
00000210: 405a 8c3f 8cdf 1240 9b8f ef3f ea8b a440
00000220: 3326 58bf 12ba 5841 b310 c4c1 dbe9 5f40
00000230: 7e88 3f3f 8f1c 153e 268b 263e e5fd 03c0
00000240: f86e b2bf 4595 cb40 4f7e f33f 7fbd 9a3d
00000250: b8da 85c0 d3d6 ac40 333d 59bf 2d8a 103f
00000260: b15f bdbe 2e30 9840 7734 043e 379b ae3f
00000270: 5e1b f03f 7e6f d03f a42b d5bf a731 10bd
00000280: ca50 d2bf 1720 b8c0 986e b2be 58c9 1ec0
00000290: e064 0b41 2145 e6c0 ace5 4fc0 75bd e940
000002a0: 04b0 07c1 5aab c4bf 571a d3be e01d 39c0
000002b0: 7f4c 81be 1d3f 46c1 4a5a 3241 66ee 5d3c
000002c0: b608 1240 ff00 00c1 8210 ccc0 12b6 01bd
000002d0: ba09 b93f cb06 7ec0 4bb3 95bf 95ea 1abe
000002e0: 21cb 5b3f 0f34 38c0 08f5 68bf 24bf 0b3e
000002f0: 296d 4f3f 80d0 87bf 9266 b840 9ce4 bf3f
00000300: 3181 e73e b3f0 4f40 d0eb b1c0 8524 12c0
00000310: 889d 7f3f 4f80 de3e 1c3a 49be 4a26 e83f
00000320: b148 5cbe 429f 2f41 e925 6c3e dd6a 433f
00000330: f506 3840 a797 5540 be14 80bf 5bf4 bb3e
00000340: 45cb 3640 43b7 1840 d416 803e 1a06 1dbf
00000350: 45dd 3440 f1fd 7640 0571 1cbf 8716 953e
00000360: 1742 1a40 08c4 d7bf 455d 943d f34c 3fbe
00000370: 4edb 90c0 b69f 68c1 34aa d240 7d86 23c0
00000380: 21b3 23c0 c9da fa3d b8ea bd3d 67f3 f4bf
00000390: 2a67 f53e 72e1 1341 2eb6 093f 884b b93d
000003a0: aebf d5c0 0d19 88bf f24d 51c0 b9e2 a0bd
000003b0: 4942 2840 e19f 0bc1 5971 cb3e 97ce 2abf
000003c0: 586d 8fbd 45d0 fec0 c08b 913e 3607 bf3c
000003d0: 073a 1abf eedc 5640 96a6 a4bf 33bd 883f
000003e0: a0d9 d6bf ebab e940 8a38 b6c0 6d00 41bc
000003f0: e033 6540 0fcc 9e3d fff9 eebe 7b16 7e40
-0.1649728 -1.7480402 1.4436213 0.6728843 -0.09300696 0.36741474 0.6909129 -1.399689
-8.373527 -6.845038 -1.8988005 0.29894134 4.116883 -2.5400522 2.4584215 -0.15050104
0.9217103 -2.642344 0.7630437 -1.0782553 0.00015621132 -3.7617095 -0.060349036 -2.1861868
5.5689344 7.5740104 -10.348884 7.984329 3.6905258 6.304321 0.5865412 2.621642
-0.13017134 -0.82088286 0.9671602 0.3057597 1.3770375 4.096405 -13.573845 0.22676772
-4.050544 1.3667411 1.0762535 0.358183 0.01553546 -0.10113325 0.8404097 0.012234569
0.31246397 1.2165657 -2.0489063 -1.2617028 1.2534624 -2.85703 0.42300108 0.9507691
8.356742 -3.5764873 -0.3735067 6.745956 -0.23227169 -11.920854 0.5381189 0.028331976
-0.9856693 12.873805 3.5558462 0.18753868 4.5676575 -4.0065403 0.2967349 0.14003135
0.0049449927 -2.0755231 -0.8478844 0.0900494 -0.809631 -0.93618745 1.9595904 -4.019565
2.4800365 -1.2956767 -0.36837146 2.074642 5.8185544 -2.0362916 -0.08006642 4.0876613
-0.49373862 19.198164 3.255925 0.0039890194 4.3370943 -7.68509 -1.6316113 0.5953594
0.96599346 -4.325328 0.37101454 0.15203413 -0.15074085 -3.6161182 0.20157276 -0.0427583
0.0237596 0.18063071 2.0218146 -3.451446 1.5965555 -2.1051173 -2.9592812 2.9010239
-14.716764 -1.662118 0.02133311 -9.02398 -0.09173399 0.94762325 0.14453657 -0.010294371
-1.1741793 0.758503 0.59940827 -0.15057774 0.054204676 0.24779516 0.16752133 0.19115801
0.8127418 0.116458915 0.20189871 -0.11792944 1.0965042 2.2948942 1.87157 5.1420794
-0.8443329 13.545427 -24.508154 3.4986484 0.74817646 0.14561675 0.16264018 -2.0623715
-1.3940115 6.3619714 1.9022921 0.07555675 -4.182949 5.4012237 -0.8485901 0.5646084
-0.3698707 4.7558813 0.12910639 1.3641118 1.8758352 1.6284025 -1.6653943 -0.035203602
-1.6430905 -5.753917 -0.3485 -2.481039 8.712128 -7.1959386 -3.248393 7.304377
-8.480473 -1.5364792 -0.41231033 -2.8924484 -0.25253674 -12.3904085 11.147043 0.013545608
2.2817817 -8.000243 -6.377015 -0.031667776 1.4456093 -3.9691646 -1.1695341 -0.15128548
0.85856825 -2.8781774 -0.9099889 0.13647133 0.8102594 -1.0610504 5.762521 1.4991641
0.45215753 3.249066 -5.5600357 -2.283479 0.9984975 0.43457267 -0.19651073 1.8136685
-0.21512105 10.976381 0.23061337 0.76334935 2.8754246 3.3373811 -1.000633 0.36709866
2.8561566 2.3861854 0.25017416 -0.61337435 2.8260052 3.8592494 -0.61109954 0.2911875
2.4102838 -1.6856699 0.07244352 -0.18681698 -4.5267706 -14.538992 6.5832767 -2.5550835
-2.5578082 0.12248761 0.09273285 -1.913678 0.4793027 9.24254 0.5379361 0.090476096
-6.6796484 -1.0632645 -3.2703824 -0.07855744 2.6290457 -8.726533 0.39734915 -0.6672148
-0.070032775 -7.9629235 0.28426933 0.023318868 -0.6024479 3.3572345 -1.2863338 1.0682739
-1.6785164 7.302236 -5.6944017 -0.011779887 3.5812912 0.07753765 -0.46675107 3.970122

network.0.bias f4 [56]
00000000: 920c 95c1 892c 40c1 8c7a 32c1 7aa6 ca3f
00000010: 12d8 1cc0 aa64 2fc1 789a a4c0 2e70 a0c1
00000020: 8604 d4c1 a8b8 7dc1 c431 10c1 cb3f 73c1
00000030: 1ee7 563f d101 3dc1 7dde b640 4b27 a3c1
00000040: 9495 29c1 6383 cdc1 2d05 07c1 cfa2 bf3f
00000050: 94f8 09c1 74d3 fbbf 7020 4dc0 43fa fd40
00000060: e207 a7c1 96c7 1ac1 0886 5940 44d8 82c1
00000070: 1179 b4c0 4591 90c1 2b5f 2ec0 4bc5 dbc1
00000080: df3d 1dc1 4846 96c1 1b4e 88c1 4acb 83c1
00000090: 0daa 09c1 1dcc 0fc0 2ff1 7f40 42ba d3c1
000000a0: 0fb8 35c1 2b97 62c0 c4a0 9dc1 a62e 84c1
000000b0: 1a42 47c1 6f4e 86c1 a2ad c2c0 888d 24c1
000000c0: 1bf3 6fc1 21ce c8c0 81ad 9ac0 2efb 97c1
000000d0: 30fc da3f 7cfc 8fc0 f4d4 5cc1 101d 90c1
-18.631138 -12.010873 -11.154919 1.5832055 -2.450688 -10.962076 -5.143856 -20.054775
-26.502209 -15.857582 -9.01215 -15.203074 0.83946407 -11.812943 5.714659 -20.394186
-10.599018 -25.689154 -8.438764 1.497156 -8.623188 -1.9673905 -3.2051048 7.9367995
-20.878849 -9.673727 3.3988056 -16.355598 -5.6397786 -18.070932 -2.7245586 -27.471334
-9.827605 -18.784317 -17.038137 -16.474262 -8.604016 -2.246833 3.9990957 -26.465946
-11.357436 -3.5404766 -19.703499 -16.522778 -12.453638 -16.788298 -6.0836954 -10.284554
-14.996852 -6.275162 -4.8336797 -18.997646 1.7108212 -4.499571 -13.8019905 -18.01419

network.2.weight f4 [56, 56]
00000000: 5937 c03e 63c2 03c0 50c2 8abf 84be b3bf
00000010: e26a d8bf 5b1c 68bf bcff 38c0 5be1 26bf
00000020: 11d5 9cbe 8cc8 46be b7e6 89be c9e9 343d
00000030: f000 cd3d 6f62 16c0 6aaa 1ec0 75d8 ccbf
00000040: 683c e2bf 1a45 11bf 820a 67bf 616c cfbf
00000050: 2bef c0bf d971 99bf 426e efbf cce7 acbf
00000060: ad71 323d 562c 52c0 041a bfbf 2f82 c3bf
00000070: ad97 0ac0 17f1 debf 97bf fbbf 8d43 d7be
00000080: f9d8 acbf 741c 10c0 8ad1 01be 9483 f2bd
00000090: 9335 d3bf 6b7e 0fc0 d17f e5bf c834 923f
000000a0: 20e2 08bf 9cb8 d4bf 54ed 9d3c dc3e 7bbe
000000b0: 690e febf e6b9 a4bf 0523 e1bf 525f 90bf
000000c0: 2e79 febf 7820 bcbf b553 9cbf 3461 d2be
000000d0: 8515 f0bf b17f 5fbe e7a7 89bf ec38 a0bf
000000e0: cc8b e2be 5c9d 5fbe 6a25 06be 1664 a7be
000000f0: ef49 b6ba c247 08bf 69de 28bf 135e 8fbe
00000100: 20e1 08be 1991 fbbe 4e7c 6d3b ff1a 10bf
00000110: 383c 9bbe 6520 753d b066 23be 0fc4 1bbf
00000120: 0d60 adbe b1ab f7be 9560 f9be 8b06 f9be
00000130: a662 18bd 7130 bcbe f153 7bbe 493c 9bbe
00000140: 90ea b1be b21b 6cbe 426f 2fbe db50 91be
00000150: d7dc 31be e48d 09bf bc6b 24be 5330 99be
00000160: 42e9 cbbe 25b4 82be 92e1 08bf 9e6b 8bbe
00000170: e3a3 02bf 6459 07bf c56b a9be b6ce 93be
00000180: e5f5 c9be 12b1 d5be de14 34be 1095 fabe
00000190: f9b1 24be 4ade 57be ce94 e7be 0e29 84bd
000001a0: 11d8 14bf 4811 393d be40 49be 8a78 ddbe
000001b0: 45f4 09bd f9cf afbe 3b9d 09bf 6801 a6bd
000001c0: 4e00 10bf dd4f 9bbe 6089 eabe aaae 09bf
000001d0: f31c 98be ea96 d5be 2ef7 91be 8235 ccbe
000001e0: db6b 6dbe d577 d7be 6c05 0abf 4874 37be
000001f0: 8234 dcbd 0f56 febe 5445 c4be d031 d3be
00000200: 5931 96be 5160 0cbf ef95 15be bfef f2be
00000210: 6e73 e2be 8ea5 5cbe cde4 84be 340c c8be
00000220: b046 0fbe 5f2a 82be 4051 5ebe e500 15bf
00000230: 0fc0 83be e467 8dbe 9752 40be 36fd 6cbe
00000240: 7a08 32be b085 5cbd b3cb c7be 65c2 ffbe
00000250: 4164 c4be e5d7 a8be 6ed9 b1be f5d6 1ebf
00000260: 7c2c aabe 0c4b d8be 0fce 90be 55af 51be
00000270: 2874 96be 55ed 12be cc2c 9dbe fead 8ebe
00000280: 11c0 01bf e16b aabe 7ab0 b8be 0e66 1cbe
00000290: 669d c6be 7443 f7be 8317 b4be 62f5 9ebe
000002a0: adde 70be a751 34bd 8848 0fbf 814a eebe
000002b0: 3d65 f7be 2aa3 2cbe 0c78 47be db28 a1be
000002c0: 71e5 03be 7ee2 bdbe 8202 67be 1bdb 58be
000002d0: 1eb6 f4bb 8194 50bd 9ec1 c7be 1576 28be
000002e0: 932a 38be 9e92 8dbe 3a1b 84be 2687 bcbe
000002f0: dfb6 99be 8f9a e8bd 6ef6 2cbe a4de 90be
00000300: 09a8 82be bf61 efbe 108f 62be f4a3 15bf
00000310: c946 7cbe 1e29 a7be e825 c1be 4368 5fbe
00000320: fdb4 51be 47a3 66bd 3cd9 12be 9a9d 9dbe
00000330: f311 c0be 4586 cebe b040 4abe 6886 33be
00000340: c5a6 77be 79f3 58be c3be 85be 3b47 ecbe
00000350: 444c 0dbf 48c8 323d 56bb 19be 8564 1cbf
00000360: 240b c0be cd1b 83be 981b 0fbe a64f 3b3c
00000370: 4c85 b3be 1a61 91be 03d7 713d 5fa3 19bf
00000380: e13a 0bc0 3585 cdbf f1a1 dcbf c4dd 22c0
00000390: 8815 d0bf 7b6e 4bc0 b3ca f3bf cb9f f2bf
000003a0: 331f 04c0 fa0d e3be 8b1f cabf f8f5 25c0
000003b0: 49a8 2dc0 bb12 4dc0 2818 61c0 727a a6c0
000003c0: a943 87c0 1ad2 db3e 174e a43e 3f1a 5dc0
000003d0: c1e7 8d3f a646 29c0 65e9 b7c0 1fb6 5ec0
000003e0: eb7e 5ec0 d40d 37c0 37ca 00c0 c53d 73bf
000003f0: 010a 27c0 c04c 9abf cf5e b5bf 5d1a cdbf
0.37542227 -2.0587394 -1.084055 -1.4042516 -1.6907618 -0.90668267 -2.8906088 -0.65187615
-0.30631307 -0.1941244 -0.26933834 0.044168267 0.100099444 -2.349758 -2.4791512 -1.6003557
-1.7674685 -0.56746066 -0.9025041 -1.620495 -1.5072988 -1.1987869 -1.8705523 -1.3508239
0.04356544 -3.283956 -1.4929814 -1.5274104 -2.1655076 -1.7417325 -1.9667844 -0.42043725
-1.3503715 -2.2517366 -0.12677589 -0.11841503 -1.6500725 -2.242091 -1.7929631 1.1422358
-0.5347004 -1.6618838 0.019278206 -0.24535698 -1.9848148 -1.2869232 -1.7588812 -1.127909
-1.9880731 -1.4697409 -1.2213045 -0.41089785 -1.8756567 -0.21826054 -1.0754365 -1.2517371
-0.44247282 -0.21837372 -0.1310021 -0.32693547 -0.0013907532 -0.53234494 -0.6596437 -0.2800146
-0.13367128 -0.49134138 0.0036237421 -0.5629119 -0.3031938 0.059845347 -0.15957141 -0.60846037
-0.33862343 -0.48373178 -0.487065 -0.48637804 -0.037203453 -0.36755708 -0.2454374 -0.3031943
-0.3474927 -0.2305744 -0.17132285 -0.28382 -0.173694 -0.5373213 -0.16056722 -0.2991968
-0.398264 -0.25528064 -0.53469193 -0.27230543 -0.5103132 -0.52870774 -0.33090034 -0.28868645
-0.39445415 -0.41736656 -0.17586085 -0.4894185 -0.16083516 -0.2108089 -0.45230716 -0.06453143
-0.5814219 0.045182496 -0.19653603 -0.43256027 -0.03368022 -0.34338358 -0.5375554 -0.08105737
-0.56250465 -0.30334368 -0.45807934 -0.5378214 -0.29709587 -0.417167 -0.28508896 -0.39884573
-0.23185675 -0.42083612 -0.53914523 -0.17915452 -0.107522026 -0.49675032 -0.38334143 -0.4124894
-0.29334524 -0.5483447 -0.14607976 -0.47448537 -0.4422869 -0.21547529 -0.2595581 -0.3907181
-0.13991809 -0.25422952 -0.21710682 -0.5820449 -0.25732467 -0.27618325 -0.18781506 -0.23143467
-0.17386046 -0.05383843 -0.39022598 -0.49953 -0.38357738 -0.32977214 -0.34736198 -0.6204675
-0.33237064 -0.42244756 -0.2828221 -0.2047704 -0.29385495 -0.14348347 -0.3069824 -0.2786712
-0.50683695 -0.3328543 -0.3607214 -0.15273306 -0.3879196 -0.4829365 -0.35174188 -0.31046587
-0.23522444 -0.044023182 -0.5597005 -0.46541217 -0.48319426 -0.16859117 -0.19479388 -0.31476483
-0.12880494 -0.37086862 -0.2255955 -0.21177332 -0.007467999 -0.050922874 -0.39014906 -0.16451295
-0.17984991 -0.27650923 -0.25802022 -0.3682186 -0.30022332 -0.11357605 -0.1689088 -0.2829486
-0.25518826 -0.46754262 -0.22124887 -0.584533 -0.24636377 -0.32648557 -0.37724233 -0.21817116
-0.20479198 -0.056308057 -0.14340681 -0.30784303 -0.37513694 -0.40336815 -0.19751239 -0.1753174
-0.24184711 -0.21186627 -0.26122102 -0.46148095 -0.551945 0.043648034 -0.15012869 -0.6109088
-0.375085 -0.25607148 -0.1397537 0.011432564 -0.35062635 -0.28394395 0.05904294 -0.6001491
-2.1754687 -1.6056277 -1.723692 -2.5447855 -1.6256571 -3.1786182 -1.9046234 -1.8955015
-2.0644042 -0.443466 -1.5790876 -2.5931377 -2.7133963 -3.2042682 -3.5170994 -5.202447
-4.2270093 0.42933732 0.32090828 -3.454727 1.1086351 -2.644937 -5.7472405 -3.4798658
-3.4764965 -2.860219 -2.0123422 -0.9501613 -2.6099856 -1.2054672 -1.4169558 -1.602367

network.2.bias f4 [56]
00000000: 2af4 1ec0 e80f c9be 1193 a6be c93f 9cbe
00000010: 2f97 e9c0 8b0c c2be afdc acbe e837 45be
00000020: 03ce b5be 60df 8dbf 7ec9 b6be 3cc9 a5be
00000030: 7752 e4bf f6c0 a2be 2e50 a3be da6f 5dbe
00000040: 353d acbe 4752 abbe 6461 a7be 7b31 3fc0
00000050: 858e 47be 55b3 b6be 3214 eebf 6f23 31be
00000060: c352 a4be d3e0 8fc0 521a bcbe a692 1bbf
00000070: bc0b f5be 1b30 9bbe 38b2 d4be 31dc d1be
00000080: 4999 88be d216 85be 5687 7fbe e056 afbe
00000090: 2326 d1be 08f0 02bf a834 eabe c0f0 66bf
000000a0: 2b36 0642 76d5 00bf 5c90 57be 07d4 26bf
000000b0: c452 1ebf 2345 77bf 33f5 aebe a032 5fc0
000000c0: 337b 28c0 7acc 4cbe 5f17 55be 1d0f 30bf
000000d0: 5f17 b3be 1a96 0941 73df bfbe a32c aabe
-2.4836526 -0.39269948 -0.32534078 -0.30517414 -7.299705 -0.37900195 -0.33762118 -0.19259608
-0.35508737 -1.1083794 -0.357006 -0.32380092 -1.7837666 -0.31787843 -0.3189711 -0.21624699
-0.33640447 -0.3346121 -0.3269149 -2.987395 -0.1948796 -0.35683694 -1.8599913 -0.17298673
-0.32094392 -4.4961944 -0.3673883 -0.6077064 -0.47860515 -0.3031014 -0.4154222 -0.40988305
-0.26679447 -0.25993973 -0.2495397 -0.34245968 -0.40849409 -0.5114751 -0.457433 -0.90211105
33.5529 -0.50325716 -0.21051162 -0.6516728 -0.6184504 -0.9658987 -0.34171447 -3.487465
-2.6325195 -0.19999877 -0.20809697 -0.6877306 -0.34978768 8.599146 -0.37475166 -0.3323718

network.4.weight f4 [28, 56]
00000000: 536c d2bd 449a 963e b802 0e3f 59d1 223e
00000010: 9a0b afbe 5bcf afbe a60f ce3d f099 b5be
00000020: 3e4a 933e c212 86be 4a23 5bbd 3afa 0fbf
00000030: 228c 9bbf d301 4fbd 3046 e6be b490 793d
00000040: 5453 76be 2add 0d3f 3d4d 3ebe 95fe b4be
00000050: d7b3 383e 8ff5 9d3d 9db5 dbbd c848 a0be
00000060: a805 6abe f17a 98bf 5808 ea3d f335 debe
00000070: c3aa 043f cf1e e7bc 82ce 83bd b4f8 adbe
00000080: d0cc c6be e41a d9be 6563 e7bd 885e 703e
00000090: 4e0d e1be 0291 8c3c a4e7 eebd 453a 9a3e
000000a0: 733b d3be daa0 04bf 9589 89be cb4e 0ebf
000000b0: f5ab 71be 36c9 91be bf70 82be 1517 a5be
000000c0: 5127 14bd 10d8 723e 36a8 b83b 0536 a7be
000000d0: ae79 41be 915a 16c0 7288 70be 8e1f 14bd
000000e0: 8a2b 34be defb 033e 3641 c3be 70eb d93d
000000f0: 4001 abbe 8395 a83e 7041 f43c a729 1f3e
00000100: 3dfc 9f3c 0862 823e 7bc0 abbd 7f40 833e
00000110: 47db 4ebe f2c5 9bbd e2a6 9dbd f187 c33c
00000120: 9928 da3e 8ad1 00bf 5dce 9f3c 0ad3 0fbe
00000130: 87bb 6f3e 1748 b8bd 11f3 d73f f10c 893d
00000140: d343 153d 3e0c c0bf 678c 75be 46a0 9ebe
00000150: 770d a03d 54e5 873d bfef 7a3e 8307 b53c
00000160: 6008 96bd df30 ff3d 41d1 763c 5fa6 34bd
00000170: 8180 90be abfb 0fbe c0ae 613e ec79 2dbe
00000180: 88e4 77be 800d 973e ac6c 07be 5305 b2be
00000190: 1d39 453e a225 ddbe 6a81 813e cc3c 5140
000001a0: 4f9c b3be b220 bcbe b442 eebd 3f0e f7bc
000001b0: d617 abbd e9b7 34bf 5f5a 54be 3054 8ebd
000001c0: 50a9 f13e 9114 8cbe f448 8abd 5764 45be
000001d0: d99e edbe a3a8 e9bd 21cd c9bd c302 91be
000001e0: 6d2a 86be 95cb 17bf 9d52 8fbe b036 a73e
000001f0: 745b 27bf d020 93be d507 00be 2c3b abbe
00000200: 1c79 6a3b 2fc1 cfbd 9265 adbe da17 1dbe
00000210: 7177 a2be d286 94be fa4d c3bf 9bd6 803c
00000220: 828a 16bc 0cbe ffbe d9ce dabe 203c ccbe
00000230: fee2 00bf 5e17 b8be c360 f63e 2a42 803d
00000240: 9716 913d 39b2 1bbf 9042 c4be 3f08 98be
00000250: d525 ebbe 489d 9bbe 0437 b9be 4730 e8bd
00000260: 0ab9 f1be 3d0b 4c3e 9c6e 86bd 0686 99be
00000270: c7c4 07bc 9bec af3c 417e 753d f42d 88bd
00000280: 3787 dfbe 5b9a 0cbe 6218 babe ef03 d1be
00000290: b0df 37bd d908 94be 7ee1 47bc 2279 a1be
000002a0: 26ad 0abf f2c3 cabd dd74 b83e 6be1 6abd
000002b0: 313b a3be 4414 a9bc 44da aebe 54a7 a73d
000002c0: a145 1cbe 3426 edbe 0b1b 9ebd 9e9f a5bd
000002d0: 9fd5 ec3c 99bf 89be 1b0e 78bd be0f 4c3d
000002e0: da77 b8be 841c 913d 3e7c a93a fe0f 85be
000002f0: 09e1 0e3d b320 debe 5b07 ccbe 40bd b13d
00000300: 19c3 7fbe 73bd ccbe 3cc9 afbe 5ab2 99bf
00000310: 5773 25be 6616 b4bd 605b fabe 9b78 14be
00000320: ab71 4abd 130a c9bd 3e87 a0be 236d 64be
00000330: 329b 61bd 7c5a 4abe ff93 23be df07 c23d
00000340: 6a60 f4bf f268 10bd b1d1 6a3d 2dce 82bc
00000350: 6c9d a0be c51b a5be 54ad 0dbf 6d02 01be
00000360: fafd 9abf 02e8 5d3e f7bf ef3d b399 99be
00000370: 7cc5 d1be 0315 1bbf 61a5 f33d 7cc5 acbc
00000380: 1539 73bd 699d 1fbd 25db f83e 17c7 38be
00000390: 7bec babf a631 693e ca24 813e 041e 80bd
000003a0: ca74 153d b0fc 2a3d 517e c63e e80a 7a3d
000003b0: 3b90 63be 4f66 893c 1020 713e 20c2 dd3d
000003c0: b643 c2be 83c7 8a3e 1ae4 ab3c ae68 36be
000003d0: 3f53 023d cea8 833e f251 71bd 22e4 283e
000003e0: 4664 3e3e cca0 53be 6ecf 743d 72bc 8bbe
000003f0: 8845 3a3d 498d 3a3e 78b1 87bd f482 183e
-0.102745675 0.2941457 0.554729 0.15900172 -0.3418854 -0.34337887 0.100615785 -0.35469007
0.2876758 -0.26186186 -0.05350045 -0.5624119 -1.215214 -0.05053885 -0.44975424 0.060929015
-0.24055225 0.55415595 -0.18584152 -0.3535048 0.18037353 0.07712852 -0.10727999 -0.31305528
-0.2285372 -1.1912519 0.11427373 -0.43400535 0.5182306 -0.028212933 -0.064358726 -0.33978808
-0.38828135 -0.42403328 -0.11298255 0.23473561 -0.43955463 0.017158989 -0.11665276 0.3012258
-0.41256294 -0.5180794 -0.2686278 -0.5558898 -0.23600753 -0.28473824 -0.25476643 -0.32244173
-0.036170308 0.23715234 0.0056352867 -0.326584 -0.18894073 -2.3492777 -0.2348955 -0.036162905
-0.17594734 0.12889048 -0.3813569 0.10640609 -0.3339939 0.32926568 0.02981636 0.15543233
0.019529456 0.25465417 -0.08386322 0.25635144 -0.20200835 -0.076061144 -0.07697846 0.023868533
0.426091 -0.5031973 0.019507581 -0.14045349 0.2341138 -0.08998125 1.6871053 0.066919215
0.036441635 -1.5003736 -0.2397934 -0.30981654 0.07815068 0.06635538 0.24505518 0.022098308
-0.07325816 0.12460493 0.015064538 -0.044103976 -0.2822304 -0.14060847 0.22039318 -0.16941041
-0.24208272 0.29502487 -0.13225049 -0.34769687 0.19260068 -0.43192774 0.25294048 3.2693357
-0.35080191 -0.36743695 -0.11633816 -0.03015816 -0.08354156 -0.70593125 -0.20737599 -0.06949651
0.47199488 -0.2735944 -0.06752196 -0.19276558 -0.46410254 -0.11409118 -0.09853578 -0.2832242
-0.26204243 -0.59295017 -0.27992716 0.3265891 -0.6537392 -0.2873597 -0.12502988 -0.33443582
0.0035777753 -0.10144269 -0.33866554 -0.1534113 -0.31731752 -0.2900911 -1.5258172 0.015727332
-0.009188296 -0.49949682 -0.42735937 -0.39889622 -0.5034636 -0.35955328 0.48120698 0.0626262
0.07084387 -0.6081882 -0.38332033 -0.2969379 -0.459273 -0.30393434 -0.36174786 -0.11337333
-0.47211486 0.19926162 -0.06564066 -0.29985064 -0.0082866615 0.021475127 0.05993486 -0.0664939
-0.43657848 -0.13730757 -0.36346728 -0.40823314 -0.04489106 -0.28913 -0.012199758 -0.3153773
-0.54170454 -0.09900655 0.3602666 -0.05734388 -0.31881097 -0.020639546 -0.34150898 0.08186212
-0.15260936 -0.4631821 -0.07720002 -0.08087085 0.028910456 -0.2690399 -0.060560327 0.0498197
-0.3602894 0.07085517 0.0012930704 -0.25988764 0.03488258 -0.43384323 -0.39849362 0.08678675
-0.24976768 -0.39988288 -0.34333217 -1.2007554 -0.1615728 -0.08793335 -0.4889784 -0.14499132
-0.04942481 -0.09816375 -0.31353182 -0.22307257 -0.055079646 -0.1976108 -0.15974425 0.094741575
-1.9091923 -0.035256334 0.057328884 -0.015967453 -0.31370103 -0.3224775 -0.553426 -0.12598582
-1.2108757 0.21670535 0.11706536 -0.30000076 -0.4097098 -0.60578936 0.11896778 -0.021090262
-0.05938061 -0.038968477 0.48604694 -0.18044697 -1.4603418 0.22772846 0.2522338 -0.06255725
0.03648833 0.041744888 0.38768247 0.061045557 -0.22222988 0.016772417 0.23547387 0.10828042
-0.37942284 0.2710534 0.02098279 -0.1781337 0.03181767 0.25714725 -0.05891604 0.16493276
0.18592939 -0.20666808 0.059768133 -0.2729221 0.045476466 0.18217959 -0.06625646 0.14893705

network.4.bias f4 [28]
00000000: b83e fbbf 50de 2ac0 4266 99be b499 afbf
00000010: c656 15be 8b36 03c0 142d 0bc0 7cd0 47bf
00000020: 163c 25c0 4e06 36bf 07bb 92bf 1c1c 17bf
00000030: 20ec 3dc0 71fc 5541 07c2 20c0 857c 03c0
00000040: a84a d9bf edeb 3cc0 1fd1 dabf ee67 1ec0
00000050: 8edc 9fbf 910b 39bf 718b 54c0 711e febf
00000060: da52 83c0 21b7 02c0 7d6e 77bf 3344 6bc0
-1.9628515 -2.6698189 -0.2996083 -1.3718781 -0.14583883 -2.050204 -2.1746264 -0.78052497
-2.5817924 -0.7110337 -1.1463326 -0.59027267 -2.967537 13.374131 -2.5118425 -2.054475
-1.6975908 -2.9518998 -1.7095069 -2.4750934 -1.2489183 -0.72283274 -3.3210108 -1.985304
-4.1038637 -2.0424273 -0.96652967 -3.6760375

network.6.weight f4 [1, 28]
00000000: 6a4a 73be 8d35 5d3f fa63 4b3f 8a74 c7bc
00000010: 5261 87be 2393 dfbf 5fdd 8dbf b2ed d13f
00000020: d51b 7bbe 6d43 a13f edcb d23f 80a6 ab3f
00000030: 9315 b7be e01c 4ebe 8092 8b3f e1af af3d
00000040: ab73 283f 0fd1 ac3f f3cf 4f3f a95a 69be
00000050: 4a11 e03f 386f 8d3f 820d ce3e 38c0 963e
00000060: 302e 9cbf 8d9a 99bf 894b 2c3e 67f7 c3be
-0.23758855 0.86409837 0.7944943 -0.024347562 -0.26441437 -1.7466778 -1.1083182 1.6400664
-0.24522336 1.2598702 1.6468483 1.3410187 -0.35758647 -0.20128202 1.0904083 0.08578468
0.65801495 1.35013 0.8117668 -0.2278849 1.7505276 1.1049566 0.4024468 0.29443526
-1.2201595 -1.200029 0.1682569 -0.3827469
