HPC/Major_project/logistic_regression/models/exp1/88.pth (torch, 28367 bytes, 7 tensors)

network.0.weight f4 [56, 28]
000000 0d 57 2a be 53 e1 df bf b9 4a b8 3f c4 17 2c 3f
       -0.1663477 -1.7490638 1.4397804 0.67223763
000010 ce fa c0 bd 26 5d bc 3e 75 02 32 3f d7 ff b3 bf
       -0.09422837 0.36789817 0.69535 -1.4062451
000020 8d 17 06 c1 94 03 db c0 d9 bd f2 bf a8 a2 9a 3e
       -8.38075 -6.844187 -1.8964187 0.30202222
000030 59 d7 83 40 14 6a 22 c0 08 18 1d 40 f7 f6 19 be
       4.1200376 -2.5377245 2.4545918 -0.15035616
000040 ae 4a 6b 3f 8f 28 29 c0 30 ca 43 3f 9a 3d 8a bf
       0.9191083 -2.6431005 0.7648039 -1.0800049
000050 c8 99 11 39 fe 74 70 c0 f0 6f 89 bd 58 ea 0b c0
       0.00013885566 -3.7571406 -0.067108035 -2.1861782
000060 87 6c b2 40 4c 5d f2 40 d3 99 25 c1 d6 b1 ff 40
       5.575748 7.573889 -10.350055 7.9904585
000070 cd 23 6c 40 d3 a9 c9 40 56 a4 15 3f 86 ac 27 40
       3.689685 6.3019805 0.5845388 2.619905
000080 a0 02 06 be d3 39 52 bf bd 12 79 3f 2d 81 9b 3e
       -0.13086939 -0.8211948 0.9729422 0.3037199
000090 e1 ea af 3f 71 ef 82 40 42 1f 59 c1 63 56 69 3e
       1.3743554 4.0917287 -13.570131 0.2278686
0000a0 62 6e 81 c0 55 57 af 3f cd ea 89 3f 02 3a b7 3e
       -4.0447245 1.3698527 1.077478 0.35786444
0000b0 10 1e 94 3c 8e 4c d2 bd 01 44 57 3f 1c 77 27 3c
       0.018080741 -0.10268508 0.8408814 0.010221269
0000c0 c4 d3 a0 3e df 15 9c 3f 11 95 02 c0 00 55 a1 bf
       0.31411564 1.2194175 -2.0403483 -1.2604065
0000d0 e7 f4 9f 3f b7 f0 36 c0 0a 3a d9 3e ef 94 73 3f
       1.2496613 -2.858442 0.42427093 0.9514913
0000e0 c3 bd 05 41 ed ef 64 c0 51 de bf be 98 d7 d7 40
       8.358829 -3.577144 -0.374743 6.7450676
0000f0 06 3f 6e be 60 cb 3e c1 44 e7 09 3f 0f 3e e7 3c
       -0.23266229 -11.924652 0.5386851 0.028227834
000100 cd c3 7b bf 2b f7 4d 41 db 95 63 40 0b 48 41 3e
       -0.98345643 12.872844 3.5560215 0.18875138
000110 64 2c 92 40 e7 4f 80 c0 ea 33 97 3e a5 66 0f 3e
       4.567919 -4.0097537 0.29531795 0.14004
000120 0e 1e a6 3b f3 b6 04 c0 62 59 59 bf 41 65 b7 3d
       0.0050695008 -2.0736663 -0.8490201 0.089548595
000130 c9 9c 4f bf 16 2d 71 bf 09 c7 f9 3f 1c b2 80 c0
       -0.8109861 -0.9420942 1.9513866 -4.021742
000140 e0 88 1e 40 8d 56 a6 bf 3c 5f be be 36 62 04 40
       2.4771042 -1.2995163 -0.37182033 2.0684943
000150 47 5d ba 40 90 34 02 c0 8d 58 b6 bd db bb 82 40
       5.8238864 -2.0344582 -0.089036085 4.0854316
000160 9d 21 fc be 53 90 99 41 81 b0 50 40 72 6f 09 3c
       -0.49244395 19.19547 3.260773 0.008388387
000170 bb df 8a 40 98 e1 f5 c0 0d fb d0 bf 48 f2 18 3f
       4.339811 -7.6837883 -1.6326615 0.5974469
000180 64 cc 77 3f 7b 80 8a c0 ea 0d bb 3e b9 ec 17 3e
       0.9679625 -4.3281837 0.36534053 0.14836396
000190 4c c0 1f be e9 46 67 c0 32 48 4b 3e de 7a 1a bd
       -0.15600699 -3.613703 0.19851759 -0.03771483
0001a0 85 8d a5 3c f7 48 37 3e 96 20 01 40 60 48 5d c0
       0.020209083 0.17898928 2.017614 -3.4575424
0001b0 40 7d cc 3f b5 fe 06 c0 b8 3d 3d c0 01 9d 39 40
       1.5975723 -2.109296 -2.956892 2.9002078
0001c0 89 7c 6b c1 9c 42 d5 bf 81 44 ab 3c af 7a 10 c1
       -14.717904 -1.6660953 0.020906689 -9.029952
0001d0 1f 13 c1 bd 68 01 71 3f 37 49 11 3e 9a 4f 0c bc
       -0.09427475 0.9414277 0.14188085 -0.0085639
0001e0 34 70 96 bf d3 c0 42 3f bb 24 19 3f 97 73 16 be
       -1.1752992 0.76075476 0.5982167 -0.14692532
0001f0 16 2e 5e 3d f2 d3 7e 3e 0a ba 29 3e 8b 42 42 3e
       0.05424317 0.24885538 0.16574875 0.18970697
000200 c1 01 51 3f d5 67 eb 3d 60 25 49 3e 87 f0 ed bd
       0.816433 0.11494414 0.19643164 -0.116181426
000210 c0 84 8b 3f 22 d8 12 40 ba f3 ee 3f cf 52 a4 40
       1.0899887 2.2944417 1.866813 5.1351085
000220 9d 75 58 bf 86 b0 58 41 ee 12 c4 c1 a2 98 5f 40
       -0.84554464 13.543097 -24.509243 3.493691
000230 1f 66 40 3f 50 cb 19 3e fe 9e 28 3e 49 09 04 c0
       0.75155824 0.15018964 0.164669 -2.0630667
000240 76 50 b2 bf 32 9a cb 40 73 b5 f3 3f a1 05 8b 3d
       -1.3930805 6.3625727 1.9039749 0.06788183
000250 58 ce 85 c0 cd eb ac 40 68 6a 59 bf f8 a3 10 3f
       -4.1814384 5.4037843 -0.8492799 0.56500196
000260 f1 05 bd be de 27 98 40 80 4c 05 3e 38 35 ae 3f
       -0.36918595 4.7548666 0.13017464 1.3609991
000270 ae e7 ef 3f 18 6e d0 3f 0e 69 d5 bf 5b fd 0e bd
       1.8742578 1.6283598 -1.6672685 -0.034909587
000280 74 6f d2 bf 27 3f b8 c0 a5 48 b4 be 8e fb 1e c0
       -1.6440263 -5.757709 -0.35211673 -2.4841037
000290 f8 72 0b 41 5e 34 e6 c0 05 1b 50 c0 40 98 e9 40
       8.715569 -7.1938925 -3.2516491 7.299835
0002a0 fd a3 07 c1 cf 79 c4 bf d6 c6 d2 be cc fa 38 c0
       -8.477536 -1.5349673 -0.41167325 -2.8903074
0002b0 4c 4e 81 be e5 35 46 c1 d4 69 32 41 e2 6c 0b 3c
       -0.25255048 -12.388158 11.150837 0.008509846
0002c0 d7 eb 11 40 1e 0b 00 c1 c1 ed cb c0 65 48 10 bd
       2.2800195 -8.002714 -6.3727727 -0.03522529
0002d0 28 9f b8 3f 2e fd 7d c0 7f e5 95 bf 36 c8 18 be
       1.4423571 -3.9685779 -1.1710662 -0.14920124
0002e0 09 43 5b 3f d9 54 38 c0 1d c7 67 bf d1 b5 07 3e
       0.8564916 -2.8801787 -0.905382 0.13252951
0002f0 4f 82 52 3f 39 d1 86 bf 6b 85 b8 40 8c 8b c0 3f
       0.82230085 -1.05326 5.7662864 1.5042586
000300 7a 81 e7 3e be d1 4f 40 ca f8 b1 c0 7d e6 11 c0
       0.4521597 3.2471766 -5.5616198 -2.279693
000310 b1 18 80 3f 85 99 dc 3e 57 a7 4b be 79 e3 e7 3f
       1.0007535 0.43085876 -0.19888054 1.8116294
000320 14 38 5d be 9c 9e 2f 41 ab 87 6e 3e 4d ba 42 3f
       -0.21603423 10.976223 0.2329394 0.7606552
000330 0b 19 38 40 09 97 55 40 36 2b 80 bf 76 ee ba 3e
       2.8765285 3.3373435 -1.0013187 0.36510056
000340 a2 f2 36 40 25 c8 18 40 f9 bc 7e 3e 62 d2 1b bf
       2.8585591 2.3872159 0.24876775 -0.60867894
000350 4e 8f 34 40 1d e8 76 40 3b 3a 1d bf 56 a2 94 3e
       2.8212466 3.857917 -0.6141698 0.29030102
000360 7c 4f 1a 40 3c 2e d8 bf 8b c1 87 3d c8 0d 41 be
       2.4111013 -1.688911 0.06628712 -0.18852913
000370 f0 c0 90 c0 5b 98 68 c1 5d 8d d2 40 e8 df 23 c0
       -4.523552 -14.537196 6.5797563 -2.5605412
000380 e1 df 23 c0 4c 28 00 3e fd 5a c5 3d 99 70 f4 bf
       -2.5605395 0.12515372 0.09636495 -1.9096862
000390 d4 4b f5 3e 3b dd 13 41 cc be 09 3f 52 ca be 3d
       0.47909415 9.241511 0.5380676 0.09315933
0003a0 cf bf d5 c0 94 30 88 bf 88 71 51 c0 8b 56 a4 bd
       -6.679664 -1.0639825 -3.2725544 -0.08024319
0003b0 58 31 28 40 1c 89 0b c1 8c 6e cc 3e 63 bc 2b bf
       2.6280117 -8.720974 0.3992809 -0.6708433
0003c0 bc 81 8d bd e6 ec fe c0 8b 48 91 3e 87 a7 cb 3c
       -0.069095105 -7.9664183 0.28375658 0.024860157
0003d0 49 05 1c bf bb bc 56 40 f0 e0 a4 bf 12 37 89 3f
       -0.60945565 3.3552692 -1.2881145 1.0719931
0003e0 08 1f d7 bf 0c b4 e9 40 4a 61 b6 c0 ae e0 49 bc
       -1.6806345 7.3032284 -5.699376 -0.012321634
0003f0 e0 59 65 40 6b 6d 9e 3d 6a 83 ee be 91 33 7e 40
       3.5836105 0.077357136 -0.46584636 3.9718974

network.0.bias f4 [56]
000000 b8 fd 94 c1 cc 43 40 c1 ec 6f 32 c1 e9 09 cb 3f
       -18.623886 -12.016552 -11.152325 1.5862399
000010 54 d2 1c c0 65 4f 2f c1 b4 89 a4 c0 d9 6f a0 c1
       -2.4503374 -10.956883 -5.1418095 -20.054613
000020 e7 02 d4 c1 27 a8 7d c1 e1 2d 10 c1 70 40 73 c1
       -26.501417 -15.853553 -9.011201 -15.203232
000030 b2 33 56 3f 2d 09 3d c1 fd c5 b6 40 40 31 a3 c1
       0.8367263 -11.81474 5.7116685 -20.399048
000040 d3 8a 29 c1 f2 86 cd c1 dc 10 07 c1 55 c4 be 3f
       -10.596393 -25.690891 -8.441616 1.4903666
000050 e7 de 09 c1 10 ee fb bf 41 f9 4c c0 06 18 fe 40
       -8.6169195 -1.9682026 -3.2027133 7.9404325
000060 d4 0f a7 c1 26 c1 1a c1 a2 e4 58 40 50 d3 82 c1
       -20.882729 -9.672155 3.3889546 -16.35318
000070 fa 39 b4 c0 bd 86 90 c1 f9 72 2d c0 11 c0 db c1
       -5.632077 -18.06579 -2.7101424 -27.468782
000080 c5 3b 1d c1 07 50 96 c1 14 48 88 c1 98 c3 83 c1
       -9.827092 -18.789076 -17.035194 -16.470505
000090 7f aa 09 c1 6d 3b 10 c0 8e c2 7f 40 94 b9 d3 c1
       -8.604125 -2.253627 3.9962497 -26.465614
0000a0 93 b1 35 c1 56 35 62 c0 1a 95 9d c1 ab 24 84 c1
       -11.355853 -3.5345054 -19.697803 -16.517904
0000b0 d6 2f 47 c1 c6 4d 86 c1 68 a7 c2 c0 52 87 24 c1
       -12.449179 -16.787975 -6.0829353 -10.283037
0000c0 83 e6 6f c1 bf b1 c8 c0 78 92 9a c0 01 f6 97 c1
       -14.993777 -6.2716975 -4.8303795 -18.99512
0000d0 79 e8 db 3f e5 f7 8f c0 57 c3 5c c1 4b 19 90 c1
       1.718032 -4.4990106 -13.79769 -18.01235

network.2.weight f4 [56, 56]
000000 59 37 c0 3e 63 c2 03 c0 50 c2 8a bf 84 be b3 bf
       0.37542227 -2.0587394 -1.084055 -1.4042516
000010 e2 6a d8 bf 5b 1c 68 bf bc ff 38 c0 5b e1 26 bf
       -1.6907618 -0.90668267 -2.8906088 -0.65187615
000020 11 d5 9c be 8c c8 46 be b7 e6 89 be c9 e9 34 3d
       -0.30631307 -0.1941244 -0.26933834 0.044168267
000030 f0 00 cd 3d 6f 62 16 c0 6a aa 1e c0 75 d8 cc bf
       0.100099444 -2.349758 -2.4791512 -1.6003557
000040 68 3c e2 bf 1a 45 11 bf 82 0a 67 bf 61 6c cf bf
       -1.7674685 -0.56746066 -0.9025041 -1.620495
000050 2b ef c0 bf d9 71 99 bf 42 6e ef bf cc e7 ac bf
       -1.5072988 -1.1987869 -1.8705523 -1.3508239
000060 ad 71 32 3d 56 2c 52 c0 04 1a bf bf 2f 82 c3 bf
       0.04356544 -3.283956 -1.4929814 -1.5274104
000070 ad 97 0a c0 17 f1 de bf 97 bf fb bf 8d 43 d7 be
       -2.1655076 -1.7417325 -1.9667844 -0.42043725
000080 f9 d8 ac bf 74 1c 10 c0 8a d1 01 be 94 83 f2 bd
       -1.3503715 -2.2517366 -0.12677589 -0.11841503
000090 93 35 d3 bf 6b 7e 0f c0 d1 7f e5 bf c8 34 92 3f
       -1.6500725 -2.242091 -1.7929631 1.1422358
0000a0 20 e2 08 bf 9c b8 d4 bf 54 ed 9d 3c dc 3e 7b be
       -0.5347004 -1.6618838 0.019278206 -0.24535698
0000b0 69 0e fe bf e6 b9 a4 bf 05 23 e1 bf 52 5f 90 bf
       -1.9848148 -1.2869232 -1.7588812 -1.127909
0000c0 2e 79 fe bf 78 20 bc bf b5 53 9c bf 34 61 d2 be
       -1.9880731 -1.4697409 -1.2213045 -0.41089785
0000d0 85 15 f0 bf b1 7f 5f be e7 a7 89 bf ec 38 a0 bf
       -1.8756567 -0.21826054 -1.0754365 -1.2517371
0000e0 cc 8b e2 be 5c 9d 5f be 6a 25 06 be 16 64 a7 be
       -0.44247282 -0.21837372 -0.1310021 -0.32693547
0000f0 ef 49 b6 ba c2 47 08 bf 69 de 28 bf 13 5e 8f be
       -0.0013907532 -0.53234494 -0.6596437 -0.2800146
000100 20 e1 08 be 19 91 fb be 4e 7c 6d 3b ff 1a 10 bf
       -0.13367128 -0.49134138 0.0036237421 -0.5629119
000110 38 3c 9b be 65 20 75 3d b0 66 23 be 0f c4 1b bf
       -0.3031938 0.059845347 -0.15957141 -0.60846037
000120 0d 60 ad be b1 ab f7 be 95 60 f9 be 8b 06 f9 be
       -0.33862343 -0.48373178 -0.487065 -0.48637804
000130 a6 62 18 bd 71 30 bc be f1 53 7b be 49 3c 9b be
       -0.037203453 -0.36755708 -0.2454374 -0.3031943
000140 90 ea b1 be b2 1b 6c be 42 6f 2f be db 50 91 be
       -0.3474927 -0.2305744 -0.17132285 -0.28382
000150 d7 dc 31 be e4 8d 09 bf bc 6b 24 be 53 30 99 be
       -0.173694 -0.5373213 -0.16056722 -0.2991968
000160 42 e9 cb be 25 b4 82 be 92 e1 08 bf 9e 6b 8b be
       -0.398264 -0.25528064 -0.53469193 -0.27230543
000170 e3 a3 02 bf 64 59 07 bf c5 6b a9 be b6 ce 93 be
       -0.5103132 -0.52870774 -0.33090034 -0.28868645
000180 e5 f5 c9 be 12 b1 d5 be de 14 34 be 10 95 fa be
       -0.39445415 -0.41736656 -0.17586085 -0.4894185
000190 f9 b1 24 be 4a de 57 be ce 94 e7 be 0e 29 84 bd
       -0.16083516 -0.2108089 -0.45230716 -0.06453143
0001a0 11 d8 14 bf 48 11 39 3d be 40 49 be 8a 78 dd be
       -0.5814219 0.045182496 -0.19653603 -0.43256027
0001b0 45 f4 09 bd f9 cf af be 3b 9d 09 bf 68 01 a6 bd
       -0.03368022 -0.34338358 -0.5375554 -0.08105737
0001c0 4e 00 10 bf dd 4f 9b be 60 89 ea be aa ae 09 bf
       -0.56250465 -0.30334368 -0.45807934 -0.5378214
0001d0 f3 1c 98 be ea 96 d5 be 2e f7 91 be 82 35 cc be
       -0.29709587 -0.417167 -0.28508896 -0.39884573
0001e0 db 6b 6d be d5 77 d7 be 6c 05 0a bf 48 74 37 be
       -0.23185675 -0.42083612 -0.53914523 -0.17915452
0001f0 82 34 dc bd 0f 56 fe be 54 45 c4 be d0 31 d3 be
       -0.107522026 -0.49675032 -0.38334143 -0.4124894
000200 59 31 96 be 51 60 0c bf ef 95 15 be bf ef f2 be
       -0.29334524 -0.5483447 -0.14607976 -0.47448537
000210 6e 73 e2 be 8e a5 5c be cd e4 84 be 34 0c c8 be
       -0.4422869 -0.21547529 -0.2595581 -0.3907181
000220 b0 46 0f be 5f 2a 82 be 40 51 5e be e5 00 15 bf
       -0.13991809 -0.25422952 -0.21710682 -0.5820449
000230 0f c0 83 be e4 67 8d be 97 52 40 be 36 fd 6c be
       -0.25732467 -0.27618325 -0.18781506 -0.23143467
000240 7a 08 32 be b0 85 5c bd b3 cb c7 be 65 c2 ff be
       -0.17386046 -0.05383843 -0.39022598 -0.49953
000250 41 64 c4 be e5 d7 a8 be 6e d9 b1 be f5 d6 1e bf
       -0.38357738 -0.32977214 -0.34736198 -0.6204675
000260 7c 2c aa be 0c 4b d8 be 0f ce 90 be 55 af 51 be
       -0.33237064 -0.42244756 -0.2828221 -0.2047704
000270 28 74 96 be 55 ed 12 be cc 2c 9d be fe ad 8e be
       -0.29385495 -0.14348347 -0.3069824 -0.2786712
000280 11 c0 01 bf e1 6b aa be 7a b0 b8 be 0e 66 1c be
       -0.50683695 -0.3328543 -0.3607214 -0.15273306
000290 66 9d c6 be 74 43 f7 be 83 17 b4 be 62 f5 9e be
       -0.3879196 -0.4829365 -0.35174188 -0.31046587
0002a0 ad de 70 be a7 51 34 bd 88 48 0f bf 81 4a ee be
       -0.23522444 -0.044023182 -0.5597005 -0.46541217
0002b0 3d 65 f7 be 2a a3 2c be 0c 78 47 be db 28 a1 be
       -0.48319426 -0.16859117 -0.19479388 -0.31476483
0002c0 71 e5 03 be 7e e2 bd be 82 02 67 be 1b db 58 be
       -0.12880494 -0.37086862 -0.2255955 -0.21177332
0002d0 1e b6 f4 bb 81 94 50 bd 9e c1 c7 be 15 76 28 be
       -0.007467999 -0.050922874 -0.39014906 -0.16451295
0002e0 93 2a 38 be 9e 92 8d be 3a 1b 84 be 26 87 bc be
       -0.17984991 -0.27650923 -0.25802022 -0.3682186
0002f0 df b6 99 be 8f 9a e8 bd 6e f6 2c be a4 de 90 be
       -0.30022332 -0.11357605 -0.1689088 -0.2829486
000300 09 a8 82 be bf 61 ef be 10 8f 62 be f4 a3 15 bf
       -0.25518826 -0.46754262 -0.22124887 -0.584533
000310 c9 46 7c be 1e 29 a7 be e8 25 c1 be 43 68 5f be
       -0.24636377 -0.32648557 -0.37724233 -0.21817116
000320 fd b4 51 be 47 a3 66 bd 3c d9 12 be 9a 9d 9d be
       -0.20479198 -0.056308057 -0.14340681 -0.30784303
000330 f3 11 c0 be 45 86 ce be b0 40 4a be 68 86 33 be
       -0.37513694 -0.40336815 -0.19751239 -0.1753174
000340 c5 a6 77 be 79 f3 58 be c3 be 85 be 3b 47 ec be
       -0.24184711 -0.21186627 -0.26122102 -0.46148095
000350 44 4c 0d bf 48 c8 32 3d 56 bb 19 be 85 64 1c bf
       -0.551945 0.043648034 -0.15012869 -0.6109088
000360 24 0b c0 be cd 1b 83 be 98 1b 0f be a6 4f 3b 3c
       -0.375085 -0.25607148 -0.1397537 0.011432564
000370 4c 85 b3 be 1a 61 91 be 03 d7 71 3d 5f a3 19 bf
       -0.35062635 -0.28394395 0.05904294 -0.6001491
000380 e1 3a 0b c0 35 85 cd bf f1 a1 dc bf c4 dd 22 c0
       -2.1754687 -1.6056277 -1.723692 -2.5447855
000390 88 15 d0 bf 7b 6e 4b c0 b3 ca f3 bf cb 9f f2 bf
       -1.6256571 -3.1786182 -1.9046234 -1.8955015
0003a0 33 1f 04 c0 fa 0d e3 be 8b 1f ca bf f8 f5 25 c0
       -2.0644042 -0.443466 -1.5790876 -2.5931377
0003b0 49 a8 2d c0 bb 12 4d c0 28 18 61 c0 72 7a a6 c0
       -2.7133963 -3.2042682 -3.5170994 -5.202447
0003c0 a9 43 87 c0 1a d2 db 3e 17 4e a4 3e 3f 1a 5d c0
       -4.2270093 0.42933732 0.32090828 -3.454727
0003d0 c1 e7 8d 3f a6 46 29 c0 65 e9 b7 c0 1f b6 5e c0
       1.1086351 -2.644937 -5.7472405 -3.4798658
0003e0 eb 7e 5e c0 d4 0d 37 c0 37 ca 00 c0 c5 3d 73 bf
       -3.4764965 -2.860219 -2.0123422 -0.9501613
0003f0 01 0a 27 c0 c0 4c 9a bf cf 5e b5 bf 5d 1a cd bf
       -2.6099856 -1.2054672 -1.4169558 -1.602367

network.2.bias f4 [56]
000000 2a f4 1e c0 e8 0f c9 be 11 93 a6 be c9 3f 9c be
       -2.4836526 -0.39269948 -0.32534078 -0.30517414
000010 2f 97 e9 c0 8b 0c c2 be af dc ac be e8 37 45 be
       -7.299705 -0.37900195 -0.33762118 -0.19259608
000020 03 ce b5 be 60 df 8d bf 7e c9 b6 be 3c c9 a5 be
       -0.35508737 -1.1083794 -0.357006 -0.32380092
000030 77 52 e4 bf f6 c0 a2 be 2e 50 a3 be da 6f 5d be
       -1.7837666 -0.31787843 -0.3189711 -0.21624699
000040 35 3d ac be 47 52 ab be 64 61 a7 be 7b 31 3f c0
       -0.33640447 -0.3346121 -0.3269149 -2.987395
000050 85 8e 47 be 55 b3 b6 be 32 14 ee bf 6f 23 31 be
       -0.1948796 -0.35683694 -1.8599913 -0.17298673
000060 c3 52 a4 be bd e8 8f c0 52 1a bc be e6 56 1d bf
       -0.32094392 -4.4971604 -0.3673883 -0.6146072
000070 bc 0b f5 be 1b 30 9b be 38 b2 d4 be 31 dc d1 be
       -0.47860515 -0.3031014 -0.4154222 -0.40988305
000080 49 99 88 be d2 16 85 be 56 87 7f be e0 56 af be
       -0.26679447 -0.25993973 -0.2495397 -0.34245968
000090 23 26 d1 be 08 f0 02 bf a8 34 ea be c0 f0 66 bf
       -0.40849409 -0.5114751 -0.457433 -0.90211105
0000a0 6a 3d 06 42 76 d5 00 bf 5c 90 57 be 07 d4 26 bf
       33.559975 -0.50325716 -0.21051162 -0.6516728
0000b0 c4 52 1e bf 23 45 77 bf 33 f5 ae be a0 32 5f c0
       -0.6184504 -0.9658987 -0.34171447 -3.487465
0000c0 48 da 28 c0 7a cc 4c be 5f 17 55 be 1d 0f 30 bf
       -2.6383228 -0.19999877 -0.20809697 -0.6877306
0000d0 5f 17 b3 be e6 ac 09 41 73 df bf be a3 2c aa be
       -0.34978768 8.604712 -0.37475166 -0.3323718

network.4.weight f4 [28, 56]
000000 53 6c d2 bd 44 9a 96 3e b8 02 0e 3f 59 d1 22 3e
       -0.102745675 0.2941457 0.554729 0.15900172
000010 9a 0b af be 5b cf af be a6 0f ce 3d f0 99 b5 be
       -0.3418854 -0.34337887 0.100615785 -0.35469007
000020 3e 4a 93 3e c2 12 86 be 4a 23 5b bd 3a fa 0f bf
       0.2876758 -0.26186186 -0.05350045 -0.5624119
000030 22 8c 9b bf d3 01 4f bd 30 46 e6 be b4 90 79 3d
       -1.215214 -0.05053885 -0.44975424 0.060929015
000040 54 53 76 be 2a dd 0d 3f 3d 4d 3e be 95 fe b4 be
       -0.24055225 0.55415595 -0.18584152 -0.3535048
000050 d7 b3 38 3e 8f f5 9d 3d 9d b5 db bd c8 48 a0 be
       0.18037353 0.07712852 -0.10727999 -0.31305528
000060 a8 05 6a be f1 7a 98 bf 58 08 ea 3d f3 35 de be
       -0.2285372 -1.1912519 0.11427373 -0.43400535
000070 c3 aa 04 3f cf 1e e7 bc 82 ce 83 bd b4 f8 ad be
       0.5182306 -0.028212933 -0.064358726 -0.33978808
000080 d0 cc c6 be e4 1a d9 be 65 63 e7 bd 88 5e 70 3e
       -0.38828135 -0.42403328 -0.11298255 0.23473561
000090 4e 0d e1 be 02 91 8c 3c a4 e7 ee bd 45 3a 9a 3e
       -0.43955463 0.017158989 -0.11665276 0.3012258
0000a0 73 3b d3 be da a0 04 bf 95 89 89 be cb 4e 0e bf
       -0.41256294 -0.5180794 -0.2686278 -0.5558898
0000b0 f5 ab 71 be 36 c9 91 be bf 70 82 be 15 17 a5 be
       -0.23600753 -0.28473824 -0.25476643 -0.32244173
0000c0 51 27 14 bd 10 d8 72 3e 36 a8 b8 3b 05 36 a7 be
       -0.036170308 0.23715234 0.0056352867 -0.326584
0000d0 ae 79 41 be 91 5a 16 c0 72 88 70 be 8e 1f 14 bd
       -0.18894073 -2.3492777 -0.2348955 -0.036162905
0000e0 8a 2b 34 be de fb 03 3e 36 41 c3 be 70 eb d9 3d
       -0.17594734 0.12889048 -0.3813569 0.10640609
0000f0 40 01 ab be 83 95 a8 3e 70 41 f4 3c a7 29 1f 3e
       -0.3339939 0.32926568 0.02981636 0.15543233
000100 3d fc 9f 3c 08 62 82 3e 7b c0 ab bd 7f 40 83 3e
       0.019529456 0.25465417 -0.08386322 0.25635144
000110 47 db 4e be f2 c5 9b bd e2 a6 9d bd f1 87 c3 3c
       -0.20200835 -0.076061144 -0.07697846 0.023868533
000120 99 28 da 3e 8a d1 00 bf 5d ce 9f 3c 0a d3 0f be
       0.426091 -0.5031973 0.019507581 -0.14045349
000130 87 bb 6f 3e 17 48 b8 bd 11 f3 d7 3f f1 0c 89 3d
       0.2341138 -0.08998125 1.6871053 0.066919215
000140 d3 43 15 3d 3e 0c c0 bf 67 8c 75 be 46 a0 9e be
       0.036441635 -1.5003736 -0.2397934 -0.30981654
000150 77 0d a0 3d 54 e5 87 3d bf ef 7a 3e 83 07 b5 3c
       0.07815068 0.06635538 0.24505518 0.022098308
000160 60 08 96 bd df 30 ff 3d 41 d1 76 3c 5f a6 34 bd
       -0.07325816 0.12460493 0.015064538 -0.044103976
000170 81 80 90 be ab fb 0f be c0 ae 61 3e ec 79 2d be
       -0.2822304 -0.14060847 0.22039318 -0.16941041
000180 88 e4 77 be 80 0d 97 3e ac 6c 07 be 53 05 b2 be
       -0.24208272 0.29502487 -0.13225049 -0.34769687
000190 1d 39 45 3e a2 25 dd be 6a 81 81 3e cc 3c 51 40
       0.19260068 -0.43192774 0.25294048 3.2693357
0001a0 4f 9c b3 be b2 20 bc be b4 42 ee bd 3f 0e f7 bc
       -0.35080191 -0.36743695 -0.11633816 -0.03015816
0001b0 d6 17 ab bd e9 b7 34 bf 5f 5a 54 be 30 54 8e bd
       -0.08354156 -0.70593125 -0.20737599 -0.06949651
0001c0 50 a9 f1 3e 91 14 8c be f4 48 8a bd 57 64 45 be
       0.47199488 -0.2735944 -0.06752196 -0.19276558
0001d0 d9 9e ed be a3 a8 e9 bd 21 cd c9 bd c3 02 91 be
       -0.46410254 -0.11409118 -0.09853578 -0.2832242
0001e0 6d 2a 86 be 95 cb 17 bf 9d 52 8f be b0 36 a7 3e
       -0.26204243 -0.59295017 -0.27992716 0.3265891
0001f0 74 5b 27 bf d0 20 93 be d5 07 00 be 2c 3b ab be
       -0.6537392 -0.2873597 -0.12502988 -0.33443582
000200 1c 79 6a 3b 2f c1 cf bd 92 65 ad be da 17 1d be
       0.0035777753 -0.10144269 -0.33866554 -0.1534113
000210 71 77 a2 be d2 86 94 be fa 4d c3 bf 9b d6 80 3c
       -0.31731752 -0.2900911 -1.5258172 0.015727332
000220 82 8a 16 bc 0c be ff be d9 ce da be 20 3c cc be
       -0.009188296 -0.49949682 -0.42735937 -0.39889622
000230 fe e2 00 bf 5e 17 b8 be c3 60 f6 3e 2a 42 80 3d
       -0.5034636 -0.35955328 0.48120698 0.0626262
000240 97 16 91 3d 39 b2 1b bf 90 42 c4 be 3f 08 98 be
       0.07084387 -0.6081882 -0.38332033 -0.2969379
000250 d5 25 eb be 48 9d 9b be 04 37 b9 be 47 30 e8 bd
       -0.459273 -0.30393434 -0.36174786 -0.11337333
000260 0a b9 f1 be 3d 0b 4c 3e 9c 6e 86 bd 06 86 99 be
       -0.47211486 0.19926162 -0.06564066 -0.29985064
000270 c7 c4 07 bc 9b ec af 3c 41 7e 75 3d f4 2d 88 bd
       -0.0082866615 0.021475127 0.05993486 -0.0664939
000280 37 87 df be 5b 9a 0c be 62 18 ba be ef 03 d1 be
       -0.43657848 -0.13730757 -0.36346728 -0.40823314
000290 b0 df 37 bd d9 08 94 be 7e e1 47 bc 22 79 a1 be
       -0.04489106 -0.28913 -0.012199758 -0.3153773
0002a0 26 ad 0a bf f2 c3 ca bd dd 74 b8 3e 6b e1 6a bd
       -0.54170454 -0.09900655 0.3602666 -0.05734388
0002b0 31 3b a3 be 44 14 a9 bc 44 da ae be 54 a7 a7 3d
       -0.31881097 -0.020639546 -0.34150898 0.08186212
0002c0 a1 45 1c be 34 26 ed be 0b 1b 9e bd 9e 9f a5 bd
       -0.15260936 -0.4631821 -0.07720002 -0.08087085
0002d0 9f d5 ec 3c 99 bf 89 be 1b 0e 78 bd be 0f 4c 3d
       0.028910456 -0.2690399 -0.060560327 0.0498197
0002e0 da 77 b8 be 84 1c 91 3d 3e 7c a9 3a fe 0f 85 be
       -0.3602894 0.07085517 0.0012930704 -0.25988764
0002f0 09 e1 0e 3d b3 20 de be 5b 07 cc be 40 bd b1 3d
       0.03488258 -0.43384323 -0.39849362 0.08678675
000300 19 c3 7f be 73 bd cc be 3c c9 af be 5a b2 99 bf
       -0.24976768 -0.39988288 -0.34333217 -1.2007554
000310 57 73 25 be 66 16 b4 bd 60 5b fa be 9b 78 14 be
       -0.1615728 -0.08793335 -0.4889784 -0.14499132
000320 ab 71 4a bd 13 0a c9 bd 3e 87 a0 be 23 6d 64 be
       -0.04942481 -0.09816375 -0.31353182 -0.22307257
000330 32 9b 61 bd 7c 5a 4a be ff 93 23 be df 07 c2 3d
       -0.055079646 -0.1976108 -0.15974425 0.094741575
000340 6a 60 f4 bf f2 68 10 bd b1 d1 6a 3d 2d ce 82 bc
       -1.9091923 -0.035256334 0.057328884 -0.015967453
000350 6c 9d a0 be c5 1b a5 be 54 ad 0d bf 6d 02 01 be
       -0.31370103 -0.3224775 -0.553426 -0.12598582
000360 fa fd 9a bf 02 e8 5d 3e f7 bf ef 3d b3 99 99 be
       -1.2108757 0.21670535 0.11706536 -0.30000076
000370 7c c5 d1 be 03 15 1b bf 61 a5 f3 3d 7c c5 ac bc
       -0.4097098 -0.60578936 0.11896778 -0.021090262
000380 15 39 73 bd 69 9d 1f bd 25 db f8 3e 17 c7 38 be
       -0.05938061 -0.038968477 0.48604694 -0.18044697
000390 7b ec ba bf a6 31 69 3e ca 24 81 3e 04 1e 80 bd
       -1.4603418 0.22772846 0.2522338 -0.06255725
0003a0 ca 74 15 3d b0 fc 2a 3d 51 7e c6 3e e8 0a 7a 3d
       0.03648833 0.041744888 0.38768247 0.061045557
0003b0 3b 90 63 be 4f 66 89 3c 10 20 71 3e 20 c2 dd 3d
       -0.22222988 0.016772417 0.23547387 0.10828042
0003c0 b6 43 c2 be 83 c7 8a 3e 1a e4 ab 3c ae 68 36 be
       -0.37942284 0.2710534 0.02098279 -0.1781337
0003d0 3f 53 02 3d ce a8 83 3e f2 51 71 bd 22 e4 28 3e
       0.03181767 0.25714725 -0.05891604 0.16493276
0003e0 46 64 3e 3e cc a0 53 be 6e cf 74 3d 72 bc 8b be
       0.18592939 -0.20666808 0.059768133 -0.2729221
0003f0 88 45 3a 3d 49 8d 3a 3e 78 b1 87 bd f4 82 18 3e
       0.045476466 0.18217959 -0.06625646 0.14893705

network.4.bias f4 [28]
000000 b8 3e fb bf 50 de 2a c0 42 66 99 be b4 99 af bf
       -1.9628515 -2.6698189 -0.2996083 -1.3718781
000010 c6 56 15 be 8b 36 03 c0 14 2d 0b c0 7c d0 47 bf
       -0.14583883 -2.050204 -2.1746264 -0.78052497
000020 16 3c 25 c0 4e 06 36 bf 07 bb 92 bf 1c 1c 17 bf
       -2.5817924 -0.7110337 -1.1463326 -0.59027267
000030 20 ec 3d c0 6e fb 55 41 07 c2 20 c0 85 7c 03 c0
       -2.967537 13.373884 -2.5118425 -2.054475
000040 a8 4a d9 bf ed eb 3c c0 1f d1 da bf ee 67 1e c0
       -1.6975908 -2.9518998 -1.7095069 -2.4750934
000050 8e dc 9f bf 91 0b 39 bf 05 b4 55 c0 71 1e fe bf
       -1.2489183 -0.72283274 -3.3391125 -1.985304
000060 da 52 83 c0 21 b7 02 c0 7d 6e 77 bf 33 44 6b c0
       -4.1038637 -2.0424273 -0.96652967 -3.6760375

network.6.weight f4 [1, 28]
000000 6a 4a 73 be 8d 35 5d 3f fa 63 4b 3f 8a 74 c7 bc
       -0.23758855 0.86409837 0.7944943 -0.024347562
000010 52 61 87 be 23 93 df bf 5f dd 8d bf b2 ed d1 3f
       -0.26441437 -1.7466778 -1.1083182 1.6400664
000020 d5 1b 7b be 6d 43 a1 3f ed cb d2 3f 80 a6 ab 3f
       -0.24522336 1.2598702 1.6468483 1.3410187
000030 93 15 b7 be 64 30 4f be 80 92 8b 3f e1 af af 3d
       -0.35758647 -0.20233303 1.0904083 0.08578468
000040 ab 73 28 3f 0f d1 ac 3f f3 cf 4f 3f a9 5a 69 be
       0.65801495 1.35013 0.8117668 -0.2278849
000050 4a 11 e0 3f 38 6f 8d 3f 72 1a c0 3e 38 c0 96 3e
       1.7505276 1.1049566 0.37520176 0.29443526
000060 30 2e 9c bf 8d 9a 99 bf 89 4b 2c 3e 67 f7 c3 be
       -1.2201595 -1.200029 0.1682569 -0.3827469
