HPC/Major_project/logistic_regression/models/exp1/88.pth (torch, 4959 bytes, 3 tensors)

network.0.weight f4 [28, 28]
-0.51485866 -0.8399431 -0.107311875 -0.57625103 -0.21805264 0.07383075 1.3044349 0.14190796
1.065705 -1.0296892 -0.016773244 -0.80420375 0.47966757 -0.81682146 -0.1164835 -0.41474506
0.6559898 0.51119447 -0.65468174 -0.46133623 0.39398444 -0.20928505 0.30718067 -1.0735664
0.15573229 0.8001213 -1.2124337 -0.19414751 -0.4720724 0.4151415 0.080077484 0.24130052
0.017804518 0.7697882 -0.44681242 -0.013030394 0.35929465 1.3895057 -0.021459231 -0.041468732
0.8376673 1.2379222 0.02952387 -0.11338792 0.93352973 1.098235 0.024410855 0.0019838263
0.46130103 -0.476481 2.5387564 0.1270679 2.4878585 -2.6641183 2.2254512 -4.6011806
-1.6099975 0.0650661 0.1040426 -1.205589 0.09288547 0.15390226 -0.16952758 0.0040069725
0.6972004 0.246655 0.26102883 -0.027775276 0.34421954 0.48902938 0.09208303 -0.043740574
0.3356005 0.49280235 -0.0014285119 0.051438164 0.4214405 -2.1995094 0.3540286 0.5519574
-0.014963337 -7.881529 3.0042644 -6.0816393 0.73018324 -0.020573284 -0.02258344 1.1598897
0.034165964 -0.11384792 0.11799443 0.036958598 0.25911304 -0.08954929 0.08896402 0.00923664
0.031610887 -0.17440307 -0.028264327 0.098312385 0.09391059 0.12091696 -0.04060986 0.09193182
0.2624703 -0.5141122 0.038155768 -0.117978714 -0.88387775 0.4097473 3.5686078 -12.537517
-5.1120634 -0.18315692 0.004115499 -2.4145136 0.030132253 0.67155033 0.07457699 -0.034435414
-0.4798422 0.033350643 0.025542773 -0.062733784 -0.064169094 0.1852141 -0.014339195 0.017909652
0.20418473 0.10061413 -0.021131637 0.0038237544 0.39541906 0.18912405 0.81188023 1.4903951
-0.4764023 4.0859275 -7.262147 1.3033478 0.20310001 0.05044497 0.011061972 0.33642644
0.038777474 0.07724802 -0.07249085 0.018520964 -0.07570813 0.20522943 0.057133034 -0.00604883
0.11324543 0.09122234 -0.0068689073 0.014831177 0.37652084 0.040647637 -0.014282319 0.01607687
0.5062594 4.7026563 -14.017564 -0.33062154 -0.4919342 0.9298747 -3.1927145 0.9342261
0.5236518 0.026053319 0.0074706245 0.16491799 0.04446681 0.06419119 0.01864635 -0.0039786175
-0.13476813 0.25699505 0.08139079 -0.008710713 -0.32724366 0.39818922 -0.009262916 0.06537947
-0.34701934 0.45777038 -0.0064711417 -0.030299665 -0.5619698 0.06960488 0.08181912 -0.47602603
0.81044006 -13.109299 -0.27783024 -0.12113774 3.1116276 -4.0533514 -0.047322888 0.9777977
-0.009250658 1.7923933 6.0250154 -0.1450227 -1.0322031 0.67706347 -0.4443574 0.18609281
0.7215042 0.6527 -0.24812335 0.033375535 0.4983514 0.14826874 -0.080917604 -0.055878963
0.287317 0.1831191 -0.6109398 -0.38829574 -0.25061738 -0.86737293 -0.056894515 0.9531879
2.2139688 -0.4108724 0.048232198 1.331426 0.13645305 -0.47993213 0.09199825 -0.1521376
0.69268996 -0.7093047 -0.0053939214 -0.025261125 -0.38655347 0.28361943 -0.01254106 0.04984777
-0.05556658 0.683692 0.11741332 -0.058309615 0.35295743 -0.9741886 -3.7806387 -0.30543762
1.3736708 3.5805316 2.6306643 -2.3890562 0.7865294 -0.015310977 -0.008316676 0.52779984
00000000: c7cd 03bf 8306 57bf 54c6 dbbd 3085 13bf
00000010: 3149 5fbe 9434 973d b9f7 a63f 5250 113e
00000020: 0569 883f dbcc 83bf 0b68 89bc 4ce0 4dbf
00000030: fd96 f53e 361b 51bf e78e eebd 7759 d4be
00000040: f3ee 273f a4dd 023f 3999 27bf 4334 ecbe
00000050: 54b8 c93e d24e 56be c946 9d3e a06a 89bf
00000060: 4978 1f3e c0d4 4c3f 0731 9bbf 9bce 46be
00000070: 79b3 f1be 6d8d d43e aaff a33d 7c17 773e
00000080: c8da 913c d710 453f 99c4 e4be 6f7d 55bc
00000090: 78f5 b73e 53db b13f 45cb afbc 1edb 29bd
000000a0: 5d71 563f 3c74 9e3f 0bdc f13c ed37 e8bd
000000b0: cefb 6e3f f792 8c3f 46f9 c73c 1503 023b
000000c0: a62f ec3e 51f5 f3be fc7a 2240 161e 023e
000000d0: 1339 1f40 ea80 2ac0 cb6d 0e40 df3c 93c0
000000e0: 6614 cebf 6041 853d 4914 d53d be50 9abf
000000f0: bd3a be3d 8e98 1d3e a398 2dbe ec4c 833b
00000100: ba7b 323f 2193 7c3e 92a5 853e fa88 e3bc
00000110: 8b3d b03e 0f62 fa3e 0796 bc3d 5129 33bd
00000120: d4d3 ab3e 9750 fc3e e83c bbba d3b0 523d
00000130: 0dc7 d73e c3c4 0cc0 3d43 b53e 154d 0d3f
00000140: c928 75bc 7c35 fcc0 de45 4040 ca9c c2c0
00000150: 4aed 3a3f 4e89 a8bc e800 b9bc 4477 943f
00000160: 9cf1 0b3d 1929 e9bd 10a7 f13d e661 173d
00000170: 77aa 843e 9e65 b7bd c532 b63d 4755 173c
00000180: 6b7a 013d b896 32be 978a e7bc 0158 c93d
00000190: 3254 c03d 50a3 f73d 8656 26bd c046 bc3d
000001a0: 8262 863e db9c 03bf 3949 1c3d d39e f1bd
000001b0: d045 62bf 66ca d13e 1264 6440 ab99 48c1
000001c0: 0696 a3c0 7d8d 3bbe 4fdb 863b 6487 1ac0
000001d0: ead7 f63c b9ea 2b3f d2bb 983d 260c 0dbd
000001e0: e0ad f5be af9a 083d 143f d13c 927a 80bd
000001f0: 166b 83bd c4a8 3d3e f1ee 6abc 43b7 923c
00000200: cd15 513e c80e ce3d 411c adbc f497 7a3b
00000210: 5e74 ca3e bca9 413e 62d7 4f3f 44c5 be3f
00000220: 01eb f3be ebbf 8240 8263 e8c0 1ad4 a63f
00000230: 73f9 4f3e 639f 4e3d 463d 353c 1640 ac3e
00000240: 21d5 1e3d 3634 9e3d 1576 94bd 47b9 973c
00000250: dd0c 9bbd aa27 523e 5404 6a3d 4435 c6bb
00000260: 38ed e73d c7d2 ba3d 9214 e1bb 77fe 723c
00000270: 57c7 c03e 237e 263d 6300 6abc a4b3 833c
00000280: 379a 013f 297c 9640 f147 60c1 3a47 a9be
00000290: cdde fbbe 450c 6e3f 6f55 4cc0 7129 6f3f
000002a0: 0b0e 063f c56d d53c 24cc f43b 43e0 283e
000002b0: d422 363d ac76 833d 3bc0 983c 105f 82bb
000002c0: a800 0abe db94 833e 37b0 a63d 61b7 0ebc
000002d0: 7b8c a7be 75df cb3e 7cc3 17bc ace5 853d
000002e0: 85ac b1be e160 ea3e df0b d4bb 0137 f8bc
000002f0: 41dd 0fbf 018d 8e3d c890 a73d afb9 f3be
00000300: 0079 4f3f b0bf 51c1 c43f 8ebe 1017 f8bd
00000310: e824 4740 0eb5 81c0 a5d5 41bd f350 7a3f
00000320: 1290 17bc 256d e53f edcc c040 d580 14be
00000330: 3b1f 84bf 0854 2d3f d082 e3be 1d8f 3e3e
00000340: 80b4 383f 5917 273f 0c14 7ebe c9b4 083d
00000350: ea27 ff3e c3d3 173e 21b8 a5bd 57e1 64bd
00000360: 371b 933e 9383 3b3e 8d66 1cbf b3ce c6be
00000370: ec50 80be 270c 5ebf 390a 69bd 1f04 743f
00000380: aab1 0d40 de5d d2be 208f 453d 2b6c aa3f
00000390: 59ba 0b3e aab9 f5be 9469 bc3d f6c9 1bbe
000003a0: 2154 313f fe94 35bf 7ebf b0bb 6bf0 cebc
000003b0: 56ea c5be 9136 913e 0579 4dbc 2d2d 4c3d
000003c0: c899 63bd 7006 2f3f 6576 f03d 10d6 6ebd
000003d0: d6b6 b43e 6d64 79bf fcf5 71c0 5262 9cbe
000003e0: 72d4 af3f 6e27 6540 ce5c 2840 4ce6 18c0
000003f0: fe59 493f e4da 7abc ab42 08bc e41d 073f

network.0.bias f4 [28]
-11.078426 1.227076 -7.5730553 1.0720464 -0.7335383 -3.8048172 -11.085918 -14.53359
-10.774813 -3.3183973 -4.6550126 -0.20783062 -4.4713607 -4.661745 -3.8911572 -12.184585
-3.7085283 -4.3241243 -7.7488694 -11.184975 -0.61209506 0.77087253 -4.45599 -7.0409927
2.5258653 -10.176883 -2.6679866 -7.5085397
00000000: 3c41 31c1 d410 9d3f 7856 f2c0 d138 893f
00000010: 2bc9 3bbf 2082 73c0 ec5f 31c1 9689 68c1
00000020: a265 2cc1 9f60 54c0 ddf5 94c0 8dd1 54be
00000030: 6315 8fc0 042d 95c0 b808 79c0 0ff4 42c1
00000040: 8758 6dc0 3a5f 8ac0 bdf6 f7c0 a8f5 32c1
00000050: 43b2 1cbf e757 453f 7897 8ec0 d04f e1c0
00000060: c7a7 2140 83d4 22c1 4bc0 2ac0 f545 f0c0

network.2.weight f4 [1, 28]
0.08109756 0.13799658 -0.13868114 0.22091313 0.22379093 0.22251561 0.23265031 0.15220724
0.16841757 -0.2777129 -0.20857795 0.14544411 -0.01119094 0.07344434 0.20586328 0.11100541
0.38698435 -0.12874074 0.12547517 -0.14200862 -0.38793242 -0.20061617 -0.11849552 -0.09760626
-0.17481498 0.75574577 -0.16285162 -0.13884334
00000000: 7a16 a63d fa4e 0d3e 6e02 0ebe 0d37 623e
00000010: 7329 653e 22db 633e e23b 6e3e 37dc 1b3e
00000020: a875 2c3e 6330 8ebe 7595 55be 4def 143e
00000030: 345a 37bc fc69 963d d3cd 523e ce56 e33d
00000040: d022 c63e 9dd4 03be 907c 003e b56a 11be
00000050: 149f c6be 536e 4dbe c7ad f2bd cae5 c7bd
00000060: b302 33be 8e78 413f 93c2 26be f32c 0ebe
