HPC/Major_project/logistic_regression/models/exp1/92.pth (torch, 28367 bytes, 7 tensors)

network.0.weight f4 [56, 28]
0	0xbe2ecb61	-0.1706977
1	0xbfdf0049	-1.7421962
2	0x3fb6c91d	1.4280125
3	0x3f2bb3c0	0.6707115
4	0xbdc81dce	-0.0977131
5	0x3ebd752e	0.37003464
6	0x3f324fc4	0.6965296
7	0xbfb463ba	-1.4092934
8	0xc1061fd6	-8.382772
9	0xc0dacaec	-6.8372707
10	0xbff3422a	-1.9004567
11	0x3e9b4853	0.30328616
12	0x4083b5be	4.1159353
13	0xc0223b50	-2.5348701
14	0x401cf311	2.4523356
15	0xbe1b8bb1	-0.15190007
16	0x3f68782c	0.9080837
17	0xc029211c	-2.6426458
18	0x3f426fbc	0.75951743
19	0xbf8aa406	-1.0831306
20	0xb92eb517	-0.00016661394
21	0xc07009a7	-3.7505891
22	0xbda96592	-0.08271326
23	0xc00c1997	-2.1890619
24	0x40b29488	5.5806313
25	0x40f259dd	7.5734696
26	0xc125b2e2	-10.356173
27	0x40ffcad1	7.993508
28	0x406bf8b1	3.687054
29	0x40c9c290	6.3050003
30	0x3f15acf3	0.58467025
31	0x4027dd73	2.6228912
32	0xbe031b31	-0.12803341
33	0xbf51d9d3	-0.81973
34	0x3f79f81f	0.9764423
35	0x3e994c7a	0.2994116
36	0x3fafe119	1.3740569
37	0x4082d613	4.088632
38	0xc1593473	-13.575305
39	0x3e6847da	0.22683659
40	0xc0815864	-4.04204
41	0x3fafc0ba	1.373069
42	0x3f897264	1.0738034
43	0x3eb5b4da	0.3548954
44	0x3c77f4b9	0.01513403
45	0xbdca5fca	-0.098815516
46	0x3f55b588	0.8348012
47	0x3bce87c4	0.0063028056
48	0x3ea24b9c	0.3169831
49	0x3f9a71f1	1.2066022
50	0xc002fa94	-2.046544
51	0xbfa114b5	-1.2584444
52	0x3fa02f45	1.2514426
53	0xc03741b2	-2.8633847
54	0x3ed7d0b6	0.4215142
55	0x3f72f304	0.9490206
56	0x4105bf1c	8.359158
57	0xc0650917	-3.5786798
58	0xbec1cfb8	-0.3785379
59	0x40d7cc0e	6.743659
60	0xbe6f7c97	-0.23387371
61	0xc13ec2d5	-11.922566
62	0x3f09be92	0.5380641
63	0x3ccba054	0.024856724
64	0xbf7bed75	-0.98409206
65	0x414df54e	12.872389
66	0x40637cd0	3.554493
67	0x3e3dbb6e	0.1852853
68	0x40924902	4.571412
69	0xc0804bd6	-4.0092573
70	0x3e97be35	0.29637304
71	0x3e13e50d	0.14442845
72	0x3c306476	0.010766139
73	0xc00478ba	-2.0698686
74	0xbf59bf44	-0.85057473
75	0x3db4362d	0.08799396
76	0xbf4f34e5	-0.80940086
77	0xbf6fad25	-0.9362357
78	0x3ffa83ec	1.9571509
79	0xc080bb1f	-4.022842
80	0x401ebb96	2.4801993
81	0xbfa6bc64	-1.3026242
82	0xbeba9316	-0.36440343
83	0x4004acc1	2.073044
84	0x40ba8ad5	5.8294473
85	0xc002efed	-2.045894
86	0xbdad0a44	-0.08449224
87	0x4082e9b2	4.0910273
88	0xbf00a412	-0.5025035
89	0x419995d3	19.198156
90	0x4050c9ca	3.2623162
91	0x3b336f67	0.0027379633
92	0x408ad670	4.3386765
93	0xc0f5cebf	-7.6814876
94	0xbfd0d7e0	-1.631588
95	0x3f1965ce	0.59920967
96	0x3f78153d	0.9690741
97	0xc08a6a2a	-4.3254595
98	0x3ebacd1e	0.36484617
99	0x3e1ebb28	0.15501082
100	0xbe1bfce2	-0.15233186
101	0xc06729cc	-3.611926
102	0x3e4f555b	0.20247404
103	0xbd159234	-0.036516383
104	0x3c979334	0.01850281
105	0x3e36cb23	0.17850928
106	0x40015430	2.0207634
107	0xc05d5a7b	-3.4586475
108	0x3fcca32b	1.5987295
109	0xc00657a0	-2.0990982
110	0xc03caa51	-2.9478953
111	0x4039df31	2.9042475
112	0xc16b59f9	-14.709466
113	0xbfd4ecf8	-1.6634817
114	0x3ccc2b61	0.024923028
115	0xc110610c	-9.023693
116	0xbdc8bbf9	-0.09801478
117	0x3f71a51b	0.94392556
118	0x3e131793	0.14364462
119	0xbc2660b4	-0.010154892
120	0xbf968f57	-1.1762494
121	0x3f434d65	0.7628997
122	0x3f19b4fa	0.60041773
123	0xbe18bd95	-0.1491607
124	0x3d6425c0	0.055700064
125	0x3e80260f	0.25029036
126	0x3e2ba57c	0.16762346
127	0x3e46c369	0.1941048
128	0x3f51b8d1	0.8192263
129	0x3deb43ff	0.114875786
130	0x3e503fa9	0.20336784
131	0xbdeabae4	-0.11461428
132	0x3f8c3879	1.0954734
133	0x4013279e	2.299293
134	0x3fef3e56	1.8690898
135	0x40a4661c	5.1374645
136	0xbf587fa9	-0.84569794
137	0x4158dce8	13.553932
138	0xc1c41158	-24.508469
139	0x405f6a99	3.4908812
140	0x3f3fe7dc	0.74963164
141	0x3e1bf1a5	0.15228899
142	0x3e29ee33	0.16594772
143	0xc003b461	-2.0578845
144	0xbfb2d5db	-1.3971514
145	0x40cbc3a0	6.36763
146	0x3ff437c4	1.9079518
147	0x3d54aa24	0.05192007
148	0xc085f33b	-4.185941
149	0x40ad4a0a	5.415288
150	0xbf581781	-0.84410864
151	0x3f123f53	0.57127875
152	0xbebacaed	-0.36482945
153	0x40981257	4.7522388
154	0x3e067825	0.13131769
155	0x3fada9d4	1.3567452
156	0x3ff12785	1.8840185
157	0x3fd09548	1.6295557
158	0xbfd52828	-1.665288
159	0xbd1947ce	-0.037421994
160	0xbfd1332c	-1.6343741
161	0xc0b83715	-5.756724
162	0xbeaf05b3	-0.34184036
163	0xc01ebc01	-2.4802248
164	0x410b8ba2	8.72159
165	0xc0e5f3fd	-7.1860337
166	0xc0503e96	-3.25382
167	0x40e99e96	7.3006086
168	0xc107963e	-8.47418
169	0xbfc46068	-1.5341921
170	0xbed59972	-0.41718632
171	0xc038ee52	-2.889546
172	0xbe7ea502	-0.24867633
173	0xc1463812	-12.388689
174	0x4132707b	11.152461
175	0x3c74668c	0.014917027
176	0x40121f17	2.2831476
177	0xc0fff6fe	-7.9989004
178	0xc0cbf447	-6.373569
179	0xbd0d04a1	-0.034428243
180	0x3fb87f4f	1.4413851
181	0xc07e4b64	-3.9733515
182	0xbf960a5d	-1.1721913
183	0xbe1d7d84	-0.15379912
184	0x3f5abd8d	0.8544548
185	0xc038b0d3	-2.8857925
186	0xbf69c9e1	-0.9132367
187	0x3e0a5939	0.13510598
188	0x3f521c4e	0.8207444
189	0xbf878268	-1.0586672
190	0x40b837fb	5.7568336
191	0x3fc0566d	1.5026375
192	0x3ee81fbd	0.45336714
193	0x404f4972	3.2388577
194	0xc0b226fd	-5.5672593
195	0xc011c8ed	-2.2778885
196	0x3f80612b	1.0029653
197	0x3edba529	0.42899445
198	0xbe47e290	-0.1952002
199	0x3fe83fe8	1.8144503
200	0xbe5d761b	-0.21627085
201	0x412fa6df	10.97824
202	0x3e6d532f	0.23176263
203	0x3f410031	0.7539092
204	0x4037f134	2.8740969
205	0x4055b825	3.3393643
206	0xbf7fc12d	-0.9990414
207	0x3ebb8318	0.36623454
208	0x4036f144	2.8584757
209	0x4018fae6	2.3903136
210	0x3e803145	0.2503759
211	0xbf1bc574	-0.60848165
212	0x40352da6	2.8309112
213	0x4076d2f6	3.856626
214	0xbf1ce4db	-0.61286706
215	0x3e914aac	0.28377283
216	0x401a3ce9	2.4099677
217	0xbfd6dc7c	-1.6786036
218	0x3d95c782	0.07313444
219	0xbe44c52a	-0.19215837
220	0xc090bc35	-4.5229745
221	0xc168abfc	-14.541988
222	0x40d2c2aa	6.5862627
223	0xc023bf21	-2.5585406
224	0xc023d89d	-2.560096
225	0x3e009f65	0.12560804
226	0x3dc80933	0.097673796
227	0xbff46723	-1.9093975
228	0x3ef489c5	0.4776136
229	0x4113e4f1	9.243394
230	0x3f0ae096	0.5424894
231	0x3dc45a47	0.095875315
232	0xc0d5dee8	-6.68346
233	0xbf87758e	-1.058275
234	0xc05178e5	-3.2730038
235	0xbda68803	-0.08131411
236	0x402866c9	2.6312735
237	0xc10b72aa	-8.715494
238	0x3ecd4f5e	0.40099615
239	0xbf2adda5	-0.6674445
240	0xbd902cee	-0.0703982
241	0xc0ff25d6	-7.9733686
242	0x3e90f7cb	0.2831405
243	0x3cca8fde	0.024726804
244	0xbf1cc049	-0.61230904
245	0x40572808	3.3618183
246	0xbfa39c10	-1.2782001
247	0x3f88a284	1.0674596
248	0xbfd70830	-1.6799374
249	0x40e9cc05	7.3061547
250	0xc0b648d6	-5.696391
251	0xbb8fea7e	-0.0043919673
252	0x4065ad06	3.5886855
253	0x3da69a35	0.081348814
254	0xbef3781e	-0.4755258
255	0x407e4867	3.973169

network.0.bias f4 [56]
0	0xc194fbbc	-18.622917
1	0xc1403bae	-12.01457
2	0xc1326f6e	-11.1522045
3	0x3fcb4576	1.5880573
4	0xc01ce211	-2.451298
5	0xc12f23ec	-10.94627
6	0xc0a49003	-5.1425796
7	0xc1a063db	-20.048758
8	0xc1d3f9cb	-26.49697
9	0xc17d70ff	-15.840087
10	0xc1103a59	-9.014245
11	0xc1734254	-15.203693
12	0x3f54e4f9	0.83161885
13	0xc13cff29	-11.812295
14	0x40b6d4af	5.7134624
15	0xc1a31ef8	-20.390121
16	0xc1297ac6	-10.592474
17	0xc1cd892c	-25.691978
18	0xc107222c	-8.445843
19	0x3fbccb3c	1.4749522
20	0xc109e247	-8.6177435
21	0xbffbc312	-1.9668906
22	0xc04d59e8	-3.2086124
23	0x40fe9b10	7.9564285
24	0xc1a7091f	-20.879454
25	0xc11ab3df	-9.668914
26	0x4057cbec	3.3718214
27	0xc182cc4d	-16.349756
28	0xc0b4212d	-5.62905
29	0xc19070f9	-18.055162
30	0xc02d3a36	-2.706678
31	0xc1dbb948	-27.46547
32	0xc11d2db8	-9.823662
33	0xc1964bcb	-18.787008
34	0xc1883770	-17.02707
35	0xc183c337	-16.47032
36	0xc109c405	-8.610356
37	0xc00ec474	-2.2307405
38	0x407f9fee	3.9941363
39	0xc1d3c3ca	-26.4706
40	0xc135b6f3	-11.357165
41	0xc06267da	-3.5375886
42	0xc19d819f	-19.688292
43	0xc1841da8	-16.51448
44	0xc146fdf9	-12.437005
45	0xc1864f5a	-16.788746
46	0xc0c2a8c1	-6.0831
47	0xc1249dcb	-10.288524
48	0xc16fe33e	-14.992979
49	0xc0c8a5a6	-6.2702208
50	0xc09a64d2	-4.824807
51	0xc197f4ee	-18.994595
52	0x3fdc557f	1.7213591
53	0xc08ffcb6	-4.4995985
54	0xc15cd233	-13.801318
55	0xc1901f77	-18.015364

network.2.weight f4 [56, 56]
0	0x3ec03759	0.37542227
1	0xc003c263	-2.0587394
2	0xbf8ac250	-1.084055
3	0xbfb3be84	-1.4042516
4	0xbfd86ae2	-1.6907618
5	0xbf681c5b	-0.90668267
6	0xc038ffbc	-2.8906088
7	0xbf26e15b	-0.65187615
8	0xbe9cd511	-0.30631307
9	0xbe46c88c	-0.1941244
10	0xbe89e6b7	-0.26933834
11	0x3d34e9c9	0.044168267
12	0x3dcd00f0	0.100099444
13	0xc016626f	-2.349758
14	0xc01eaa6a	-2.4791512
15	0xbfccd875	-1.6003557
16	0xbfe23c68	-1.7674685
17	0xbf11451a	-0.56746066
18	0xbf670a82	-0.9025041
19	0xbfcf6c61	-1.620495
20	0xbfc0ef2b	-1.5072988
21	0xbf9971d9	-1.1987869
22	0xbfef6e42	-1.8705523
23	0xbface7cc	-1.3508239
24	0x3d3271ad	0.04356544
25	0xc0522c56	-3.283956
26	0xbfbf1a04	-1.4929814
27	0xbfc3822f	-1.5274104
28	0xc00a97ad	-2.1655076
29	0xbfdef117	-1.7417325
30	0xbffbbf97	-1.9667844
31	0xbed7438d	-0.42043725
32	0xbfacd8f9	-1.3503715
33	0xc0101c74	-2.2517366
34	0xbe01d18a	-0.12677589
35	0xbdf28394	-0.11841503
36	0xbfd33593	-1.6500725
37	0xc00f7e6b	-2.242091
38	0xbfe57fd1	-1.7929631
39	0x3f9234c8	1.1422358
40	0xbf08e220	-0.5347004
41	0xbfd4b89c	-1.6618838
42	0x3c9ded54	0.019278206
43	0xbe7b3edc	-0.24535698
44	0xbffe0e69	-1.9848148
45	0xbfa4b9e6	-1.2869232
46	0xbfe12305	-1.7588812
47	0xbf905f52	-1.127909
48	0xbffe792e	-1.9880731
49	0xbfbc2078	-1.4697409
50	0xbf9c53b5	-1.2213045
51	0xbed26134	-0.41089785
52	0xbff01585	-1.8756567
53	0xbe5f7fb1	-0.21826054
54	0xbf89a7e7	-1.0754365
55	0xbfa038ec	-1.2517371
56	0xbee28bcc	-0.44247282
57	0xbe5f9d5c	-0.21837372
58	0xbe06256a	-0.1310021
59	0xbea76416	-0.32693547
60	0xbab649ef	-0.0013907532
61	0xbf0847c2	-0.53234494
62	0xbf28de69	-0.6596437
63	0xbe8f5e13	-0.2800146
64	0xbe08e120	-0.13367128
65	0xbefb9119	-0.49134138
66	0x3b6d7c4e	0.0036237421
67	0xbf101aff	-0.5629119
68	0xbe9b3c38	-0.3031938
69	0x3d752065	0.059845347
70	0xbe2366b0	-0.15957141
71	0xbf1bc40f	-0.60846037
72	0xbead600d	-0.33862343
73	0xbef7abb1	-0.48373178
74	0xbef96095	-0.487065
75	0xbef9068b	-0.48637804
76	0xbd1862a6	-0.037203453
77	0xbebc3071	-0.36755708
78	0xbe7b53f1	-0.2454374
79	0xbe9b3c49	-0.3031943
80	0xbeb1ea90	-0.3474927
81	0xbe6c1bb2	-0.2305744
82	0xbe2f6f42	-0.17132285
83	0xbe9150db	-0.28382
84	0xbe31dcd7	-0.173694
85	0xbf098de4	-0.5373213
86	0xbe246bbc	-0.16056722
87	0xbe993053	-0.2991968
88	0xbecbe942	-0.398264
89	0xbe82b425	-0.25528064
90	0xbf08e192	-0.53469193
91	0xbe8b6b9e	-0.27230543
92	0xbf02a3e3	-0.5103132
93	0xbf075964	-0.52870774
94	0xbea96bc5	-0.33090034
95	0xbe93ceb6	-0.28868645
96	0xbec9f5e5	-0.39445415
97	0xbed5b112	-0.41736656
98	0xbe3414de	-0.17586085
99	0xbefa9510	-0.4894185
100	0xbe24b1f9	-0.16083516
101	0xbe57de4a	-0.2108089
102	0xbee794ce	-0.45230716
103	0xbd84290e	-0.06453143
104	0xbf14d811	-0.5814219
105	0x3d391148	0.045182496
106	0xbe4940be	-0.19653603
107	0xbedd788a	-0.43256027
108	0xbd09f445	-0.03368022
109	0xbeafcff9	-0.34338358
110	0xbf099d3b	-0.5375554
111	0xbda60168	-0.08105737
112	0xbf10004e	-0.56250465
113	0xbe9b4fdd	-0.30334368
114	0xbeea8960	-0.45807934
115	0xbf09aeaa	-0.5378214
116	0xbe981cf3	-0.29709587
117	0xbed596ea	-0.417167
118	0xbe91f72e	-0.28508896
119	0xbecc3582	-0.39884573
120	0xbe6d6bdb	-0.23185675
121	0xbed777d5	-0.42083612
122	0xbf0a056c	-0.53914523
123	0xbe377448	-0.17915452
124	0xbddc3482	-0.107522026
125	0xbefe560f	-0.49675032
126	0xbec44554	-0.38334143
127	0xbed331d0	-0.4124894
128	0xbe963159	-0.29334524
129	0xbf0c6051	-0.5483447
130	0xbe1595ef	-0.14607976
131	0xbef2efbf	-0.47448537
132	0xbee2736e	-0.4422869
133	0xbe5ca58e	-0.21547529
134	0xbe84e4cd	-0.2595581
135	0xbec80c34	-0.3907181
136	0xbe0f46b0	-0.13991809
137	0xbe822a5f	-0.25422952
138	0xbe5e5140	-0.21710682
139	0xbf1500e5	-0.5820449
140	0xbe83c00f	-0.25732467
141	0xbe8d67e4	-0.27618325
142	0xbe405297	-0.18781506
143	0xbe6cfd36	-0.23143467
144	0xbe32087a	-0.17386046
145	0xbd5c85b0	-0.05383843
146	0xbec7cbb3	-0.39022598
147	0xbeffc265	-0.49953
148	0xbec46441	-0.38357738
149	0xbea8d7e5	-0.32977214
150	0xbeb1d96e	-0.34736198
151	0xbf1ed6f5	-0.6204675
152	0xbeaa2c7c	-0.33237064
153	0xbed84b0c	-0.42244756
154	0xbe90ce0f	-0.2828221
155	0xbe51af55	-0.2047704
156	0xbe967428	-0.29385495
157	0xbe12ed55	-0.14348347
158	0xbe9d2ccc	-0.3069824
159	0xbe8eadfe	-0.2786712
160	0xbf01c011	-0.50683695
161	0xbeaa6be1	-0.3328543
162	0xbeb8b07a	-0.3607214
163	0xbe1c660e	-0.15273306
164	0xbec69d66	-0.3879196
165	0xbef74374	-0.4829365
166	0xbeb41783	-0.35174188
167	0xbe9ef562	-0.31046587
168	0xbe70dead	-0.23522444
169	0xbd3451a7	-0.044023182
170	0xbf0f4888	-0.5597005
171	0xbeee4a81	-0.46541217
172	0xbef7653d	-0.48319426
173	0xbe2ca32a	-0.16859117
174	0xbe47780c	-0.19479388
175	0xbea128db	-0.31476483
176	0xbe03e571	-0.12880494
177	0xbebde27e	-0.37086862
178	0xbe670282	-0.2255955
179	0xbe58db1b	-0.21177332
180	0xbbf4b61e	-0.007467999
181	0xbd509481	-0.050922874
182	0xbec7c19e	-0.39014906
183	0xbe287615	-0.16451295
184	0xbe382a93	-0.17984991
185	0xbe8d929e	-0.27650923
186	0xbe841b3a	-0.25802022
187	0xbebc8726	-0.3682186
188	0xbe99b6df	-0.30022332
189	0xbde89a8f	-0.11357605
190	0xbe2cf66e	-0.1689088
191	0xbe90dea4	-0.2829486
192	0xbe82a809	-0.25518826
193	0xbeef61bf	-0.46754262
194	0xbe628f10	-0.22124887
195	0xbf15a3f4	-0.584533
196	0xbe7c46c9	-0.24636377
197	0xbea7291e	-0.32648557
198	0xbec125e8	-0.37724233
199	0xbe5f6843	-0.21817116
200	0xbe51b4fd	-0.20479198
201	0xbd66a347	-0.056308057
202	0xbe12d93c	-0.14340681
203	0xbe9d9d9a	-0.30784303
204	0xbec011f3	-0.37513694
205	0xbece8645	-0.40336815
206	0xbe4a40b0	-0.19751239
207	0xbe338668	-0.1753174
208	0xbe77a6c5	-0.24184711
209	0xbe58f379	-0.21186627
210	0xbe85bec3	-0.26122102
211	0xbeec473b	-0.46148095
212	0xbf0d4c44	-0.551945
213	0x3d32c848	0.043648034
214	0xbe19bb56	-0.15012869
215	0xbf1c6485	-0.6109088
216	0xbec00b24	-0.375085
217	0xbe831bcd	-0.25607148
218	0xbe0f1b98	-0.1397537
219	0x3c3b4fa6	0.011432564
220	0xbeb3854c	-0.35062635
221	0xbe91611a	-0.28394395
222	0x3d71d703	0.05904294
223	0xbf19a35f	-0.6001491
224	0xc00b3ae1	-2.1754687
225	0xbfcd8535	-1.6056277
226	0xbfdca1f1	-1.723692
227	0xc022ddc4	-2.5447855
228	0xbfd01588	-1.6256571
229	0xc04b6e7b	-3.1786182
230	0xbff3cab3	-1.9046234
231	0xbff29fcb	-1.8955015
232	0xc0041f33	-2.0644042
233	0xbee30dfa	-0.443466
234	0xbfca1f8b	-1.5790876
235	0xc025f5f8	-2.5931377
236	0xc02da849	-2.7133963
237	0xc04d12bb	-3.2042682
238	0xc0611828	-3.5170994
239	0xc0a67a72	-5.202447
240	0xc08743a9	-4.2270093
241	0x3edbd21a	0.42933732
242	0x3ea44e17	0.32090828
243	0xc05d1a3f	-3.454727
244	0x3f8de7c1	1.1086351
245	0xc02946a6	-2.644937
246	0xc0b7e965	-5.7472405
247	0xc05eb61f	-3.4798658
248	0xc05e7eeb	-3.4764965
249	0xc0370dd4	-2.860219
250	0xc000ca37	-2.0123422
251	0xbf733dc5	-0.9501613
252	0xc0270a01	-2.6099856
253	0xbf9a4cc0	-1.2054672
254	0xbfb55ecf	-1.4169558
255	0xbfcd1a5d	-1.602367

network.2.bias f4 [56]
0	0xc01ef42a	-2.4836526
1	0xbec90fe8	-0.39269948
2	0xbea69311	-0.32534078
3	0xbe9c3fc9	-0.30517414
4	0xc0e9972f	-7.299705
5	0xbec20c8b	-0.37900195
6	0xbeacdcaf	-0.33762118
7	0xbe4537e8	-0.19259608
8	0xbeb5ce03	-0.35508737
9	0xbf8ddf60	-1.1083794
10	0xbeb6c97e	-0.357006
11	0xbea5c93c	-0.32380092
12	0xbfe45277	-1.7837666
13	0xbea2c0f6	-0.31787843
14	0xbea3502e	-0.3189711
15	0xbe5d6fda	-0.21624699
16	0xbeac3d35	-0.33640447
17	0xbeab5247	-0.3346121
18	0xbea76164	-0.3269149
19	0xc03f317b	-2.987395
20	0xbe478e85	-0.1948796
21	0xbeb6b355	-0.35683694
22	0xbfee1432	-1.8599913
23	0xbe31236f	-0.17298673
24	0xbea452c3	-0.32094392
25	0xc0901e12	-4.5036707
26	0xbebc1a52	-0.3673883
27	0xbf240c5a	-0.64081347
28	0xbef50bbc	-0.47860515
29	0xbe9b301b	-0.3031014
30	0xbed4b238	-0.4154222
31	0xbed1dc31	-0.40988305
32	0xbe889949	-0.26679447
33	0xbe8516d2	-0.25993973
34	0xbe7f8756	-0.2495397
35	0xbeaf56e0	-0.34245968
36	0xbed12623	-0.40849409
37	0xbf02f008	-0.5114751
38	0xbeea34a8	-0.457433
39	0xbf66f0c0	-0.90211105
40	0x420647fb	33.570293
41	0xbf00d576	-0.50325716
42	0xbe57905c	-0.21051162
43	0xbf26d407	-0.6516728
44	0xbf1e52c4	-0.6184504
45	0xbf774523	-0.9658987
46	0xbeaef533	-0.34171447
47	0xc05f32a0	-3.487465
48	0xc0284577	-2.6292398
49	0xbe4ccc7a	-0.19999877
50	0xbe55175f	-0.20809697
51	0xbf300f1d	-0.6877306
52	0xbeb3175f	-0.34978768
53	0x4109cbea	8.612284
54	0xbebfdf73	-0.37475166
55	0xbeaa2ca3	-0.3323718

network.4.weight f4 [28, 56]
0	0xbdd26c53	-0.102745675
1	0x3e969a44	0.2941457
2	0x3f0e02b8	0.554729
3	0x3e22d159	0.15900172
4	0xbeaf0b9a	-0.3418854
5	0xbeafcf5b	-0.34337887
6	0x3dce0fa6	0.100615785
7	0xbeb599f0	-0.35469007
8	0x3e934a3e	0.2876758
9	0xbe8612c2	-0.26186186
10	0xbd5b234a	-0.05350045
11	0xbf0ffa3a	-0.5624119
12	0xbf9b8c22	-1.215214
13	0xbd4f01d3	-0.05053885
14	0xbee64630	-0.44975424
15	0x3d7990b4	0.060929015
16	0xbe765354	-0.24055225
17	0x3f0ddd2a	0.55415595
18	0xbe3e4d3d	-0.18584152
19	0xbeb4fe95	-0.3535048
20	0x3e38b3d7	0.18037353
21	0x3d9df58f	0.07712852
22	0xbddbb59d	-0.10727999
23	0xbea048c8	-0.31305528
24	0xbe6a05a8	-0.2285372
25	0xbf987af1	-1.1912519
26	0x3dea0858	0.11427373
27	0xbede35f3	-0.43400535
28	0x3f04aac3	0.5182306
29	0xbce71ecf	-0.028212933
30	0xbd83ce82	-0.064358726
31	0xbeadf8b4	-0.33978808
32	0xbec6ccd0	-0.38828135
33	0xbed91ae4	-0.42403328
34	0xbde76365	-0.11298255
35	0x3e705e88	0.23473561
36	0xbee10d4e	-0.43955463
37	0x3c8c9102	0.017158989
38	0xbdeee7a4	-0.11665276
39	0x3e9a3a45	0.3012258
40	0xbed33b73	-0.41256294
41	0xbf04a0da	-0.5180794
42	0xbe898995	-0.2686278
43	0xbf0e4ecb	-0.5558898
44	0xbe71abf5	-0.23600753
45	0xbe91c936	-0.28473824
46	0xbe8270bf	-0.25476643
47	0xbea51715	-0.32244173
48	0xbd142751	-0.036170308
49	0x3e72d810	0.23715234
50	0x3bb8a836	0.0056352867
51	0xbea73605	-0.326584
52	0xbe4179ae	-0.18894073
53	0xc0165a91	-2.3492777
54	0xbe708872	-0.2348955
55	0xbd141f8e	-0.036162905
56	0xbe342b8a	-0.17594734
57	0x3e03fbde	0.12889048
58	0xbec34136	-0.3813569
59	0x3dd9eb70	0.10640609
60	0xbeab0140	-0.3339939
61	0x3ea89583	0.32926568
62	0x3cf44170	0.02981636
63	0x3e1f29a7	0.15543233
64	0x3c9ffc3d	0.019529456
65	0x3e826208	0.25465417
66	0xbdabc07b	-0.08386322
67	0x3e83407f	0.25635144
68	0xbe4edb47	-0.20200835
69	0xbd9bc5f2	-0.076061144
70	0xbd9da6e2	-0.07697846
71	0x3cc387f1	0.023868533
72	0x3eda2899	0.426091
73	0xbf00d18a	-0.5031973
74	0x3c9fce5d	0.019507581
75	0xbe0fd30a	-0.14045349
76	0x3e6fbb87	0.2341138
77	0xbdb84817	-0.08998125
78	0x3fd7f311	1.6871053
79	0x3d890cf1	0.066919215
80	0x3d1543d3	0.036441635
81	0xbfc00c3e	-1.5003736
82	0xbe758c67	-0.2397934
83	0xbe9ea046	-0.30981654
84	0x3da00d77	0.07815068
85	0x3d87e554	0.06635538
86	0x3e7aefbf	0.24505518
87	0x3cb50783	0.022098308
88	0xbd960860	-0.07325816
89	0x3dff30df	0.12460493
90	0x3c76d141	0.015064538
91	0xbd34a65f	-0.044103976
92	0xbe908081	-0.2822304
93	0xbe0ffbab	-0.14060847
94	0x3e61aec0	0.22039318
95	0xbe2d79ec	-0.16941041
96	0xbe77e488	-0.24208272
97	0x3e970d80	0.29502487
98	0xbe076cac	-0.13225049
99	0xbeb20553	-0.34769687
100	0x3e45391d	0.19260068
101	0xbedd25a2	-0.43192774
102	0x3e81816a	0.25294048
103	0x40513ccc	3.2693357
104	0xbeb39c4f	-0.35080191
105	0xbebc20b2	-0.36743695
106	0xbdee42b4	-0.11633816
107	0xbcf70e3f	-0.03015816
108	0xbdab17d6	-0.08354156
109	0xbf34b7e9	-0.70593125
110	0xbe545a5f	-0.20737599
111	0xbd8e5430	-0.06949651
112	0x3ef1a950	0.47199488
113	0xbe8c1491	-0.2735944
114	0xbd8a48f4	-0.06752196
115	0xbe456457	-0.19276558
116	0xbeed9ed9	-0.46410254
117	0xbde9a8a3	-0.11409118
118	0xbdc9cd21	-0.09853578
119	0xbe9102c3	-0.2832242
120	0xbe862a6d	-0.26204243
121	0xbf17cb95	-0.59295017
122	0xbe8f529d	-0.27992716
123	0x3ea736b0	0.3265891
124	0xbf275b74	-0.6537392
125	0xbe9320d0	-0.2873597
126	0xbe0007d5	-0.12502988
127	0xbeab3b2c	-0.33443582
128	0x3b6a791c	0.0035777753
129	0xbdcfc12f	-0.10144269
130	0xbead6592	-0.33866554
131	0xbe1d17da	-0.1534113
132	0xbea27771	-0.31731752
133	0xbe9486d2	-0.2900911
134	0xbfc34dfa	-1.5258172
135	0x3c80d69b	0.015727332
136	0xbc168a82	-0.009188296
137	0xbeffbe0c	-0.49949682
138	0xbedaced9	-0.42735937
139	0xbecc3c20	-0.39889622
140	0xbf00e2fe	-0.5034636
141	0xbeb8175e	-0.35955328
142	0x3ef660c3	0.48120698
143	0x3d80422a	0.0626262
144	0x3d911697	0.07084387
145	0xbf1bb239	-0.6081882
146	0xbec44290	-0.38332033
147	0xbe98083f	-0.2969379
148	0xbeeb25d5	-0.459273
149	0xbe9b9d48	-0.30393434
150	0xbeb93704	-0.36174786
151	0xbde83047	-0.11337333
152	0xbef1b90a	-0.47211486
153	0x3e4c0b3d	0.19926162
154	0xbd866e9c	-0.06564066
155	0xbe998606	-0.29985064
156	0xbc07c4c7	-0.0082866615
157	0x3cafec9b	0.021475127
158	0x3d757e41	0.05993486
159	0xbd882df4	-0.0664939
160	0xbedf8737	-0.43657848
161	0xbe0c9a5b	-0.13730757
162	0xbeba1862	-0.36346728
163	0xbed103ef	-0.40823314
164	0xbd37dfb0	-0.04489106
165	0xbe9408d9	-0.28913
166	0xbc47e17e	-0.012199758
167	0xbea17922	-0.3153773
168	0xbf0aad26	-0.54170454
169	0xbdcac3f2	-0.09900655
170	0x3eb874dd	0.3602666
171	0xbd6ae16b	-0.05734388
172	0xbea33b31	-0.31881097
173	0xbca91444	-0.020639546
174	0xbeaeda44	-0.34150898
175	0x3da7a754	0.08186212
176	0xbe1c45a1	-0.15260936
177	0xbeed2634	-0.4631821
178	0xbd9e1b0b	-0.07720002
179	0xbda59f9e	-0.08087085
180	0x3cecd59f	0.028910456
181	0xbe89bf99	-0.2690399
182	0xbd780e1b	-0.060560327
183	0x3d4c0fbe	0.0498197
184	0xbeb877da	-0.3602894
185	0x3d911c84	0.07085517
186	0x3aa97c3e	0.0012930704
187	0xbe850ffe	-0.25988764
188	0x3d0ee109	0.03488258
189	0xbede20b3	-0.43384323
190	0xbecc075b	-0.39849362
191	0x3db1bd40	0.08678675
192	0xbe7fc319	-0.24976768
193	0xbeccbd73	-0.39988288
194	0xbeafc93c	-0.34333217
195	0xbf99b25a	-1.2007554
196	0xbe257357	-0.1615728
197	0xbdb41666	-0.08793335
198	0xbefa5b60	-0.4889784
199	0xbe14789b	-0.14499132
200	0xbd4a71ab	-0.04942481
201	0xbdc90a13	-0.09816375
202	0xbea0873e	-0.31353182
203	0xbe646d23	-0.22307257
204	0xbd619b32	-0.055079646
205	0xbe4a5a7c	-0.1976108
206	0xbe2393ff	-0.15974425
207	0x3dc207df	0.094741575
208	0xbff4606a	-1.9091923
209	0xbd1068f2	-0.035256334
210	0x3d6ad1b1	0.057328884
211	0xbc82ce2d	-0.015967453
212	0xbea09d6c	-0.31370103
213	0xbea51bc5	-0.3224775
214	0xbf0dad54	-0.553426
215	0xbe01026d	-0.12598582
216	0xbf9afdfa	-1.2108757
217	0x3e5de802	0.21670535
218	0x3defbff7	0.11706536
219	0xbe9999b3	-0.30000076
220	0xbed1c57c	-0.4097098
221	0xbf1b1503	-0.60578936
222	0x3df3a561	0.11896778
223	0xbcacc57c	-0.021090262
224	0xbd733915	-0.05938061
225	0xbd1f9d69	-0.038968477
226	0x3ef8db25	0.48604694
227	0xbe38c717	-0.18044697
228	0xbfbaec7b	-1.4603418
229	0x3e6931a6	0.22772846
230	0x3e8124ca	0.2522338
231	0xbd801e04	-0.06255725
232	0x3d1574ca	0.03648833
233	0x3d2afcb0	0.041744888
234	0x3ec67e51	0.38768247
235	0x3d7a0ae8	0.061045557
236	0xbe63903b	-0.22222988
237	0x3c89664f	0.016772417
238	0x3e712010	0.23547387
239	0x3dddc220	0.10828042
240	0xbec243b6	-0.37942284
241	0x3e8ac783	0.2710534
242	0x3cabe41a	0.02098279
243	0xbe3668ae	-0.1781337
244	0x3d02533f	0.03181767
245	0x3e83a8ce	0.25714725
246	0xbd7151f2	-0.05891604
247	0x3e28e422	0.16493276
248	0x3e3e6446	0.18592939
249	0xbe53a0cc	-0.20666808
250	0x3d74cf6e	0.059768133
251	0xbe8bbc72	-0.2729221
252	0x3d3a4588	0.045476466
253	0x3e3a8d49	0.18217959
254	0xbd87b178	-0.06625646
255	0x3e1882f4	0.14893705

network.4.bias f4 [28]
0	0xbffb3eb8	-1.9628515
1	0xc02ade50	-2.6698189
2	0xbe996642	-0.2996083
3	0xbfaf99b4	-1.3718781
4	0xbe1556c6	-0.14583883
5	0xc003368b	-2.050204
6	0xc00b2d14	-2.1746264
7	0xbf47d07c	-0.78052497
8	0xc0253c16	-2.5817924
9	0xbf36064e	-0.7110337
10	0xbf92bb07	-1.1463326
11	0xbf171c1c	-0.59027267
12	0xc03dec20	-2.967537
13	0x4155f931	13.373338
14	0xc020c207	-2.5118425
15	0xc0037c85	-2.054475
16	0xbfd94aa8	-1.6975908
17	0xc03cebed	-2.9518998
18	0xbfdad11f	-1.7095069
19	0xc01e67ee	-2.4750934
20	0xbf9fdc8e	-1.2489183
21	0xbf390b91	-0.72283274
22	0xc0562bd8	-3.346426
23	0xbffe1e71	-1.985304
24	0xc08352da	-4.1038637
25	0xc002b721	-2.0424273
26	0xbf776e7d	-0.96652967
27	0xc06b4433	-3.6760375

network.6.weight f4 [1, 28]
0	0xbe734a6a	-0.23758855
1	0x3f5d358d	0.86409837
2	0x3f4b63fa	0.7944943
3	0xbcc7748a	-0.024347562
4	0xbe876152	-0.26441437
5	0xbfdf9323	-1.7466778
6	0xbf8ddd5f	-1.1083182
7	0x3fd1edb2	1.6400664
8	0xbe7b1bd5	-0.24522336
9	0x3fa1436d	1.2598702
10	0x3fd2cbed	1.6468483
11	0x3faba680	1.3410187
12	0xbeb71593	-0.35758647
13	0xbe4df676	-0.20113549
14	0x3f8b9280	1.0904083
15	0x3dafafe1	0.08578468
16	0x3f2873ab	0.65801495
17	0x3facd10f	1.35013
18	0x3f4fcff3	0.8117668
19	0xbe695aa9	-0.2278849
20	0x3fe0114a	1.7505276
21	0x3f8d6f38	1.1049566
22	0x3ebd64ef	0.3699107
23	0x3e96c038	0.29443526
24	0xbf9c2e30	-1.2201595
25	0xbf999a8d	-1.200029
26	0x3e2c4b89	0.1682569
27	0xbec3f767	-0.3827469
