HPC/Major_project/logistic_regression/models/exp1/94.pth (torch, 28367 bytes, 7 tensors)

network.0.weight f4 [56, 28]
0	0xbe322035	-0.17395099
1	0xbfdf1c45	-1.7430502
2	0x3fb63715	1.423556
3	0x3f2ace21	0.6672078
4	0xbdc9a387	-0.098456435
5	0x3ebb7b19	0.36617354
6	0x3f33a9c4	0.70180917
7	0xbfb49ba0	-1.4109993
8	0xc10622a0	-8.383453
9	0xc0dac128	-6.8360786
10	0xbff2e914	-1.897738
11	0x3e9b8ea5	0.30382267
12	0x4083b436	4.1157484
13	0xc0220612	-2.5316205
14	0x401cdc98	2.450964
15	0xbe1b6c05	-0.15177925
16	0x3f6778e3	0.90418833
17	0xc0294c22	-2.6452718
18	0x3f43ba33	0.7645599
19	0xbf8acd58	-1.0843916
20	0xbb81f022	-0.0039653936
21	0xc06fceda	-3.7470002
22	0xbdb99a16	-0.09062593
23	0xc00bc48b	-2.183871
24	0x40b2a1b9	5.5822415
25	0x40f2442b	7.5708213
26	0xc125c4dc	-10.360561
27	0x40ffd827	7.995136
28	0x406bb9a4	3.6832056
29	0x40c9cce5	6.3062615
30	0x3f15c9dc	0.5851114
31	0x4027f6c5	2.6244366
32	0xbe01f59c	-0.12691349
33	0xbf522cad	-0.8209942
34	0x3f7bbd34	0.98335576
35	0x3e992309	0.29909542
36	0x3fb09e5a	1.3798325
37	0x4082d0b0	4.0879745
38	0xc15938ec	-13.576397
39	0x3e6b5142	0.22980216
40	0xc0814d46	-4.040683
41	0x3fb06802	1.3781741
42	0x3f8981b9	1.0742713
43	0x3eb60b85	0.35555664
44	0x3c4dd9dc	0.012564149
45	0xbdcd158c	-0.10013875
46	0x3f568ea5	0.8381141
47	0x3bc90775	0.006134922
48	0x3ea0e706	0.31426257
49	0x3f99ed08	1.2025461
50	0xc002d97f	-2.044525
51	0xbfa1b050	-1.2631931
52	0x3fa006a3	1.2502025
53	0xc0377055	-2.8662312
54	0x3ed873b9	0.4227579
55	0x3f730d8a	0.94942534
56	0x4105bd97	8.358787
57	0xc064d653	-3.5755813
58	0xbec27657	-0.3798091
59	0x40d7c91d	6.7433
60	0xbe6f3bc4	-0.23362643
61	0xc13ebc4b	-11.92097
62	0x3f09ab78	0.53777266
63	0x3cda476a	0.026645381
64	0xbf7ca62a	-0.98691046
65	0x414df0d4	12.871296
66	0x40636a86	3.5533767
67	0x3e3a0377	0.18165384
68	0x40923506	4.5689726
69	0xc0803e5e	-4.007613
70	0x3e96c07d	0.29443732
71	0x3e10a420	0.14125109
72	0x3c763170	0.015026435
73	0xc00456b2	-2.0677915
74	0xbf5abcbf	-0.85444254
75	0x3db88f01	0.09011651
76	0xbf4e1b5a	-0.80510485
77	0xbf6ffe40	-0.9374733
78	0x3ffa5593	1.9557365
79	0xc080cdbb	-4.0251136
80	0x401eca28	2.4810886
81	0xbfa6e4bc	-1.3038554
82	0xbeb9c156	-0.36280316
83	0x4004aade	2.072929
84	0x40ba9519	5.8307004
85	0xc002d201	-2.0440676
86	0xbdb5f424	-0.08884457
87	0x4082f64b	4.092565
88	0xbf017a86	-0.5057758
89	0x41999919	19.199755
90	0x4050d204	3.2628183
91	0x3c2360af	0.009971782
92	0x408aa71b	4.3328986
93	0xc0f5a2d5	-7.676127
94	0xbfd08bb8	-1.6292639
95	0x3f185a1c	0.59512496
96	0x3f787664	0.9705565
97	0xc08a754b	-4.326818
98	0x3eb77279	0.35829523
99	0x3e1be2b2	0.15223196
100	0xbe198a5b	-0.14994185
101	0xc0670164	-3.6094599
102	0x3e4aa86b	0.19790809
103	0xbd0fc2bc	-0.035097823
104	0x3c9c3dd4	0.01907245
105	0x3e363d02	0.1779671
106	0x40014fc6	2.020494
107	0xc05da13a	-3.4629655
108	0x3fcd00e7	1.60159
109	0xc0066249	-2.0997488
110	0xc03c5e06	-2.9432387
111	0x4039f771	2.9057276
112	0xc16b6bc0	-14.713806
113	0xbfd563fc	-1.6671138
114	0x3cbf68aa	0.023365337
115	0xc1105e67	-9.023047
116	0xbdc8185f	-0.097702734
117	0x3f70529d	0.9387606
118	0x3e0c152e	0.13679954
119	0xbbaf4c64	-0.0053496826
120	0xbf96671a	-1.1750214
121	0x3f41210d	0.75441056
122	0x3f19629f	0.5991611
123	0xbe1da03b	-0.15393154
124	0x3d607f79	0.054809067
125	0x3e7d1bd3	0.24717645
126	0x3e287c7a	0.16453734
127	0x3e44967f	0.19198035
128	0x3f52be5d	0.8232172
129	0x3de51d5d	0.11187241
130	0x3e491d67	0.19640122
131	0xbdefc9af	-0.1170839
132	0x3f8bf8be	1.0935285
133	0x40130d6d	2.2976944
134	0x3feee9a7	1.8665055
135	0x40a4667b	5.13751
136	0xbf591e26	-0.8481163
137	0x4158cddd	13.55026
138	0xc1c421f4	-24.516579
139	0x405ed29e	3.481605
140	0x3f3fe0d1	0.7495242
141	0x3e219603	0.15779881
142	0x3e280cef	0.16411184
143	0xc0039a5b	-2.056296
144	0xbfb33c76	-1.4002826
145	0x40cbbd98	6.366894
146	0x3ff40d2d	1.9066521
147	0x3d3d515f	0.04622018
148	0xc085f6e2	-4.186387
149	0x40ad63d1	5.4184346
150	0xbf57ca3e	-0.8429297
151	0x3f121765	0.5706695
152	0xbeb74b9a	-0.35799867
153	0x409810ec	4.7520657
154	0x3e0526df	0.1300311
155	0x3fadf96b	1.3591741
156	0x3ff139b7	1.8845738
157	0x3fd0bed0	1.6308231
158	0xbfd57f5f	-1.6679496
159	0xbd2286b6	-0.03967925
160	0xbfd12b97	-1.6341428
161	0xc0b848c0	-5.7588806
162	0xbeae3adc	-0.3402928
163	0xc01ed750	-2.4818916
164	0x410b9d25	8.725865
165	0xc0e5caaa	-7.1809893
166	0xc0506613	-3.25623
167	0x40e98f71	7.29876
168	0xc1077995	-8.467183
169	0xbfc40d82	-1.5316622
170	0xbed46802	-0.41485602
171	0xc038e007	-2.8886735
172	0xbe80318d	-0.25037804
173	0xc14631d0	-12.387161
174	0x41328975	11.158559
175	0x3c1a732c	0.009426873
176	0x4012497e	2.2857356
177	0xc0ffc1e5	-7.992419
178	0xc0cbf47c	-6.3735943
179	0xbcf34f31	-0.029700847
180	0x3fb892ae	1.4419763
181	0xc07e280a	-3.9711938
182	0xbf95bb16	-1.1697719
183	0xbe1d4396	-0.15357813
184	0x3f59754c	0.84944606
185	0xc038739b	-2.882056
186	0xbf68bee9	-0.90916306
187	0x3e0cd55e	0.13753268
188	0x3f52dabe	0.82365024
189	0xbf875c94	-1.0575128
190	0x40b84568	5.7584724
191	0x3fbfffda	1.4999955
192	0x3eeb098b	0.45905718
193	0x404f7346	3.2414107
194	0xc0b1f8a3	-5.561601
195	0xc0112a97	-2.2682245
196	0x3f808102	1.003937
197	0x3edd89a7	0.43269083
198	0xbe48b204	-0.19599158
199	0x3fe7f382	1.8121188
200	0xbe5bc6bd	-0.21462531
201	0x412fa0db	10.976771
202	0x3e70d952	0.23520401
203	0x3f40dc7c	0.7533643
204	0x4037d44e	2.872333
205	0x4055926a	3.3370614
206	0xbf800311	-1.0000936
207	0x3eba0eb0	0.3633933
208	0x4036ef07	2.858339
209	0x4018e60a	2.3890405
210	0x3e7c716b	0.2465264
211	0xbf1b6b10	-0.6071024
212	0x4035859e	2.8362803
213	0x4076cb66	3.8561645
214	0xbf1d1647	-0.6136212
215	0x3e90fb21	0.28316596
216	0x401a5b0b	2.4118068
217	0xbfd6c5a7	-1.6779069
218	0x3d951af2	0.0728053
219	0xbe49274c	-0.19643897
220	0xc0908b86	-4.5170317
221	0xc168a6bb	-14.540706
222	0x40d2d369	6.588307
223	0xc023ca86	-2.559236
224	0xc02400ed	-2.5625565
225	0x3dfef622	0.1244929
226	0x3dcd62b2	0.1002859
227	0xbff49966	-1.9109313
228	0x3ef53010	0.4788823
229	0x4113d4fb	9.239497
230	0x3f0a553f	0.54036325
231	0x3dc2e51a	0.09516354
232	0xc0d5cdc9	-6.6813703
233	0xbf876198	-1.0576658
234	0xc0519fb3	-3.2753723
235	0xbda0acd0	-0.07845461
236	0x40282b13	2.627629
237	0xc10b70b3	-8.715014
238	0x3ecb49ae	0.3970465
239	0xbf2a8df5	-0.6662286
240	0xbd95fb5a	-0.07323332
241	0xc0ff20c5	-7.97275
242	0x3e9153e1	0.28384307
243	0x3cc65870	0.024212092
244	0xbf1cc101	-0.61232
245	0x40570ca0	3.3601456
246	0xbfa3b8b6	-1.2790744
247	0x3f88ea02	1.0696414
248	0xbfd72daf	-1.6810817
249	0x40e9d228	7.306904
250	0xc0b66b81	-5.700623
251	0xbbffcd17	-0.007806431
252	0x4065df31	3.5917475
253	0x3d9996dd	0.07499478
254	0xbef4b52b	-0.4779447
255	0x407e98b7	3.978071

network.0.bias f4 [56]
0	0xc194f941	-18.621706
1	0xc140323f	-12.012267
2	0xc1327d7c	-11.155636
3	0x3fcb7bd3	1.5897163
4	0xc01ca84f	-2.4477727
5	0xc12f12e4	-10.942112
6	0xc0a49ba7	-5.1440005
7	0xc1a06304	-20.048347
8	0xc1d3ff2e	-26.4996
9	0xc17d4df8	-15.831535
10	0xc11039a3	-9.014071
11	0xc1734797	-15.204978
12	0x3f548757	0.8301901
13	0xc13d0ce6	-11.815649
14	0x40b6d8f7	5.713985
15	0xc1a32ca1	-20.396791
16	0xc1296f68	-10.589699
17	0xc1cd8258	-25.688644
18	0xc1070c69	-8.44053
19	0x3fbb1236	1.4614933
20	0xc109d4a7	-8.614417
21	0xbffb85b8	-1.9650183
22	0xc04d8c99	-3.2117064
23	0x40febbd8	7.96043
24	0xc1a705df	-20.877867
25	0xc11ab870	-9.670029
26	0x40574b1a	3.3639588
27	0xc182cd6d	-16.350306
28	0xc0b41559	-5.627606
29	0xc1906423	-18.048895
30	0xc02d66a2	-2.7093892
31	0xc1dbb7b4	-27.464699
32	0xc11d18d7	-9.818564
33	0xc1963eec	-18.780724
34	0xc1883455	-17.025553
35	0xc183d52d	-16.47909
36	0xc109ca85	-8.611943
37	0xc00e9ba7	-2.2282503
38	0x407ff540	3.9993439
39	0xc1d3c135	-26.46934
40	0xc135a4a8	-11.352699
41	0xc0626d27	-3.5379121
42	0xc19d86c8	-19.690811
43	0xc1840b94	-16.505653
44	0xc1470714	-12.439228
45	0xc186552a	-16.791584
46	0xc0c2afab	-6.083944
47	0xc124a0ed	-10.2892885
48	0xc16fc890	-14.986465
49	0xc0c876b5	-6.2644906
50	0xc09a3f92	-4.82026
51	0xc197fbf8	-18.998032
52	0x3fdcaa34	1.7239442
53	0xc08fd989	-4.4953046
54	0xc15ce40d	-13.805676
55	0xc1901796	-18.011517

network.2.weight f4 [56, 56]
0	0x3ec03759	0.37542227
1	0xc003c263	-2.0587394
2	0xbf8ac250	-1.084055
3	0xbfb3be84	-1.4042516
4	0xbfd86ae2	-1.6907618
5	0xbf681c5b	-0.90668267
6	0xc038ffbc	-2.8906088
7	0xbf26e15b	-0.65187615
8	0xbe9cd511	-0.30631307
9	0xbe46c88c	-0.1941244
10	0xbe89e6b7	-0.26933834
11	0x3d34e9c9	0.044168267
12	0x3dcd00f0	0.100099444
13	0xc016626f	-2.349758
14	0xc01eaa6a	-2.4791512
15	0xbfccd875	-1.6003557
16	0xbfe23c68	-1.7674685
17	0xbf11451a	-0.56746066
18	0xbf670a82	-0.9025041
19	0xbfcf6c61	-1.620495
20	0xbfc0ef2b	-1.5072988
21	0xbf9971d9	-1.1987869
22	0xbfef6e42	-1.8705523
23	0xbface7cc	-1.3508239
24	0x3d3271ad	0.04356544
25	0xc0522c56	-3.283956
26	0xbfbf1a04	-1.4929814
27	0xbfc3822f	-1.5274104
28	0xc00a97ad	-2.1655076
29	0xbfdef117	-1.7417325
30	0xbffbbf97	-1.9667844
31	0xbed7438d	-0.42043725
32	0xbfacd8f9	-1.3503715
33	0xc0101c74	-2.2517366
34	0xbe01d18a	-0.12677589
35	0xbdf28394	-0.11841503
36	0xbfd33593	-1.6500725
37	0xc00f7e6b	-2.242091
38	0xbfe57fd1	-1.7929631
39	0x3f9234c8	1.1422358
40	0xbf08e220	-0.5347004
41	0xbfd4b89c	-1.6618838
42	0x3c9ded54	0.019278206
43	0xbe7b3edc	-0.24535698
44	0xbffe0e69	-1.9848148
45	0xbfa4b9e6	-1.2869232
46	0xbfe12305	-1.7588812
47	0xbf905f52	-1.127909
48	0xbffe792e	-1.9880731
49	0xbfbc2078	-1.4697409
50	0xbf9c53b5	-1.2213045
51	0xbed26134	-0.41089785
52	0xbff01585	-1.8756567
53	0xbe5f7fb1	-0.21826054
54	0xbf89a7e7	-1.0754365
55	0xbfa038ec	-1.2517371
56	0xbee28bcc	-0.44247282
57	0xbe5f9d5c	-0.21837372
58	0xbe06256a	-0.1310021
59	0xbea76416	-0.32693547
60	0xbab649ef	-0.0013907532
61	0xbf0847c2	-0.53234494
62	0xbf28de69	-0.6596437
63	0xbe8f5e13	-0.2800146
64	0xbe08e120	-0.13367128
65	0xbefb9119	-0.49134138
66	0x3b6d7c4e	0.0036237421
67	0xbf101aff	-0.5629119
68	0xbe9b3c38	-0.3031938
69	0x3d752065	0.059845347
70	0xbe2366b0	-0.15957141
71	0xbf1bc40f	-0.60846037
72	0xbead600d	-0.33862343
73	0xbef7abb1	-0.48373178
74	0xbef96095	-0.487065
75	0xbef9068b	-0.48637804
76	0xbd1862a6	-0.037203453
77	0xbebc3071	-0.36755708
78	0xbe7b53f1	-0.2454374
79	0xbe9b3c49	-0.3031943
80	0xbeb1ea90	-0.3474927
81	0xbe6c1bb2	-0.2305744
82	0xbe2f6f42	-0.17132285
83	0xbe9150db	-0.28382
84	0xbe31dcd7	-0.173694
85	0xbf098de4	-0.5373213
86	0xbe246bbc	-0.16056722
87	0xbe993053	-0.2991968
88	0xbecbe942	-0.398264
89	0xbe82b425	-0.25528064
90	0xbf08e192	-0.53469193
91	0xbe8b6b9e	-0.27230543
92	0xbf02a3e3	-0.5103132
93	0xbf075964	-0.52870774
94	0xbea96bc5	-0.33090034
95	0xbe93ceb6	-0.28868645
96	0xbec9f5e5	-0.39445415
97	0xbed5b112	-0.41736656
98	0xbe3414de	-0.17586085
99	0xbefa9510	-0.4894185
100	0xbe24b1f9	-0.16083516
101	0xbe57de4a	-0.2108089
102	0xbee794ce	-0.45230716
103	0xbd84290e	-0.06453143
104	0xbf14d811	-0.5814219
105	0x3d391148	0.045182496
106	0xbe4940be	-0.19653603
107	0xbedd788a	-0.43256027
108	0xbd09f445	-0.03368022
109	0xbeafcff9	-0.34338358
110	0xbf099d3b	-0.5375554
111	0xbda60168	-0.08105737
112	0xbf10004e	-0.56250465
113	0xbe9b4fdd	-0.30334368
114	0xbeea8960	-0.45807934
115	0xbf09aeaa	-0.5378214
116	0xbe981cf3	-0.29709587
117	0xbed596ea	-0.417167
118	0xbe91f72e	-0.28508896
119	0xbecc3582	-0.39884573
120	0xbe6d6bdb	-0.23185675
121	0xbed777d5	-0.42083612
122	0xbf0a056c	-0.53914523
123	0xbe377448	-0.17915452
124	0xbddc3482	-0.107522026
125	0xbefe560f	-0.49675032
126	0xbec44554	-0.38334143
127	0xbed331d0	-0.4124894
128	0xbe963159	-0.29334524
129	0xbf0c6051	-0.5483447
130	0xbe1595ef	-0.14607976
131	0xbef2efbf	-0.47448537
132	0xbee2736e	-0.4422869
133	0xbe5ca58e	-0.21547529
134	0xbe84e4cd	-0.2595581
135	0xbec80c34	-0.3907181
136	0xbe0f46b0	-0.13991809
137	0xbe822a5f	-0.25422952
138	0xbe5e5140	-0.21710682
139	0xbf1500e5	-0.5820449
140	0xbe83c00f	-0.25732467
141	0xbe8d67e4	-0.27618325
142	0xbe405297	-0.18781506
143	0xbe6cfd36	-0.23143467
144	0xbe32087a	-0.17386046
145	0xbd5c85b0	-0.05383843
146	0xbec7cbb3	-0.39022598
147	0xbeffc265	-0.49953
148	0xbec46441	-0.38357738
149	0xbea8d7e5	-0.32977214
150	0xbeb1d96e	-0.34736198
151	0xbf1ed6f5	-0.6204675
152	0xbeaa2c7c	-0.33237064
153	0xbed84b0c	-0.42244756
154	0xbe90ce0f	-0.2828221
155	0xbe51af55	-0.2047704
156	0xbe967428	-0.29385495
157	0xbe12ed55	-0.14348347
158	0xbe9d2ccc	-0.3069824
159	0xbe8eadfe	-0.2786712
160	0xbf01c011	-0.50683695
161	0xbeaa6be1	-0.3328543
162	0xbeb8b07a	-0.3607214
163	0xbe1c660e	-0.15273306
164	0xbec69d66	-0.3879196
165	0xbef74374	-0.4829365
166	0xbeb41783	-0.35174188
167	0xbe9ef562	-0.31046587
168	0xbe70dead	-0.23522444
169	0xbd3451a7	-0.044023182
170	0xbf0f4888	-0.5597005
171	0xbeee4a81	-0.46541217
172	0xbef7653d	-0.48319426
173	0xbe2ca32a	-0.16859117
174	0xbe47780c	-0.19479388
175	0xbea128db	-0.31476483
176	0xbe03e571	-0.12880494
177	0xbebde27e	-0.37086862
178	0xbe670282	-0.2255955
179	0xbe58db1b	-0.21177332
180	0xbbf4b61e	-0.007467999
181	0xbd509481	-0.050922874
182	0xbec7c19e	-0.39014906
183	0xbe287615	-0.16451295
184	0xbe382a93	-0.17984991
185	0xbe8d929e	-0.27650923
186	0xbe841b3a	-0.25802022
187	0xbebc8726	-0.3682186
188	0xbe99b6df	-0.30022332
189	0xbde89a8f	-0.11357605
190	0xbe2cf66e	-0.1689088
191	0xbe90dea4	-0.2829486
192	0xbe82a809	-0.25518826
193	0xbeef61bf	-0.46754262
194	0xbe628f10	-0.22124887
195	0xbf15a3f4	-0.584533
196	0xbe7c46c9	-0.24636377
197	0xbea7291e	-0.32648557
198	0xbec125e8	-0.37724233
199	0xbe5f6843	-0.21817116
200	0xbe51b4fd	-0.20479198
201	0xbd66a347	-0.056308057
202	0xbe12d93c	-0.14340681
203	0xbe9d9d9a	-0.30784303
204	0xbec011f3	-0.37513694
205	0xbece8645	-0.40336815
206	0xbe4a40b0	-0.19751239
207	0xbe338668	-0.1753174
208	0xbe77a6c5	-0.24184711
209	0xbe58f379	-0.21186627
210	0xbe85bec3	-0.26122102
211	0xbeec473b	-0.46148095
212	0xbf0d4c44	-0.551945
213	0x3d32c848	0.043648034
214	0xbe19bb56	-0.15012869
215	0xbf1c6485	-0.6109088
216	0xbec00b24	-0.375085
217	0xbe831bcd	-0.25607148
218	0xbe0f1b98	-0.1397537
219	0x3c3b4fa6	0.011432564
220	0xbeb3854c	-0.35062635
221	0xbe91611a	-0.28394395
222	0x3d71d703	0.05904294
223	0xbf19a35f	-0.6001491
224	0xc00b3ae1	-2.1754687
225	0xbfcd8535	-1.6056277
226	0xbfdca1f1	-1.723692
227	0xc022ddc4	-2.5447855
228	0xbfd01588	-1.6256571
229	0xc04b6e7b	-3.1786182
230	0xbff3cab3	-1.9046234
231	0xbff29fcb	-1.8955015
232	0xc0041f33	-2.0644042
233	0xbee30dfa	-0.443466
234	0xbfca1f8b	-1.5790876
235	0xc025f5f8	-2.5931377
236	0xc02da849	-2.7133963
237	0xc04d12bb	-3.2042682
238	0xc0611828	-3.5170994
239	0xc0a67a72	-5.202447
240	0xc08743a9	-4.2270093
241	0x3edbd21a	0.42933732
242	0x3ea44e17	0.32090828
243	0xc05d1a3f	-3.454727
244	0x3f8de7c1	1.1086351
245	0xc02946a6	-2.644937
246	0xc0b7e965	-5.7472405
247	0xc05eb61f	-3.4798658
248	0xc05e7eeb	-3.4764965
249	0xc0370dd4	-2.860219
250	0xc000ca37	-2.0123422
251	0xbf733dc5	-0.9501613
252	0xc0270a01	-2.6099856
253	0xbf9a4cc0	-1.2054672
254	0xbfb55ecf	-1.4169558
255	0xbfcd1a5d	-1.602367

network.2.bias f4 [56]
0	0xc01ef42a	-2.4836526
1	0xbec90fe8	-0.39269948
2	0xbea69311	-0.32534078
3	0xbe9c3fc9	-0.30517414
4	0xc0e9972f	-7.299705
5	0xbec20c8b	-0.37900195
6	0xbeacdcaf	-0.33762118
7	0xbe4537e8	-0.19259608
8	0xbeb5ce03	-0.35508737
9	0xbf8ddf60	-1.1083794
10	0xbeb6c97e	-0.357006
11	0xbea5c93c	-0.32380092
12	0xbfe45277	-1.7837666
13	0xbea2c0f6	-0.31787843
14	0xbea3502e	-0.3189711
15	0xbe5d6fda	-0.21624699
16	0xbeac3d35	-0.33640447
17	0xbeab5247	-0.3346121
18	0xbea76164	-0.3269149
19	0xc03f317b	-2.987395
20	0xbe478e85	-0.1948796
21	0xbeb6b355	-0.35683694
22	0xbfee1432	-1.8599913
23	0xbe31236f	-0.17298673
24	0xbea452c3	-0.32094392
25	0xc0906304	-4.512087
26	0xbebc1a52	-0.3673883
27	0xbf28091f	-0.6563892
28	0xbef50bbc	-0.47860515
29	0xbe9b301b	-0.3031014
30	0xbed4b238	-0.4154222
31	0xbed1dc31	-0.40988305
32	0xbe889949	-0.26679447
33	0xbe8516d2	-0.25993973
34	0xbe7f8756	-0.2495397
35	0xbeaf56e0	-0.34245968
36	0xbed12623	-0.40849409
37	0xbf02f008	-0.5114751
38	0xbeea34a8	-0.457433
39	0xbf66f0c0	-0.90211105
40	0x42064b5d	33.573597
41	0xbf00d576	-0.50325716
42	0xbe57905c	-0.21051162
43	0xbf26d407	-0.6516728
44	0xbf1e52c4	-0.6184504
45	0xbf774523	-0.9658987
46	0xbeaef533	-0.34171447
47	0xc05f32a0	-3.487465
48	0xc02838f4	-2.6284761
49	0xbe4ccc7a	-0.19999877
50	0xbe55175f	-0.20809697
51	0xbf300f1d	-0.6877306
52	0xbeb3175f	-0.34978768
53	0x4109e4ce	8.6183605
54	0xbebfdf73	-0.37475166
55	0xbeaa2ca3	-0.3323718

network.4.weight f4 [28, 56]
0	0xbdd26c53	-0.102745675
1	0x3e969a44	0.2941457
2	0x3f0e02b8	0.554729
3	0x3e22d159	0.15900172
4	0xbeaf0b9a	-0.3418854
5	0xbeafcf5b	-0.34337887
6	0x3dce0fa6	0.100615785
7	0xbeb599f0	-0.35469007
8	0x3e934a3e	0.2876758
9	0xbe8612c2	-0.26186186
10	0xbd5b234a	-0.05350045
11	0xbf0ffa3a	-0.5624119
12	0xbf9b8c22	-1.215214
13	0xbd4f01d3	-0.05053885
14	0xbee64630	-0.44975424
15	0x3d7990b4	0.060929015
16	0xbe765354	-0.24055225
17	0x3f0ddd2a	0.55415595
18	0xbe3e4d3d	-0.18584152
19	0xbeb4fe95	-0.3535048
20	0x3e38b3d7	0.18037353
21	0x3d9df58f	0.07712852
22	0xbddbb59d	-0.10727999
23	0xbea048c8	-0.31305528
24	0xbe6a05a8	-0.2285372
25	0xbf987af1	-1.1912519
26	0x3dea0858	0.11427373
27	0xbede35f3	-0.43400535
28	0x3f04aac3	0.5182306
29	0xbce71ecf	-0.028212933
30	0xbd83ce82	-0.064358726
31	0xbeadf8b4	-0.33978808
32	0xbec6ccd0	-0.38828135
33	0xbed91ae4	-0.42403328
34	0xbde76365	-0.11298255
35	0x3e705e88	0.23473561
36	0xbee10d4e	-0.43955463
37	0x3c8c9102	0.017158989
38	0xbdeee7a4	-0.11665276
39	0x3e9a3a45	0.3012258
40	0xbed33b73	-0.41256294
41	0xbf04a0da	-0.5180794
42	0xbe898995	-0.2686278
43	0xbf0e4ecb	-0.5558898
44	0xbe71abf5	-0.23600753
45	0xbe91c936	-0.28473824
46	0xbe8270bf	-0.25476643
47	0xbea51715	-0.32244173
48	0xbd142751	-0.036170308
49	0x3e72d810	0.23715234
50	0x3bb8a836	0.0056352867
51	0xbea73605	-0.326584
52	0xbe4179ae	-0.18894073
53	0xc0165a91	-2.3492777
54	0xbe708872	-0.2348955
55	0xbd141f8e	-0.036162905
56	0xbe342b8a	-0.17594734
57	0x3e03fbde	0.12889048
58	0xbec34136	-0.3813569
59	0x3dd9eb70	0.10640609
60	0xbeab0140	-0.3339939
61	0x3ea89583	0.32926568
62	0x3cf44170	0.02981636
63	0x3e1f29a7	0.15543233
64	0x3c9ffc3d	0.019529456
65	0x3e826208	0.25465417
66	0xbdabc07b	-0.08386322
67	0x3e83407f	0.25635144
68	0xbe4edb47	-0.20200835
69	0xbd9bc5f2	-0.076061144
70	0xbd9da6e2	-0.07697846
71	0x3cc387f1	0.023868533
72	0x3eda2899	0.426091
73	0xbf00d18a	-0.5031973
74	0x3c9fce5d	0.019507581
75	0xbe0fd30a	-0.14045349
76	0x3e6fbb87	0.2341138
77	0xbdb84817	-0.08998125
78	0x3fd7f311	1.6871053
79	0x3d890cf1	0.066919215
80	0x3d1543d3	0.036441635
81	0xbfc00c3e	-1.5003736
82	0xbe758c67	-0.2397934
83	0xbe9ea046	-0.30981654
84	0x3da00d77	0.07815068
85	0x3d87e554	0.06635538
86	0x3e7aefbf	0.24505518
87	0x3cb50783	0.022098308
88	0xbd960860	-0.07325816
89	0x3dff30df	0.12460493
90	0x3c76d141	0.015064538
91	0xbd34a65f	-0.044103976
92	0xbe908081	-0.2822304
93	0xbe0ffbab	-0.14060847
94	0x3e61aec0	0.22039318
95	0xbe2d79ec	-0.16941041
96	0xbe77e488	-0.24208272
97	0x3e970d80	0.29502487
98	0xbe076cac	-0.13225049
99	0xbeb20553	-0.34769687
100	0x3e45391d	0.19260068
101	0xbedd25a2	-0.43192774
102	0x3e81816a	0.25294048
103	0x40513ccc	3.2693357
104	0xbeb39c4f	-0.35080191
105	0xbebc20b2	-0.36743695
106	0xbdee42b4	-0.11633816
107	0xbcf70e3f	-0.03015816
108	0xbdab17d6	-0.08354156
109	0xbf34b7e9	-0.70593125
110	0xbe545a5f	-0.20737599
111	0xbd8e5430	-0.06949651
112	0x3ef1a950	0.47199488
113	0xbe8c1491	-0.2735944
114	0xbd8a48f4	-0.06752196
115	0xbe456457	-0.19276558
116	0xbeed9ed9	-0.46410254
117	0xbde9a8a3	-0.11409118
118	0xbdc9cd21	-0.09853578
119	0xbe9102c3	-0.2832242
120	0xbe862a6d	-0.26204243
121	0xbf17cb95	-0.59295017
122	0xbe8f529d	-0.27992716
123	0x3ea736b0	0.3265891
124	0xbf275b74	-0.6537392
125	0xbe9320d0	-0.2873597
126	0xbe0007d5	-0.12502988
127	0xbeab3b2c	-0.33443582
128	0x3b6a791c	0.0035777753
129	0xbdcfc12f	-0.10144269
130	0xbead6592	-0.33866554
131	0xbe1d17da	-0.1534113
132	0xbea27771	-0.31731752
133	0xbe9486d2	-0.2900911
134	0xbfc34dfa	-1.5258172
135	0x3c80d69b	0.015727332
136	0xbc168a82	-0.009188296
137	0xbeffbe0c	-0.49949682
138	0xbedaced9	-0.42735937
139	0xbecc3c20	-0.39889622
140	0xbf00e2fe	-0.5034636
141	0xbeb8175e	-0.35955328
142	0x3ef660c3	0.48120698
143	0x3d80422a	0.0626262
144	0x3d911697	0.07084387
145	0xbf1bb239	-0.6081882
146	0xbec44290	-0.38332033
147	0xbe98083f	-0.2969379
148	0xbeeb25d5	-0.459273
149	0xbe9b9d48	-0.30393434
150	0xbeb93704	-0.36174786
151	0xbde83047	-0.11337333
152	0xbef1b90a	-0.47211486
153	0x3e4c0b3d	0.19926162
154	0xbd866e9c	-0.06564066
155	0xbe998606	-0.29985064
156	0xbc07c4c7	-0.0082866615
157	0x3cafec9b	0.021475127
158	0x3d757e41	0.05993486
159	0xbd882df4	-0.0664939
160	0xbedf8737	-0.43657848
161	0xbe0c9a5b	-0.13730757
162	0xbeba1862	-0.36346728
163	0xbed103ef	-0.40823314
164	0xbd37dfb0	-0.04489106
165	0xbe9408d9	-0.28913
166	0xbc47e17e	-0.012199758
167	0xbea17922	-0.3153773
168	0xbf0aad26	-0.54170454
169	0xbdcac3f2	-0.09900655
170	0x3eb874dd	0.3602666
171	0xbd6ae16b	-0.05734388
172	0xbea33b31	-0.31881097
173	0xbca91444	-0.020639546
174	0xbeaeda44	-0.34150898
175	0x3da7a754	0.08186212
176	0xbe1c45a1	-0.15260936
177	0xbeed2634	-0.4631821
178	0xbd9e1b0b	-0.07720002
179	0xbda59f9e	-0.08087085
180	0x3cecd59f	0.028910456
181	0xbe89bf99	-0.2690399
182	0xbd780e1b	-0.060560327
183	0x3d4c0fbe	0.0498197
184	0xbeb877da	-0.3602894
185	0x3d911c84	0.07085517
186	0x3aa97c3e	0.0012930704
187	0xbe850ffe	-0.25988764
188	0x3d0ee109	0.03488258
189	0xbede20b3	-0.43384323
190	0xbecc075b	-0.39849362
191	0x3db1bd40	0.08678675
192	0xbe7fc319	-0.24976768
193	0xbeccbd73	-0.39988288
194	0xbeafc93c	-0.34333217
195	0xbf99b25a	-1.2007554
196	0xbe257357	-0.1615728
197	0xbdb41666	-0.08793335
198	0xbefa5b60	-0.4889784
199	0xbe14789b	-0.14499132
200	0xbd4a71ab	-0.04942481
201	0xbdc90a13	-0.09816375
202	0xbea0873e	-0.31353182
203	0xbe646d23	-0.22307257
204	0xbd619b32	-0.055079646
205	0xbe4a5a7c	-0.1976108
206	0xbe2393ff	-0.15974425
207	0x3dc207df	0.094741575
208	0xbff4606a	-1.9091923
209	0xbd1068f2	-0.035256334
210	0x3d6ad1b1	0.057328884
211	0xbc82ce2d	-0.015967453
212	0xbea09d6c	-0.31370103
213	0xbea51bc5	-0.3224775
214	0xbf0dad54	-0.553426
215	0xbe01026d	-0.12598582
216	0xbf9afdfa	-1.2108757
217	0x3e5de802	0.21670535
218	0x3defbff7	0.11706536
219	0xbe9999b3	-0.30000076
220	0xbed1c57c	-0.4097098
221	0xbf1b1503	-0.60578936
222	0x3df3a561	0.11896778
223	0xbcacc57c	-0.021090262
224	0xbd733915	-0.05938061
225	0xbd1f9d69	-0.038968477
226	0x3ef8db25	0.48604694
227	0xbe38c717	-0.18044697
228	0xbfbaec7b	-1.4603418
229	0x3e6931a6	0.22772846
230	0x3e8124ca	0.2522338
231	0xbd801e04	-0.06255725
232	0x3d1574ca	0.03648833
233	0x3d2afcb0	0.041744888
234	0x3ec67e51	0.38768247
235	0x3d7a0ae8	0.061045557
236	0xbe63903b	-0.22222988
237	0x3c89664f	0.016772417
238	0x3e712010	0.23547387
239	0x3dddc220	0.10828042
240	0xbec243b6	-0.37942284
241	0x3e8ac783	0.2710534
242	0x3cabe41a	0.02098279
243	0xbe3668ae	-0.1781337
244	0x3d02533f	0.03181767
245	0x3e83a8ce	0.25714725
246	0xbd7151f2	-0.05891604
247	0x3e28e422	0.16493276
248	0x3e3e6446	0.18592939
249	0xbe53a0cc	-0.20666808
250	0x3d74cf6e	0.059768133
251	0xbe8bbc72	-0.2729221
252	0x3d3a4588	0.045476466
253	0x3e3a8d49	0.18217959
254	0xbd87b178	-0.06625646
255	0x3e1882f4	0.14893705

network.4.bias f4 [28]
0	0xbffb3eb8	-1.9628515
1	0xc02ade50	-2.6698189
2	0xbe996642	-0.2996083
3	0xbfaf99b4	-1.3718781
4	0xbe1556c6	-0.14583883
5	0xc003368b	-2.050204
6	0xc00b2d14	-2.1746264
7	0xbf47d07c	-0.78052497
8	0xc0253c16	-2.5817924
9	0xbf36064e	-0.7110337
10	0xbf92bb07	-1.1463326
11	0xbf171c1c	-0.59027267
12	0xc03dec20	-2.967537
13	0x4155fffc	13.374996
14	0xc020c207	-2.5118425
15	0xc0037c85	-2.054475
16	0xbfd94aa8	-1.6975908
17	0xc03cebed	-2.9518998
18	0xbfdad11f	-1.7095069
19	0xc01e67ee	-2.4750934
20	0xbf9fdc8e	-1.2489183
21	0xbf390b91	-0.72283274
22	0xc057191b	-3.3609073
23	0xbffe1e71	-1.985304
24	0xc08352da	-4.1038637
25	0xc002b721	-2.0424273
26	0xbf776e7d	-0.96652967
27	0xc06b4433	-3.6760375

network.6.weight f4 [1, 28]
0	0xbe734a6a	-0.23758855
1	0x3f5d358d	0.86409837
2	0x3f4b63fa	0.7944943
3	0xbcc7748a	-0.024347562
4	0xbe876152	-0.26441437
5	0xbfdf9323	-1.7466778
6	0xbf8ddd5f	-1.1083182
7	0x3fd1edb2	1.6400664
8	0xbe7b1bd5	-0.24522336
9	0x3fa1436d	1.2598702
10	0x3fd2cbed	1.6468483
11	0x3faba680	1.3410187
12	0xbeb71593	-0.35758647
13	0xbe4e91d5	-0.20172818
14	0x3f8b9280	1.0904083
15	0x3dafafe1	0.08578468
16	0x3f2873ab	0.65801495
17	0x3facd10f	1.35013
18	0x3f4fcff3	0.8117668
19	0xbe695aa9	-0.2278849
20	0x3fe0114a	1.7505276
21	0x3f8d6f38	1.1049566
22	0x3ec5c48f	0.38626525
23	0x3e96c038	0.29443526
24	0xbf9c2e30	-1.2201595
25	0xbf999a8d	-1.200029
26	0x3e2c4b89	0.1682569
27	0xbec3f767	-0.3827469
