HPC/Major_project/logistic_regression/models/exp1/94.pth (torch, 4959 bytes, 3 tensors)

network.0.weight f4 [28, 28]
-0.51485866 -0.8399431 -0.107311875 -0.57625103 -0.21805264 0.07383075 1.3044349 0.14190796
1.065705 -1.0296892 -0.016773244 -0.80420375 0.47966757 -0.81682146 -0.1164835 -0.41474506
0.6559898 0.51119447 -0.65468174 -0.46133623 0.39398444 -0.20928505 0.30718067 -1.0735664
0.15573229 0.8001213 -1.2124337 -0.19414751 -0.47218865 0.4151551 0.080100544 0.24136096
0.01780743 0.7697748 -0.44683993 -0.01303397 0.35931578 1.3893694 -0.021495378 -0.041343313
0.83752155 1.2378976 0.029468684 -0.11333098 0.93357545 1.0982965 0.024478476 0.0019901234
0.46130592 -0.4764227 2.5391893 0.1271905 2.4881163 -2.6640983 2.2253242 -4.600833
-1.6100113 0.06504911 0.10401997 -1.2059427 0.092994586 0.15407437 -0.1694831 0.0039911093
0.6971045 0.24677843 0.26109794 -0.02775987 0.3440748 0.48901728 0.09206827 -0.043754943
0.3355422 0.4928312 -0.0014587551 0.051446304 0.42131206 -2.1991224 0.3539375 0.5519461
-0.0149857495 -7.8816113 3.0041697 -6.081868 0.7301711 -0.020634905 -0.022552535 1.1598154
0.034144457 -0.11387765 0.11798108 0.037078235 0.25922027 -0.089504845 0.08891111 0.009360432
0.03169295 -0.17421408 -0.028243497 0.098366626 0.09405351 0.120838284 -0.040594965 0.09195283
0.2624787 -0.5142474 0.037639156 -0.11781873 -0.8839786 0.40982348 3.5684395 -12.537575
-5.1120653 -0.1832175 0.0041144914 -2.4145186 0.03010057 0.67159605 0.07453787 -0.034398716
-0.47976565 0.0332677 0.025528448 -0.062792756 -0.064163886 0.18527615 -0.014345664 0.017933056
0.20427288 0.10062344 -0.021036794 0.003797197 0.3954178 0.18902236 0.81153864 1.4904919
-0.47636443 4.0861163 -7.2619905 1.3034259 0.20300059 0.05033983 0.011065817 0.3364133
0.038756046 0.07750041 -0.07247849 0.018546544 -0.07570159 0.20537812 0.05711956 -0.005841387
0.11320179 0.09135684 -0.0068784663 0.014873087 0.37651208 0.040584654 -0.014342196 0.016002974
0.50614154 4.701797 -14.018099 -0.33057648 -0.4914437 0.92936325 -3.19224 0.93457603
0.5237313 0.02599512 0.0074256784 0.16505004 0.044442598 0.06433773 0.018626602 -0.0039813616
-0.13481879 0.25689462 0.081429765 -0.008712105 -0.3272441 0.39823866 -0.009314013 0.06534621
-0.3470416 0.45781305 -0.0064201807 -0.030368354 -0.56202585 0.0696201 0.08197593 -0.47600627
0.8104014 -13.109439 -0.27780104 -0.121050395 3.1117156 -4.053756 -0.047309183 0.97801
-0.009217603 1.7924671 6.024919 -0.14498255 -1.0325158 0.67706186 -0.44422385 0.18607531
0.7215289 0.6526153 -0.24815862 0.0334077 0.4984047 0.14831571 -0.08092587 -0.055845037
0.28730646 0.18307112 -0.6107717 -0.3883492 -0.25067556 -0.8672138 -0.057013955 0.9530572
2.2138364 -0.41101468 0.04827901 1.3314241 0.13647473 -0.4799107 0.09192035 -0.15205003
0.6928008 -0.7091292 -0.005380792 -0.025167668 -0.3866121 0.28360334 -0.012458735 0.049854558
-0.055700764 0.6836738 0.11740959 -0.058270764 0.35284594 -0.97375876 -3.7811775 -0.30535892
1.3736418 3.580428 2.630724 -2.3889925 0.7864815 -0.015201738 -0.008304261 0.5277094
00000000: c7cd 03bf 8306 57bf 54c6 dbbd 3085 13bf
00000010: 3149 5fbe 9434 973d b9f7 a63f 5250 113e
00000020: 0569 883f dbcc 83bf 0b68 89bc 4ce0 4dbf
00000030: fd96 f53e 361b 51bf e78e eebd 7759 d4be
00000040: f3ee 273f a4dd 023f 3999 27bf 4334 ecbe
00000050: 54b8 c93e d24e 56be c946 9d3e a06a 89bf
00000060: 4978 1f3e c0d4 4c3f 0731 9bbf 9bce 46be
00000070: b6c2 f1be 368f d43e c10b a43d 5427 773e
00000080: e3e0 913c f60f 453f 34c8 e4be 6f8c 55bc
00000090: 3df8 b73e dbd6 b13f 1317 b0bc 9b57 29bd
000000a0: d067 563f 6e73 9e3f 4f68 f13c 131a e8bd
000000b0: cdfe 6e3f fb94 8c3f 1687 c83c bb6c 023b
000000c0: 4a30 ec3e aded f3be 1482 2240 3a3e 023e
000000d0: 4c3d 1f40 9680 2ac0 b66b 0e40 063a 93c0
000000e0: da14 cebf 7838 853d 6c08 d53d 555c 9abf
000000f0: f273 be3d acc5 1d3e fa8c 2dbe dac7 823b
00000100: 7175 323f 7cb3 7c3e a1ae 853e ab68 e3bc
00000110: 922a b03e 7960 fa3e 4a8e bc3d 6238 33bd
00000120: 30cc ab3e 5f54 fc3e b333 bfba 5cb9 523d
00000130: 37b6 d73e 6cbe 0cc0 4c37 b53e 574c 0d3f
00000140: ca86 75bc 2936 fcc0 5144 4040 aa9e c2c0
00000150: 7eec 3a3f 880a a9bc 18c0 b8bc d574 943f
00000160: 0fdb 0b3d af38 e9bd 11a0 f13d 59df 173d
00000170: 85b8 843e 514e b7bd 0717 b63d 7f5c 193c
00000180: 77d0 013d 2d65 32be e85e e7bc 7174 c93d
00000190: 209f c03d 107a f73d e846 26bd c451 bc3d
000001a0: 9c63 863e b8a5 03bf 842b 1a3d f24a f1bd
000001b0: 6c4c 62bf 62d4 d13e 5061 6440 e899 48c1
000001c0: 0a96 a3c0 5e9d 3bbe dbd2 863b 7987 1ac0
000001d0: 7895 f63c b8ed 2b3f 50a7 983d abe5 0cbd
000001e0: d8a3 f5be b643 083d 0921 d13c 7d99 80bd
000001f0: 5b68 83bd 08b9 3d3e 130a 6bbc 58e8 923c
00000200: e92c 513e aa13 ce3d 5b55 acbc 65da 783b
00000210: 3474 ca3e 148f 413e ffc0 4f3f 70c8 be3f
00000220: 0ae6 f3be 77c1 8240 3a62 e8c0 a9d6 a63f
00000230: 63df 4f3e 2331 4e3d 674d 353c 5d3e ac3e
00000240: a9be 1e3d 89b8 9e3d 9a6f 94bd ecee 973c
00000250: 6f09 9bbd a44e 523e 33f6 693d 1b69 bfbb
00000260: 57d6 e73d 4c19 bb3d c264 e1bb 40ae 733c
00000270: 31c6 c03e 183c 263d 88fb 6abc ab18 833c
00000280: 7e92 013f 1f75 9640 224a 60c1 5241 a9be
00000290: 829e fbbe c0ea 6d3f a94d 4cc0 6040 6f3f
000002a0: 4113 063f b8f3 d43c 1b53 f33b e102 293e
000002b0: 7109 363d 80c3 833d d196 983c 1576 82bb
000002c0: f00d 0abe b187 833e a6c4 a63d 38bd 0ebc
000002d0: 8a8c a7be f0e5 cb3e cd99 18bc 3cd4 853d
000002e0: 70af b1be 7966 ea3e 6160 d2bb 0ec7 f8bc
000002f0: ede0 0fbf fc94 8e3d ffe2 a73d 18b7 f3be
00000300: 7776 4f3f 43c0 51c1 f03b 8ebe 45e9 f7bd
00000310: 5926 4740 5fb8 81c0 46c7 41bd dd5e 7a3f
00000320: 6e05 17bc 906f e53f 23cc c040 4e76 14be
00000330: 7a29 84bf ed53 2d3f 4f71 e3be 878a 3e3e
00000340: 1eb6 383f cc11 273f 4b1d 7ebe 83d6 083d
00000350: e72e ff3e 13e0 173e 76bc a5bd c4bd 64bd
00000360: d519 933e ff76 3b3e 895b 1cbf b5d5 c6be
00000370: 8c58 80be b901 5ebf 7787 69bd 8ffb 733f
00000380: 7faf 0d40 8470 d2be 36c0 453d 1b6c aa3f
00000390: 08c0 0b3e dbb6 f5be bd40 bc3d 01b3 1bbe
000003a0: 655b 313f 7e89 35bf 5b51 b0bb 6d2c cebc
000003b0: 05f2 c5be 7534 913e b91f 4cbc 4b34 4c3d
000003c0: 7c26 64bd 3f05 2f3f 7074 f03d 53ad 6ebd
000003d0: 39a8 b43e 4148 79bf d0fe 71c0 0158 9cbe
000003e0: 7fd3 af3f bb25 6540 c85d 2840 41e5 18c0
000003f0: da56 493f b610 79bc 980e 08bc f717 073f

network.0.bias f4 [28]
-11.078426 1.2273303 -7.5728936 1.071935 -0.7336145 -3.804375 -11.085728 -14.533488
-10.77484 -3.31838 -4.654719 -0.2076915 -4.4713607 -4.661377 -3.891007 -12.18449
-3.7081797 -4.3240285 -7.7486887 -11.184579 -0.6121178 0.7715438 -4.4548144 -7.040846
2.5258837 -10.176856 -2.6679995 -7.5086393
00000000: 3c41 31c1 2919 9d3f 2555 f2c0 2b35 893f
00000010: 29ce 3bbf e17a 73c0 245f 31c1 2b89 68c1
00000020: bf65 2cc1 5760 54c0 75f3 94c0 15ad 54be
00000030: 6315 8fc0 002a 95c0 4206 79c0 acf3 42c1
00000040: d152 6dc0 715e 8ac0 42f5 f7c0 09f4 32c1
00000050: c1b3 1cbf e583 453f d78d 8ec0 9c4e e1c0
00000060: 14a8 2140 67d4 22c1 81c0 2ac0 c646 f0c0

network.2.weight f4 [1, 28]
0.08109756 0.13805045 -0.13873264 0.22088465 0.22377989 0.22246002 0.23265739 0.15219258
0.16840109 -0.27771866 -0.20863324 0.14551339 -0.01119094 0.073411725 0.20580897 0.111001045
0.38705292 -0.12875782 0.12548374 -0.14208758 -0.38792098 -0.20067064 -0.11844046 -0.09763608
-0.1748333 0.755935 -0.16285361 -0.13876173
00000000: 7a16 a63d 195d 0d3e ee0f 0ebe 962f 623e
00000010: 8e26 653e 8fcc 633e bd3d 6e3e 5fd8 1b3e
00000020: 5671 2c3e 2431 8ebe f4a3 55be 7601 153e
00000030: 345a 37bc e358 963d 96bf 523e 8454 e33d
00000040: cd2b c63e 17d9 03be cf7e 003e 687f 11be
00000050: 949d c6be 9b7c 4dbe e990 f2bd 6df5 c7bd
00000060: 8007 33be f584 413f 19c3 26be 8e17 0ebe
