HPC/Major_project/logistic_regression/models/exp1/96.pth (torch, 4959 bytes, 3 tensors)

network.0.weight f4 [28, 28]
0	0xbf03cdc7	-0.51485866
1	0xbf570683	-0.8399431
2	0xbddbc654	-0.107311875
3	0xbf138530	-0.57625103
4	0xbe5f4931	-0.21805264
5	0x3d973494	0.07383075
6	0x3fa6f7b9	1.3044349
7	0x3e115052	0.14190796
8	0x3f886905	1.065705
9	0xbf83ccdb	-1.0296892
10	0xbc89680b	-0.016773244
11	0xbf4de04c	-0.80420375
12	0x3ef596fd	0.47966757
13	0xbf511b36	-0.81682146
14	0xbdee8ee7	-0.1164835
15	0xbed45977	-0.41474506
16	0x3f27eef3	0.6559898
17	0x3f02dda4	0.51119447
18	0xbf279939	-0.65468174
19	0xbeec3443	-0.46133623
20	0x3ec9b854	0.39398444
21	0xbe564ed2	-0.20928505
22	0x3e9d46c9	0.30718067
23	0xbf896aa0	-1.0735664
24	0x3e1f7849	0.15573229
25	0x3f4cd4c0	0.8001213
26	0xbf9b3107	-1.2124337
27	0xbe46ce9b	-0.19414751
28	0xbef1c622	-0.47221476
29	0x3ed493bf	0.4151897
30	0x3da40080	0.08007908
31	0x3e772782	0.24136165
32	0x3c92049b	0.017824462
33	0x3f450fc5	0.7697719
34	0xbee4c839	-0.44684008
35	0xbc55ba51	-0.01304491
36	0x3eb7f63a	0.35930043
37	0x3fb1d649	1.389352
38	0xbcb056d7	-0.021525783
39	0xbd294997	-0.041329946
40	0x3f56654f	0.83748335
41	0x3f9e73da	1.2379105
42	0x3cf14511	0.029451879
43	0xbde81ca0	-0.11333585
44	0x3f6efd9e	0.9335574
45	0x3f8c961f	1.0983313
46	0x3cc8a199	0.024491118
47	0x3b0257e9	0.0019888824
48	0x3eec329a	0.46132356
49	0xbef3ed04	-0.47641766
50	0x40228405	2.5393078
51	0x3e0243a3	0.12721114
52	0x401f3eb1	2.4882014
53	0xc02a803e	-2.6640773
54	0x400e6ac3	2.2252662
55	0xc0933917	-4.600719
56	0xbfce1599	-1.6100341
57	0x3d852bc5	0.06502489
58	0x3dd50eac	0.10403189
59	0xbf9a5f54	-1.2060342
60	0x3dbe7e0a	0.09301384
61	0x3e1dd4d4	0.15413219
62	0xbe2d86be	-0.16945931
63	0x3b830303	0.0039981618
64	0x3f327476	0.69708955
65	0x3e7cbdc8	0.24681771
66	0x3e85ae6b	0.26109633
67	0xbce36e69	-0.027762609
68	0x3eb026cd	0.34404603
69	0x3efa5d7f	0.48899457
70	0x3dbc91f9	0.092075296
71	0xbd334251	-0.043764416
72	0x3eabc95a	0.33552057
73	0x3efc5621	0.4928446
74	0xbac0b04a	-0.0014700976
75	0x3d52c335	0.051455695
76	0x3ed7ac25	0.42123523
77	0xc00cbcb5	-2.1990178
78	0x3eb534a3	0.3539172
79	0x3f0d4d4b	0.55196065
80	0xbc755d05	-0.014975791
81	0xc0fc3670	-7.881645
82	0x4040440f	3.004154
83	0xc0c29f46	-6.0819426
84	0x3f3aee83	0.7302019
85	0xbca8edd3	-0.020621216
86	0xbcb901e8	-0.022583917
87	0x3f947254	1.159739
88	0x3d0be84b	0.03415708
89	0xbde94441	-0.113899715
90	0x3df1a631	0.117992766
91	0x3d17ead3	0.03708918
92	0x3e84ba31	0.25923303
93	0xbdb73fb7	-0.089476995
94	0x3db60ad2	0.088887826
95	0x3c1a2321	0.009407789
96	0x3d01f412	0.031726904
97	0xbe325312	-0.17414501
98	0xbce787cd	-0.028262997
99	0x3dc97db7	0.09838431
100	0x3dc09edf	0.09405302
101	0x3df76bc9	0.12081105
102	0xbd26456b	-0.040593546
103	0x3dbc554e	0.09195958
104	0x3e866819	0.26251295
105	0xbf03a7ae	-0.51427734
106	0x3d1963fe	0.037448876
107	0xbdf13d45	-0.11779264
108	0xbf624ed2	-0.8840152
109	0x3ed1d775	0.40984693
110	0x4064600f	3.568363
111	0xc1489a02	-12.5376
112	0xc0a395b8	-5.112026
113	0xbe3b9974	-0.18320256
114	0x3b8590db	0.004076106
115	0xc01a8804	-2.4145517
116	0x3cf6a06c	0.030105792
117	0x3f2bed6b	0.67159146
118	0x3d989d40	0.07451868
119	0xbd0ce8d5	-0.034401733
120	0xbef5a128	-0.47974515
121	0x3d082743	0.033240568
122	0x3cd10bad	0.025518263
123	0xbd809e8f	-0.06280243
124	0xbd8366ec	-0.06416115
125	0x3e3dba06	0.18527994
126	0xbc6b989b	-0.014379646
127	0x3c930180	0.017945051
128	0x3e512a7e	0.20426366
129	0x3dce16f7	0.10062974
130	0xbcac4240	-0.021027684
131	0x3b78f394	0.003798698
132	0x3eca78b5	0.39545217
133	0x3e418a65	0.1890045
134	0x3f4fb9d4	0.81142926
135	0x3fbec964	1.490521
136	0xbef3e663	-0.4763671
137	0x4082c1bb	4.0861487
138	0xc0e861fb	-7.2619605
139	0x3fa6d6e6	1.3034332
140	0x3e4fdbbc	0.20298666
141	0x3d4e2353	0.050326657
142	0x3c3539ca	0.011061141
143	0x3eac3af7	0.33638737
144	0x3d1ed665	0.03877868
145	0x3d9edb1a	0.07756634
146	0xbd94678d	-0.07246313
147	0x3c97e370	0.018541068
148	0xbd9b1472	-0.07572259
149	0x3e525cbd	0.2054319
150	0x3d69e2b2	0.05710096
151	0xbbbdc481	-0.0057912474
152	0x3de7cadd	0.1131799
153	0x3dbb2c86	0.091393515
154	0xbbe2438c	-0.006905025
155	0x3c73dea5	0.014884626
156	0x3ec0bfbd	0.37646285
157	0x3d263795	0.04058035
158	0xbc6b7874	-0.01437198
159	0x3c83005d	0.015991384
160	0x3f019364	0.50615525
161	0x409672dd	4.7015214
162	0xc1604afb	-14.018306
163	0xbea940f5	-0.3305737
164	0xbefb8971	-0.49128297
165	0x3f6ddfad	0.9291943
166	0xc04c4b5b	-3.1920993
167	0x3f6f4717	0.9346785
168	0x3f061430	0.52374554
169	0x3cd4f0f0	0.025993794
170	0x3bf2f213	0.0074141114
171	0x3e290983	0.16507535
172	0x3d3605a9	0.04443899
173	0x3d83d567	0.06437188
174	0x3c9874fd	0.018610472
175	0xbb823b8a	-0.0039743828
176	0xbe0a15f6	-0.1348494
177	0x3e838296	0.25685567
178	0x3da6cebf	0.081449024
179	0xbc0f336f	-0.00874029
180	0xbea78f07	-0.3272631
181	0x3ecbeade	0.39827627
182	0xbc190dbf	-0.009341656
183	0x3d85d9cc	0.06535682
184	0xbeb1b0ee	-0.347053
185	0x3eea69ac	0.45783746
186	0xbbd1ad53	-0.0063988357
187	0xbcf908f9	-0.030399786
188	0xbf0fe1e5	-0.5620406
189	0x3d8e8fd4	0.06961027
190	0x3da7ea5e	0.08198999
191	0xbef3b855	-0.47601572
192	0x3f4f764d	0.8103989
193	0xc151c067	-13.109473
194	0xbe8e3cd8	-0.27780795
195	0xbdf7e0c9	-0.12103421
196	0x4047269c	3.1117315
197	0xc081b9c0	-4.0539246
198	0xbd41c571	-0.047307435
199	0x3f7a6519	0.9781051
200	0xbc173a65	-0.009230231
201	0x3fe5707a	1.792495
202	0x40c0cbeb	6.0248923
203	0xbe146d4f	-0.14494823
204	0xbf842d18	-1.0326262
205	0x3f2d5569	0.6770845
206	0xbee36e88	-0.44420266
207	0x3e3e8703	0.1860619
208	0x3f38b58b	0.7215201
209	0x3f271225	0.6526206
210	0xbe7e1ba6	-0.24815235
211	0x3d090098	0.033447832
212	0x3eff33a2	0.4984408
213	0x3e17e7a6	0.1483446
214	0xbda5c09e	-0.080933794
215	0xbd64b1c8	-0.055833608
216	0x3e93162f	0.28727862
217	0x3e3b6fb4	0.1830433
218	0xbf1c5723	-0.6107046
219	0xbec6d77d	-0.3883628
220	0xbe80592a	-0.25068027
221	0xbf5dfbbf	-0.8671226
222	0xbd698b31	-0.05701751
223	0x3f73fab8	0.9530444
224	0x400dae6f	2.2137716
225	0xbed27902	-0.41107947
226	0x3d45d61f	0.048299905
227	0x3faa6b11	1.3313924
228	0x3e0bc304	0.13648611
229	0xbef5b85a	-0.47992212
230	0x3dbc370e	0.09190188
231	0xbe1ba856	-0.15200934
232	0x3f315c93	0.6928188
233	0xbf3586af	-0.70908636
234	0xbbb12ccf	-0.005406953
235	0xbccdbf32	-0.025115583
236	0xbec5f858	-0.38666034
237	0x3e913409	0.28360012
238	0xbc4b472a	-0.012407104
239	0x3d4c25cb	0.04984073
240	0xbd64362c	-0.055715725
241	0x3f2f04b2	0.6836654
242	0x3df06b64	0.11739233
243	0xbd6eabb0	-0.058269203
244	0x3eb4a31d	0.35280696
245	0xbf794013	-0.97363394
246	0xc0720220	-3.7813797
247	0xbe9c55ab	-0.3053411
248	0x3fafd2d7	1.3736218
249	0x406524fd	3.5803826
250	0x40285deb	2.6307323
251	0xc018e517	-2.3889825
252	0x3f4955f3	0.78646773
253	0xbc78d13a	-0.015186602
254	0xbc07abf9	-0.008280748
255	0x3f0716b9	0.5276905

network.0.bias f4 [28]
0	0xc131413c	-11.078426
1	0x3f9d1afb	1.2273859
2	0xc0f25490	-7.5728226
3	0x3f8933b6	1.0718906
4	0xbf3bcfd5	-0.73364
5	0xc07377dc	-3.8041906
6	0xc1315eeb	-11.085673
7	0xc16888fd	-14.533444
8	0xc12c65d7	-10.774863
9	0xc0546032	-3.3183713
10	0xc094f27a	-4.654599
11	0xbe54a96d	-0.20767756
12	0xc08f1563	-4.4713607
13	0xc09528c4	-4.6612263
14	0xc079053e	-3.890945
15	0xc142f38b	-12.184459
16	0xc06d5103	-3.7080696
17	0xc08a5dcf	-4.3239512
18	0xc0f7f4ec	-7.7486477
19	0xc132f360	-11.184418
20	0xbf1cb41e	-0.61212337
21	0x3f45932e	0.77177703
22	0xc08e8a5e	-4.4543905
23	0xc0e14e75	-7.0408273
24	0x4021a86c	2.5259047
25	0xc122d468	-10.176857
26	0xc02ac016	-2.667974
27	0xc0f046cd	-7.5086427

network.2.weight f4 [1, 28]
0	0x3da6167a	0.08109756
1	0x3e0d5ab5	0.13804133
2	0xbe0e136f	-0.13874601
3	0x3e622ee3	0.22088198
4	0x3e652292	0.22376469
5	0x3e63cbfd	0.22245784
6	0x3e6e3db2	0.23265722
7	0x3e1bd7c1	0.15219022
8	0x3e2c6b9f	0.16837929
9	0xbe8e32fe	-0.2777328
10	0xbe55a07f	-0.20862006
11	0x3e14fd3e	0.14549729
12	0xbc375a34	-0.01119094
13	0x3d96646f	0.07343375
14	0x3e52bda7	0.20580159
15	0x3de354d9	0.11100168
16	0x3ec62c77	0.387058
17	0xbe03df52	-0.12878159
18	0x3e007a94	0.1254676
19	0xbe11850c	-0.1421091
20	0xbec69ec6	-0.3879301
21	0xbe4d85b5	-0.20070536
22	0xbdf29331	-0.11844481
23	0xbdc7e3ee	-0.09760271
24	0xbe330a4c	-0.17484397
25	0x3f418813	0.7559826
26	0xbe26c6e9	-0.16286816
27	0xbe0e1047	-0.13873397
