HPC/Major_project/logistic_regression/models/exp1/98.pth (torch, 28367 bytes, 7 tensors)

network.0.weight f4 [56, 28]
000000 e3 70 32 be c1 07 df bf 70 9d b5 3f 9d d0 2a 3f
       -0.17425875 -1.7424241 1.4188671 0.6672457
000010 4f b7 cd bd 59 69 bd 3e b3 30 34 3f f8 e6 b4 bf
       -0.10044729 0.36994436 0.7038681 -1.4132986
000020 2b 39 06 c1 32 8d da c0 ec f2 f2 bf 9d 2d 9c 3e
       -8.388957 -6.8297358 -1.8980384 0.3050355
000030 88 cd 83 40 c9 8e 21 c0 bf 90 1c 40 1b af 1d be
       4.1188393 -2.52434 2.4463346 -0.15398829
000040 7b 6e 65 3f 85 6f 29 c0 82 6c 45 3f 04 fb 8a bf
       0.89621705 -2.6474316 0.77118695 -1.0857854
000050 e7 14 05 bc c3 54 6f c0 ef e4 d7 bd 7e 2d 0c c0
       -0.008122659 -3.7395484 -0.105417125 -2.1902766
000060 a4 d5 b2 40 c1 68 f2 40 d0 db 25 c1 2b fa ff 40
       5.588579 7.5752873 -10.366165 7.999288
000070 6b b1 6b 40 8d c7 c9 40 d9 23 16 3f 48 0b 28 40
       3.6827037 6.305609 0.5864845 2.6256886
000080 8c 1b f8 bd fb b6 51 bf 5c 75 7c 3f 59 1a 99 3e
       -0.12114629 -0.8191983 0.98616576 0.29902914
000090 49 eb b0 3f d3 b9 82 40 4b 45 59 c1 8e 5a 6b 3e
       1.3821803 4.0851836 -13.579417 0.22983763
0000a0 f0 1a 81 c0 aa 16 b1 3f f5 d1 89 3f 71 d4 b1 3e
       -4.0345383 1.3835042 1.0767199 0.34732392
0000b0 cc d6 a2 3c 85 1d d3 bd 99 14 56 3f c7 fa 6a 3b
       0.019877814 -0.10308365 0.8362518 0.0035855041
0000c0 f7 d4 9f 3e 39 dc 99 3f d2 81 02 c0 b7 aa a0 bf
       0.31217167 1.2020332 -2.0391736 -1.2552098
0000d0 f9 c0 a0 3f 1f 33 37 c0 d7 5d da 3e 1b e7 72 3f
       1.255889 -2.8624952 0.4264972 0.9488389
0000e0 ab cb 05 41 f0 ae 64 c0 f2 d1 c1 be ba bf d7 40
       8.362224 -3.5731773 -0.37855488 6.742154
0000f0 10 40 75 be 7e c2 3e c1 b9 83 0a 3f 0b d2 af 3c
       -0.23950219 -11.922483 0.5410724 0.021462461
000100 aa c3 7b bf 14 f1 4d 41 9a 7d 63 40 ef 53 3a 3e
       -0.98345435 12.871357 3.554541 0.1819608
000110 35 3c 92 40 12 77 80 c0 05 87 97 3e 1f de 10 3e
       4.5698495 -4.014535 0.295952 0.14147232
000120 69 f1 12 3c a1 ef 03 c0 c8 c1 5b bf 6e bd bd 3d
       0.0089686895 -2.0615008 -0.8584256 0.092646465
000130 85 9a 4c bf af 64 6f bf a1 87 fa 3f ff a5 80 c0
       -0.7992328 -0.93513006 1.9572641 -4.020263
000140 4d c0 1e 40 30 76 a7 bf 7c 2d b7 be b3 dc 04 40
       2.480487 -1.3082943 -0.3577689 2.0759704
000150 37 c3 ba 40 3d c2 02 c0 4c ce b0 bd f3 08 83 40
       5.83633 -2.0431054 -0.08633098 4.0948424
000160 8e 75 01 bf 2a 96 99 41 02 b8 51 40 96 7b 21 3b
       -0.5057 19.198322 3.276856 0.0024640313
000170 1f 88 8a 40 69 82 f5 c0 d1 93 d0 bf 46 d1 17 3f
       4.3291163 -7.672169 -1.629511 0.593037
000180 61 4f 78 3f 92 b2 8a c0 fd f7 b8 3e b1 47 1b 3e
       0.9699612 -4.334298 0.361267 0.15164067
000190 52 97 1f be 44 ee 66 c0 67 b6 4e 3e b2 a8 07 bd
       -0.15585068 -3.6082926 0.20186768 -0.033119865
0001a0 4f 8c c4 3c b5 c2 32 3e 0c 20 01 40 f3 d2 5d c0
       0.023992686 0.17457087 2.017581 -3.4660003
0001b0 d5 54 cd 3f 58 74 06 c0 5d 0d 3c c0 65 00 3a 40
       1.6041514 -2.100851 -2.9383156 2.906274
0001c0 ca 5f 6b c1 de e6 d4 bf 81 27 cb 3c 7f 50 10 c1
       -14.710886 -1.6632955 0.02479911 -9.019652
0001d0 e9 ae c3 bd d1 c4 6f 3f 9f a8 10 3e f5 93 61 bc
       -0.09554846 0.93659693 0.14126824 -0.013768186
0001e0 81 3a 96 bf 7a 2d 41 3f 50 f9 19 3f e3 ca 1e be
       -1.1736604 0.75460017 0.60146046 -0.15507083
0001f0 3c 5c 59 3d 2c ff 78 3e 12 e9 2e 3e 4b e4 47 3e
       0.053066477 0.2431609 0.17081097 0.1952068
000200 5d cd 50 3f 8a 15 e8 3d ed 53 49 3e 9f 82 f6 bd
       0.8156336 0.11332233 0.19660921 -0.12036633
000210 35 7a 8c 3f 94 56 13 40 42 4e ef 3f c2 3d a4 40
       1.0974795 2.3021593 1.8695757 5.132539
000220 1e 4c 59 bf 5f dc 58 41 4b 21 c4 c1 4e ad 5e 40
       -0.8488177 13.553802 -24.516256 3.4793277
000230 7a 71 3f 3f cb c7 2a 3e da 7b 29 3e 24 57 03 c0
       0.74782526 0.16677777 0.16551152 -2.0521936
000240 49 d4 b3 bf 46 8c cb 40 c7 e2 f4 3f 19 06 d8 3c
       -1.4049159 6.360873 1.9131707 0.026370095
000250 98 bf 85 c0 72 86 ad 40 75 72 57 bf e9 8e 12 3f
       -4.179638 5.422662 -0.8415902 0.57249314
000260 20 1f b8 be 04 cc 97 40 c6 f1 04 3e 5f 02 ae 3f
       -0.35961246 4.7436543 0.12982854 1.3594474
000270 03 53 f1 3f 10 6c d0 3f 1e d1 d5 bf 0e 70 30 bd
       1.8853458 1.6282978 -1.6704443 -0.043075614
000280 71 ec d0 bf 66 69 b8 c0 be 53 ad be 3e f9 1e c0
       -1.6322156 -5.762866 -0.33852953 -2.4839625
000290 58 b0 0b 41 9e b6 e5 c0 37 c4 50 c0 1f 76 e9 40
       8.730553 -7.178542 -3.261976 7.295669
0002a0 7a 73 07 c1 5e 2f c4 bf 8b 2a d5 be d3 cb 38 c0
       -8.4656925 -1.5326955 -0.4163402 -2.8874404
0002b0 db 15 7f be 39 3a 46 c1 b9 77 32 41 35 ec a6 3c
       -0.24910681 -12.3892145 11.154229 0.020376304
0002c0 30 39 12 40 3e df ff c0 c0 fc cb c0 6b f1 14 bd
       2.2847404 -7.9960012 -6.3746033 -0.036363047
0002d0 70 53 b8 3f 35 2f 7e c0 68 ac 96 bf 66 28 21 be
       1.4400463 -3.9716313 -1.1771364 -0.15738067
0002e0 dc 0a 5c 3f c8 ca 38 c0 13 9d 69 bf d0 fb 0e 3e
       0.8595407 -2.8873768 -0.912553 0.13963246
0002f0 a4 15 53 3f 21 71 87 bf da 0c b8 40 cc 7f c0 3f
       0.82454896 -1.0581399 5.751569 1.5039
000300 61 11 ea 3e cc cf 4e 40 f2 39 b2 c0 3f 36 11 c0
       0.45716384 3.231433 -5.5695734 -2.268936
000310 35 b7 80 3f c3 ed df 3e a5 ef 46 be 9a ee e7 3f
       1.005591 0.43736085 -0.19427355 1.811969
000320 67 2a 5e be 93 9f 2f 41 65 df 74 3e e4 69 3f 3f
       -0.21695863 10.976459 0.23913343 0.7477095
000330 cd f7 37 40 72 9b 55 40 fc c1 7f bf 57 62 b8 3e
       2.8744996 3.3376126 -0.9990537 0.36012527
000340 33 e3 36 40 ce ae 18 40 e0 4f 7c 3e 50 ce 1a bf
       2.8576171 2.3856692 0.24639845 -0.6047106
000350 9d 51 35 40 4f b9 76 40 19 35 1d bf 3c 97 91 3e
       2.8331063 3.8550603 -0.61409146 0.28435695
000360 86 99 1a 40 14 6b d6 bf ab db 92 3d f1 ad 49 be
       2.4156203 -1.6751428 0.071708046 -0.1969526
000370 8c 66 90 c0 9c 96 68 c1 be d8 d2 40 d2 f5 23 c0
       -4.512518 -14.53677 6.588958 -2.5618787
000380 cf 36 24 c0 ee eb ff 3d 33 7f d2 3d dc ba f3 bf
       -2.5658453 0.12496172 0.102781676 -1.90414
000390 5a 96 f6 3e 7d df 13 41 78 d3 09 3f d1 bb cb 3d
       0.48161584 9.242063 0.538383 0.099479325
0003a0 b0 dd d5 c0 64 5a 87 bf 3d 8c 51 c0 40 8c a0 bd
       -6.6833115 -1.057446 -3.2741845 -0.078392506
0003b0 ab 54 28 40 99 6f 0b c1 a4 1f cc 3e 59 9d 2a bf
       2.6301677 -8.7147455 0.3986789 -0.66646343
0003c0 15 4e 95 bd 88 36 ff c0 3c f9 91 3e 2a 96 ae 3c
       -0.072902836 -7.9754066 0.28510463 0.021311838
0003d0 47 02 1d bf 08 e2 56 40 b4 02 a4 bf 83 ae 88 3f
       -0.613316 3.3575459 -1.2813325 1.0678257
0003e0 2a 66 d7 bf 09 eb e9 40 ce 9c b6 c0 1e 44 08 bc
       -1.6828053 7.309941 -5.706641 -0.008317022
0003f0 7d 2d 66 40 0d 1a 9c 3d ef 20 f9 be 4f c5 7e 40
       3.5965264 0.07622156 -0.4865794 3.9807928

network.0.bias f4 [56]
000000 e2 eb 94 c1 c8 31 40 c1 0c 72 32 c1 1f f0 cb 3f
       -18.615177 -12.012154 -11.152843 1.5932654
000010 2a cf 1c c0 1d f2 2e c1 2c 8f a4 c0 26 64 a0 c1
       -2.4501443 -10.93411 -5.142477 -20.0489
000020 0d f7 d3 c1 ce 20 7d c1 90 2e 10 c1 c8 5c 73 c1
       -26.49563 -15.820509 -9.011368 -15.210152
000030 52 a9 52 3f 0a fc 3c c1 36 c9 b6 40 1d 2a a3 c1
       0.8228961 -11.811533 5.712062 -20.395563
000040 ee 4d 29 c1 66 87 cd c1 e4 23 07 c1 46 d4 b8 3f
       -10.581526 -25.691113 -8.446262 1.4439781
000050 ca d7 09 c1 f6 18 fb bf 2d bb 4d c0 6b 23 ff 40
       -8.615183 -1.9616992 -3.2145493 7.9730735
000060 d0 09 a7 c1 6f a6 1a c1 a2 50 56 40 af c5 82 c1
       -20.879791 -9.665633 3.3486714 -16.346525
000070 d3 ec b3 c0 9b 50 90 c1 e4 3b 2c c0 60 bb db c1
       -5.622659 -18.039358 -2.6911554 -27.466492
000080 e9 16 1d c1 55 42 96 c1 d7 31 88 c1 97 ca 83 c1
       -9.818093 -18.782389 -17.024336 -16.47392
000090 72 cd 09 c1 f8 f5 0d c0 65 03 80 40 4d c5 d3 c1
       -8.612658 -2.2181377 4.0004144 -26.471338
0000a0 10 a3 35 c1 9f 68 62 c0 aa 62 9d c1 df 12 84 c1
       -11.35231 -3.5376356 -19.673176 -16.509214
0000b0 3a e9 46 c1 b9 52 86 c1 f7 ab c2 c0 64 a8 24 c1
       -12.43194 -16.790392 -6.083492 -10.291111
0000c0 a7 cd 6f c1 14 3d c8 c0 3e 34 9a c0 81 f3 97 c1
       -14.987708 -6.257456 -4.818877 -18.993898
0000d0 fa fd dc 3f 21 cd 8f c0 09 e4 5c c1 38 22 90 c1
       1.7265007 -4.49379 -13.805673 -18.016708

network.2.weight f4 [56, 56]
000000 59 37 c0 3e 63 c2 03 c0 50 c2 8a bf 84 be b3 bf
       0.37542227 -2.0587394 -1.084055 -1.4042516
000010 e2 6a d8 bf 5b 1c 68 bf bc ff 38 c0 5b e1 26 bf
       -1.6907618 -0.90668267 -2.8906088 -0.65187615
000020 11 d5 9c be 8c c8 46 be b7 e6 89 be c9 e9 34 3d
       -0.30631307 -0.1941244 -0.26933834 0.044168267
000030 f0 00 cd 3d 6f 62 16 c0 6a aa 1e c0 75 d8 cc bf
       0.100099444 -2.349758 -2.4791512 -1.6003557
000040 68 3c e2 bf 1a 45 11 bf 82 0a 67 bf 61 6c cf bf
       -1.7674685 -0.56746066 -0.9025041 -1.620495
000050 2b ef c0 bf d9 71 99 bf 42 6e ef bf cc e7 ac bf
       -1.5072988 -1.1987869 -1.8705523 -1.3508239
000060 ad 71 32 3d 56 2c 52 c0 04 1a bf bf 2f 82 c3 bf
       0.04356544 -3.283956 -1.4929814 -1.5274104
000070 ad 97 0a c0 17 f1 de bf 97 bf fb bf 8d 43 d7 be
       -2.1655076 -1.7417325 -1.9667844 -0.42043725
000080 f9 d8 ac bf 74 1c 10 c0 8a d1 01 be 94 83 f2 bd
       -1.3503715 -2.2517366 -0.12677589 -0.11841503
000090 93 35 d3 bf 6b 7e 0f c0 d1 7f e5 bf c8 34 92 3f
       -1.6500725 -2.242091 -1.7929631 1.1422358
0000a0 20 e2 08 bf 9c b8 d4 bf 54 ed 9d 3c dc 3e 7b be
       -0.5347004 -1.6618838 0.019278206 -0.24535698
0000b0 69 0e fe bf e6 b9 a4 bf 05 23 e1 bf 52 5f 90 bf
       -1.9848148 -1.2869232 -1.7588812 -1.127909
0000c0 2e 79 fe bf 78 20 bc bf b5 53 9c bf 34 61 d2 be
       -1.9880731 -1.4697409 -1.2213045 -0.41089785
0000d0 85 15 f0 bf b1 7f 5f be e7 a7 89 bf ec 38 a0 bf
       -1.8756567 -0.21826054 -1.0754365 -1.2517371
0000e0 cc 8b e2 be 5c 9d 5f be 6a 25 06 be 16 64 a7 be
       -0.44247282 -0.21837372 -0.1310021 -0.32693547
0000f0 ef 49 b6 ba c2 47 08 bf 69 de 28 bf 13 5e 8f be
       -0.0013907532 -0.53234494 -0.6596437 -0.2800146
000100 20 e1 08 be 19 91 fb be 4e 7c 6d 3b ff 1a 10 bf
       -0.13367128 -0.49134138 0.0036237421 -0.5629119
000110 38 3c 9b be 65 20 75 3d b0 66 23 be 0f c4 1b bf
       -0.3031938 0.059845347 -0.15957141 -0.60846037
000120 0d 60 ad be b1 ab f7 be 95 60 f9 be 8b 06 f9 be
       -0.33862343 -0.48373178 -0.487065 -0.48637804
000130 a6 62 18 bd 71 30 bc be f1 53 7b be 49 3c 9b be
       -0.037203453 -0.36755708 -0.2454374 -0.3031943
000140 90 ea b1 be b2 1b 6c be 42 6f 2f be db 50 91 be
       -0.3474927 -0.2305744 -0.17132285 -0.28382
000150 d7 dc 31 be e4 8d 09 bf bc 6b 24 be 53 30 99 be
       -0.173694 -0.5373213 -0.16056722 -0.2991968
000160 42 e9 cb be 25 b4 82 be 92 e1 08 bf 9e 6b 8b be
       -0.398264 -0.25528064 -0.53469193 -0.27230543
000170 e3 a3 02 bf 64 59 07 bf c5 6b a9 be b6 ce 93 be
       -0.5103132 -0.52870774 -0.33090034 -0.28868645
000180 e5 f5 c9 be 12 b1 d5 be de 14 34 be 10 95 fa be
       -0.39445415 -0.41736656 -0.17586085 -0.4894185
000190 f9 b1 24 be 4a de 57 be ce 94 e7 be 0e 29 84 bd
       -0.16083516 -0.2108089 -0.45230716 -0.06453143
0001a0 11 d8 14 bf 48 11 39 3d be 40 49 be 8a 78 dd be
       -0.5814219 0.045182496 -0.19653603 -0.43256027
0001b0 45 f4 09 bd f9 cf af be 3b 9d 09 bf 68 01 a6 bd
       -0.03368022 -0.34338358 -0.5375554 -0.08105737
0001c0 4e 00 10 bf dd 4f 9b be 60 89 ea be aa ae 09 bf
       -0.56250465 -0.30334368 -0.45807934 -0.5378214
0001d0 f3 1c 98 be ea 96 d5 be 2e f7 91 be 82 35 cc be
       -0.29709587 -0.417167 -0.28508896 -0.39884573
0001e0 db 6b 6d be d5 77 d7 be 6c 05 0a bf 48 74 37 be
       -0.23185675 -0.42083612 -0.53914523 -0.17915452
0001f0 82 34 dc bd 0f 56 fe be 54 45 c4 be d0 31 d3 be
       -0.107522026 -0.49675032 -0.38334143 -0.4124894
000200 59 31 96 be 51 60 0c bf ef 95 15 be bf ef f2 be
       -0.29334524 -0.5483447 -0.14607976 -0.47448537
000210 6e 73 e2 be 8e a5 5c be cd e4 84 be 34 0c c8 be
       -0.4422869 -0.21547529 -0.2595581 -0.3907181
000220 b0 46 0f be 5f 2a 82 be 40 51 5e be e5 00 15 bf
       -0.13991809 -0.25422952 -0.21710682 -0.5820449
000230 0f c0 83 be e4 67 8d be 97 52 40 be 36 fd 6c be
       -0.25732467 -0.27618325 -0.18781506 -0.23143467
000240 7a 08 32 be b0 85 5c bd b3 cb c7 be 65 c2 ff be
       -0.17386046 -0.05383843 -0.39022598 -0.49953
000250 41 64 c4 be e5 d7 a8 be 6e d9 b1 be f5 d6 1e bf
       -0.38357738 -0.32977214 -0.34736198 -0.6204675
000260 7c 2c aa be 0c 4b d8 be 0f ce 90 be 55 af 51 be
       -0.33237064 -0.42244756 -0.2828221 -0.2047704
000270 28 74 96 be 55 ed 12 be cc 2c 9d be fe ad 8e be
       -0.29385495 -0.14348347 -0.3069824 -0.2786712
000280 11 c0 01 bf e1 6b aa be 7a b0 b8 be 0e 66 1c be
       -0.50683695 -0.3328543 -0.3607214 -0.15273306
000290 66 9d c6 be 74 43 f7 be 83 17 b4 be 62 f5 9e be
       -0.3879196 -0.4829365 -0.35174188 -0.31046587
0002a0 ad de 70 be a7 51 34 bd 88 48 0f bf 81 4a ee be
       -0.23522444 -0.044023182 -0.5597005 -0.46541217
0002b0 3d 65 f7 be 2a a3 2c be 0c 78 47 be db 28 a1 be
       -0.48319426 -0.16859117 -0.19479388 -0.31476483
0002c0 71 e5 03 be 7e e2 bd be 82 02 67 be 1b db 58 be
       -0.12880494 -0.37086862 -0.2255955 -0.21177332
0002d0 1e b6 f4 bb 81 94 50 bd 9e c1 c7 be 15 76 28 be
       -0.007467999 -0.050922874 -0.39014906 -0.16451295
0002e0 93 2a 38 be 9e 92 8d be 3a 1b 84 be 26 87 bc be
       -0.17984991 -0.27650923 -0.25802022 -0.3682186
0002f0 df b6 99 be 8f 9a e8 bd 6e f6 2c be a4 de 90 be
       -0.30022332 -0.11357605 -0.1689088 -0.2829486
000300 09 a8 82 be bf 61 ef be 10 8f 62 be f4 a3 15 bf
       -0.25518826 -0.46754262 -0.22124887 -0.584533
000310 c9 46 7c be 1e 29 a7 be e8 25 c1 be 43 68 5f be
       -0.24636377 -0.32648557 -0.37724233 -0.21817116
000320 fd b4 51 be 47 a3 66 bd 3c d9 12 be 9a 9d 9d be
       -0.20479198 -0.056308057 -0.14340681 -0.30784303
000330 f3 11 c0 be 45 86 ce be b0 40 4a be 68 86 33 be
       -0.37513694 -0.40336815 -0.19751239 -0.1753174
000340 c5 a6 77 be 79 f3 58 be c3 be 85 be 3b 47 ec be
       -0.24184711 -0.21186627 -0.26122102 -0.46148095
000350 44 4c 0d bf 48 c8 32 3d 56 bb 19 be 85 64 1c bf
       -0.551945 0.043648034 -0.15012869 -0.6109088
000360 24 0b c0 be cd 1b 83 be 98 1b 0f be a6 4f 3b 3c
       -0.375085 -0.25607148 -0.1397537 0.011432564
000370 4c 85 b3 be 1a 61 91 be 03 d7 71 3d 5f a3 19 bf
       -0.35062635 -0.28394395 0.05904294 -0.6001491
000380 e1 3a 0b c0 35 85 cd bf f1 a1 dc bf c4 dd 22 c0
       -2.1754687 -1.6056277 -1.723692 -2.5447855
000390 88 15 d0 bf 7b 6e 4b c0 b3 ca f3 bf cb 9f f2 bf
       -1.6256571 -3.1786182 -1.9046234 -1.8955015
0003a0 33 1f 04 c0 fa 0d e3 be 8b 1f ca bf f8 f5 25 c0
       -2.0644042 -0.443466 -1.5790876 -2.5931377
0003b0 49 a8 2d c0 bb 12 4d c0 28 18 61 c0 72 7a a6 c0
       -2.7133963 -3.2042682 -3.5170994 -5.202447
0003c0 a9 43 87 c0 1a d2 db 3e 17 4e a4 3e 3f 1a 5d c0
       -4.2270093 0.42933732 0.32090828 -3.454727
0003d0 c1 e7 8d 3f a6 46 29 c0 65 e9 b7 c0 1f b6 5e c0
       1.1086351 -2.644937 -5.7472405 -3.4798658
0003e0 eb 7e 5e c0 d4 0d 37 c0 37 ca 00 c0 c5 3d 73 bf
       -3.4764965 -2.860219 -2.0123422 -0.9501613
0003f0 01 0a 27 c0 c0 4c 9a bf cf 5e b5 bf 5d 1a cd bf
       -2.6099856 -1.2054672 -1.4169558 -1.602367

network.2.bias f4 [56]
000000 2a f4 1e c0 e8 0f c9 be 11 93 a6 be c9 3f 9c be
       -2.4836526 -0.39269948 -0.32534078 -0.30517414
000010 2f 97 e9 c0 8b 0c c2 be af dc ac be e8 37 45 be
       -7.299705 -0.37900195 -0.33762118 -0.19259608
000020 03 ce b5 be 60 df 8d bf 7e c9 b6 be 3c c9 a5 be
       -0.35508737 -1.1083794 -0.357006 -0.32380092
000030 77 52 e4 bf f6 c0 a2 be 2e 50 a3 be da 6f 5d be
       -1.7837666 -0.31787843 -0.3189711 -0.21624699
000040 35 3d ac be 47 52 ab be 64 61 a7 be 7b 31 3f c0
       -0.33640447 -0.3346121 -0.3269149 -2.987395
000050 85 8e 47 be 55 b3 b6 be 32 14 ee bf 6f 23 31 be
       -0.1948796 -0.35683694 -1.8599913 -0.17298673
000060 c3 52 a4 be 7a 7f 90 c0 52 1a bc be 62 39 2d bf
       -0.32094392 -4.515561 -0.3673883 -0.67665684
000070 bc 0b f5 be 1b 30 9b be 38 b2 d4 be 31 dc d1 be
       -0.47860515 -0.3031014 -0.4154222 -0.40988305
000080 49 99 88 be d2 16 85 be 56 87 7f be e0 56 af be
       -0.26679447 -0.25993973 -0.2495397 -0.34245968
000090 23 26 d1 be 08 f0 02 bf a8 34 ea be c0 f0 66 bf
       -0.40849409 -0.5114751 -0.457433 -0.90211105
0000a0 0f 52 06 42 76 d5 00 bf 5c 90 57 be 07 d4 26 bf
       33.580135 -0.50325716 -0.21051162 -0.6516728
0000b0 c4 52 1e bf 23 45 77 bf 33 f5 ae be a0 32 5f c0
       -0.6184504 -0.9658987 -0.34171447 -3.487465
0000c0 a8 56 28 c0 7a cc 4c be 5f 17 55 be 1d 0f 30 bf
       -2.630289 -0.19999877 -0.20809697 -0.6877306
0000d0 5f 17 b3 be 08 13 0a 41 73 df bf be a3 2c aa be
       -0.34978768 8.629646 -0.37475166 -0.3323718

network.4.weight f4 [28, 56]
000000 53 6c d2 bd 44 9a 96 3e b8 02 0e 3f 59 d1 22 3e
       -0.102745675 0.2941457 0.554729 0.15900172
000010 9a 0b af be 5b cf af be a6 0f ce 3d f0 99 b5 be
       -0.3418854 -0.34337887 0.100615785 -0.35469007
000020 3e 4a 93 3e c2 12 86 be 4a 23 5b bd 3a fa 0f bf
       0.2876758 -0.26186186 -0.05350045 -0.5624119
000030 22 8c 9b bf d3 01 4f bd 30 46 e6 be b4 90 79 3d
       -1.215214 -0.05053885 -0.44975424 0.060929015
000040 54 53 76 be 2a dd 0d 3f 3d 4d 3e be 95 fe b4 be
       -0.24055225 0.55415595 -0.18584152 -0.3535048
000050 d7 b3 38 3e 8f f5 9d 3d 9d b5 db bd c8 48 a0 be
       0.18037353 0.07712852 -0.10727999 -0.31305528
000060 a8 05 6a be f1 7a 98 bf 58 08 ea 3d f3 35 de be
       -0.2285372 -1.1912519 0.11427373 -0.43400535
000070 c3 aa 04 3f cf 1e e7 bc 82 ce 83 bd b4 f8 ad be
       0.5182306 -0.028212933 -0.064358726 -0.33978808
000080 d0 cc c6 be e4 1a d9 be 65 63 e7 bd 88 5e 70 3e
       -0.38828135 -0.42403328 -0.11298255 0.23473561
000090 4e 0d e1 be 02 91 8c 3c a4 e7 ee bd 45 3a 9a 3e
       -0.43955463 0.017158989 -0.11665276 0.3012258
0000a0 73 3b d3 be da a0 04 bf 95 89 89 be cb 4e 0e bf
       -0.41256294 -0.5180794 -0.2686278 -0.5558898
0000b0 f5 ab 71 be 36 c9 91 be bf 70 82 be 15 17 a5 be
       -0.23600753 -0.28473824 -0.25476643 -0.32244173
0000c0 51 27 14 bd 10 d8 72 3e 36 a8 b8 3b 05 36 a7 be
       -0.036170308 0.23715234 0.0056352867 -0.326584
0000d0 ae 79 41 be 91 5a 16 c0 72 88 70 be 8e 1f 14 bd
       -0.18894073 -2.3492777 -0.2348955 -0.036162905
0000e0 8a 2b 34 be de fb 03 3e 36 41 c3 be 70 eb d9 3d
       -0.17594734 0.12889048 -0.3813569 0.10640609
0000f0 40 01 ab be 83 95 a8 3e 70 41 f4 3c a7 29 1f 3e
       -0.3339939 0.32926568 0.02981636 0.15543233
000100 3d fc 9f 3c 08 62 82 3e 7b c0 ab bd 7f 40 83 3e
       0.019529456 0.25465417 -0.08386322 0.25635144
000110 47 db 4e be f2 c5 9b bd e2 a6 9d bd f1 87 c3 3c
       -0.20200835 -0.076061144 -0.07697846 0.023868533
000120 99 28 da 3e 8a d1 00 bf 5d ce 9f 3c 0a d3 0f be
       0.426091 -0.5031973 0.019507581 -0.14045349
000130 87 bb 6f 3e 17 48 b8 bd 11 f3 d7 3f f1 0c 89 3d
       0.2341138 -0.08998125 1.6871053 0.066919215
000140 d3 43 15 3d 3e 0c c0 bf 67 8c 75 be 46 a0 9e be
       0.036441635 -1.5003736 -0.2397934 -0.30981654
000150 77 0d a0 3d 54 e5 87 3d bf ef 7a 3e 83 07 b5 3c
       0.07815068 0.06635538 0.24505518 0.022098308
000160 60 08 96 bd df 30 ff 3d 41 d1 76 3c 5f a6 34 bd
       -0.07325816 0.12460493 0.015064538 -0.044103976
000170 81 80 90 be ab fb 0f be c0 ae 61 3e ec 79 2d be
       -0.2822304 -0.14060847 0.22039318 -0.16941041
000180 88 e4 77 be 80 0d 97 3e ac 6c 07 be 53 05 b2 be
       -0.24208272 0.29502487 -0.13225049 -0.34769687
000190 1d 39 45 3e a2 25 dd be 6a 81 81 3e cc 3c 51 40
       0.19260068 -0.43192774 0.25294048 3.2693357
0001a0 4f 9c b3 be b2 20 bc be b4 42 ee bd 3f 0e f7 bc
       -0.35080191 -0.36743695 -0.11633816 -0.03015816
0001b0 d6 17 ab bd e9 b7 34 bf 5f 5a 54 be 30 54 8e bd
       -0.08354156 -0.70593125 -0.20737599 -0.06949651
0001c0 50 a9 f1 3e 91 14 8c be f4 48 8a bd 57 64 45 be
       0.47199488 -0.2735944 -0.06752196 -0.19276558
0001d0 d9 9e ed be a3 a8 e9 bd 21 cd c9 bd c3 02 91 be
       -0.46410254 -0.11409118 -0.09853578 -0.2832242
0001e0 6d 2a 86 be 95 cb 17 bf 9d 52 8f be b0 36 a7 3e
       -0.26204243 -0.59295017 -0.27992716 0.3265891
0001f0 74 5b 27 bf d0 20 93 be d5 07 00 be 2c 3b ab be
       -0.6537392 -0.2873597 -0.12502988 -0.33443582
000200 1c 79 6a 3b 2f c1 cf bd 92 65 ad be da 17 1d be
       0.0035777753 -0.10144269 -0.33866554 -0.1534113
000210 71 77 a2 be d2 86 94 be fa 4d c3 bf 9b d6 80 3c
       -0.31731752 -0.2900911 -1.5258172 0.015727332
000220 82 8a 16 bc 0c be ff be d9 ce da be 20 3c cc be
       -0.009188296 -0.49949682 -0.42735937 -0.39889622
000230 fe e2 00 bf 5e 17 b8 be c3 60 f6 3e 2a 42 80 3d
       -0.5034636 -0.35955328 0.48120698 0.0626262
000240 97 16 91 3d 39 b2 1b bf 90 42 c4 be 3f 08 98 be
       0.07084387 -0.6081882 -0.38332033 -0.2969379
000250 d5 25 eb be 48 9d 9b be 04 37 b9 be 47 30 e8 bd
       -0.459273 -0.30393434 -0.36174786 -0.11337333
000260 0a b9 f1 be 3d 0b 4c 3e 9c 6e 86 bd 06 86 99 be
       -0.47211486 0.19926162 -0.06564066 -0.29985064
000270 c7 c4 07 bc 9b ec af 3c 41 7e 75 3d f4 2d 88 bd
       -0.0082866615 0.021475127 0.05993486 -0.0664939
000280 37 87 df be 5b 9a 0c be 62 18 ba be ef 03 d1 be
       -0.43657848 -0.13730757 -0.36346728 -0.40823314
000290 b0 df 37 bd d9 08 94 be 7e e1 47 bc 22 79 a1 be
       -0.04489106 -0.28913 -0.012199758 -0.3153773
0002a0 26 ad 0a bf f2 c3 ca bd dd 74 b8 3e 6b e1 6a bd
       -0.54170454 -0.09900655 0.3602666 -0.05734388
0002b0 31 3b a3 be 44 14 a9 bc 44 da ae be 54 a7 a7 3d
       -0.31881097 -0.020639546 -0.34150898 0.08186212
0002c0 a1 45 1c be 34 26 ed be 0b 1b 9e bd 9e 9f a5 bd
       -0.15260936 -0.4631821 -0.07720002 -0.08087085
0002d0 9f d5 ec 3c 99 bf 89 be 1b 0e 78 bd be 0f 4c 3d
       0.028910456 -0.2690399 -0.060560327 0.0498197
0002e0 da 77 b8 be 84 1c 91 3d 3e 7c a9 3a fe 0f 85 be
       -0.3602894 0.07085517 0.0012930704 -0.25988764
0002f0 09 e1 0e 3d b3 20 de be 5b 07 cc be 40 bd b1 3d
       0.03488258 -0.43384323 -0.39849362 0.08678675
000300 19 c3 7f be 73 bd cc be 3c c9 af be 5a b2 99 bf
       -0.24976768 -0.39988288 -0.34333217 -1.2007554
000310 57 73 25 be 66 16 b4 bd 60 5b fa be 9b 78 14 be
       -0.1615728 -0.08793335 -0.4889784 -0.14499132
000320 ab 71 4a bd 13 0a c9 bd 3e 87 a0 be 23 6d 64 be
       -0.04942481 -0.09816375 -0.31353182 -0.22307257
000330 32 9b 61 bd 7c 5a 4a be ff 93 23 be df 07 c2 3d
       -0.055079646 -0.1976108 -0.15974425 0.094741575
000340 6a 60 f4 bf f2 68 10 bd b1 d1 6a 3d 2d ce 82 bc
       -1.9091923 -0.035256334 0.057328884 -0.015967453
000350 6c 9d a0 be c5 1b a5 be 54 ad 0d bf 6d 02 01 be
       -0.31370103 -0.3224775 -0.553426 -0.12598582
000360 fa fd 9a bf 02 e8 5d 3e f7 bf ef 3d b3 99 99 be
       -1.2108757 0.21670535 0.11706536 -0.30000076
000370 7c c5 d1 be 03 15 1b bf 61 a5 f3 3d 7c c5 ac bc
       -0.4097098 -0.60578936 0.11896778 -0.021090262
000380 15 39 73 bd 69 9d 1f bd 25 db f8 3e 17 c7 38 be
       -0.05938061 -0.038968477 0.48604694 -0.18044697
000390 7b ec ba bf a6 31 69 3e ca 24 81 3e 04 1e 80 bd
       -1.4603418 0.22772846 0.2522338 -0.06255725
0003a0 ca 74 15 3d b0 fc 2a 3d 51 7e c6 3e e8 0a 7a 3d
       0.03648833 0.041744888 0.38768247 0.061045557
0003b0 3b 90 63 be 4f 66 89 3c 10 20 71 3e 20 c2 dd 3d
       -0.22222988 0.016772417 0.23547387 0.10828042
0003c0 b6 43 c2 be 83 c7 8a 3e 1a e4 ab 3c ae 68 36 be
       -0.37942284 0.2710534 0.02098279 -0.1781337
0003d0 3f 53 02 3d ce a8 83 3e f2 51 71 bd 22 e4 28 3e
       0.03181767 0.25714725 -0.05891604 0.16493276
0003e0 46 64 3e 3e cc a0 53 be 6e cf 74 3d 72 bc 8b be
       0.18592939 -0.20666808 0.059768133 -0.2729221
0003f0 88 45 3a 3d 49 8d 3a 3e 78 b1 87 bd f4 82 18 3e
       0.045476466 0.18217959 -0.06625646 0.14893705

network.4.bias f4 [28]
000000 b8 3e fb bf 50 de 2a c0 42 66 99 be b4 99 af bf
       -1.9628515 -2.6698189 -0.2996083 -1.3718781
000010 c6 56 15 be 8b 36 03 c0 14 2d 0b c0 7c d0 47 bf
       -0.14583883 -2.050204 -2.1746264 -0.78052497
000020 16 3c 25 c0 4e 06 36 bf 07 bb 92 bf 1c 1c 17 bf
       -2.5817924 -0.7110337 -1.1463326 -0.59027267
000030 20 ec 3d c0 da 07 56 41 07 c2 20 c0 85 7c 03 c0
       -2.967537 13.376917 -2.5118425 -2.054475
000040 a8 4a d9 bf ed eb 3c c0 1f d1 da bf ee 67 1e c0
       -1.6975908 -2.9518998 -1.7095069 -2.4750934
000050 8e dc 9f bf 91 0b 39 bf 95 0e 57 c0 71 1e fe bf
       -1.2489183 -0.72283274 -3.360265 -1.985304
000060 da 52 83 c0 21 b7 02 c0 7d 6e 77 bf 33 44 6b c0
       -4.1038637 -2.0424273 -0.96652967 -3.6760375

network.6.weight f4 [1, 28]
000000 6a 4a 73 be 8d 35 5d 3f fa 63 4b 3f 8a 74 c7 bc
       -0.23758855 0.86409837 0.7944943 -0.024347562
000010 52 61 87 be 23 93 df bf 5f dd 8d bf b2 ed d1 3f
       -0.26441437 -1.7466778 -1.1083182 1.6400664
000020 d5 1b 7b be 6d 43 a1 3f ed cb d2 3f 80 a6 ab 3f
       -0.24522336 1.2598702 1.6468483 1.3410187
000030 93 15 b7 be 9c 87 4f be 80 92 8b 3f e1 af af 3d
       -0.35758647 -0.20266575 1.0904083 0.08578468
000040 ab 73 28 3f 0f d1 ac 3f f3 cf 4f 3f a9 5a 69 be
       0.65801495 1.35013 0.8117668 -0.2278849
000050 4a 11 e0 3f 38 6f 8d 3f f6 72 ee 3e 38 c0 96 3e
       1.7505276 1.1049566 0.46572083 0.29443526
000060 30 2e 9c bf 8d 9a 99 bf 89 4b 2c 3e 67 f7 c3 be
       -1.2201595 -1.200029 0.1682569 -0.3827469
